results/VB_31/Volleyball/Volleyball-5152.pt (torch, 577575 bytes, 26 tensors)

discrete_act_size_vector f4 [1, 4]
3.0 3.0 3.0 2.0
00000000: 0000 4040 0000 4040 0000 4040 0000 0040

network_body.observation_encoder.processors.0.normalizer.running_mean f4 [11]
-0.016178198 0.00056126027 0.42017937 0.44284794 10.236153 -0.026042933 -1.5729306 0.0047831307
-6.803141 1.7988347e-09 -1.8568617e-09
00000000: 2488 84bc 8a21 133a c021 d73e f7bc e23e
00000010: 48c7 2341 fd57 d5bc ca55 c9bf cfbb 9c3b
00000020: 55b3 d9c0 df3a f730 8334 ffb0

network_body.observation_encoder.processors.0.normalizer.running_variance f4 [11]
582.8359 633.1148 656.44934 1945.0919 193216.1 39340.742 675380.0 32663.535
148586.66 30805.533 26567.613
00000000: 7fb5 1144 5947 1e44 c21c 2444 f122 f344
00000010: 06b0 3c48 beac 1947 40e3 2449 122f ff46
00000020: aa1a 1148 11ab f046 3a8f cf46

network_body.processors.0.normalizer.running_mean f4 [11]
-0.016178198 0.00056126027 0.42017937 0.44284794 10.236153 -0.026042933 -1.5729306 0.0047831307
-6.803141 1.7988347e-09 -1.8568617e-09
00000000: 2488 84bc 8a21 133a c021 d73e f7bc e23e
00000010: 48c7 2341 fd57 d5bc ca55 c9bf cfbb 9c3b
00000020: 55b3 d9c0 df3a f730 8334 ffb0

network_body.processors.0.normalizer.running_variance f4 [11]
582.8359 633.1148 656.44934 1945.0919 193216.1 39340.742 675380.0 32663.535
148586.66 30805.533 26567.613
00000000: 7fb5 1144 5947 1e44 c21c 2444 f122 f344
00000010: 06b0 3c48 beac 1947 40e3 2449 122f ff46
00000020: aa1a 1148 11ab f046 3a8f cf46

network_body._body_endoder.seq_layers.0.weight f4 [256, 11]
-0.46461123 0.033779316 0.13753435 -0.12866166 -0.6651676 -0.11200001 -0.45259184 0.35877416
-0.19179174 -0.07428883 -0.016261363 0.5325446 0.19044551 -0.099229746 0.29831603 0.1594415
0.070858665 0.003618218 -0.11937313 -0.063856706 -0.12922713 -0.14587167 0.18951224 0.4570581
0.116255745 0.32689312 -0.5571398 0.046996493 -0.243624 0.4703856 -0.40334564 0.29182908
-0.47510496 -0.7192052 0.31588537 0.15669063 0.26693052 -0.49822614 -0.08334948 -0.45236447
0.25788617 -0.30977398 0.32896486 -0.69398546 -0.13728803 0.3025125 0.025375435 -0.054010723
0.27347296 -0.5848921 -0.1832733 0.09011447 0.3504713 0.16144742 0.06738262 0.12388303
-0.26673192 -0.17793968 -0.5771638 0.42973948 -0.51249903 0.28752166 0.5196614 0.59875435
0.2120018 0.42401496 0.35383043 0.09493134 -0.5881516 -0.25694844 0.66918445 -0.09224217
0.28776774 -0.052698594 0.028081207 0.022495244 -0.048207957 -0.16010788 0.004986109 -0.023074241
-0.2649202 -0.44198504 0.1947263 0.35097745 -0.63426816 -0.6026966 -0.25897032 -0.31978658
0.38378528 0.09996651 -0.02685324 0.48147538 -0.17774427 0.49622634 0.18429047 -0.12199043
0.71450055 -0.40811193 0.5170386 -0.065319166 -0.36996764 -0.138035 -0.03394322 -0.044209912
-0.14409108 0.33831674 0.25779516 0.45325294 -0.59590167 0.16407219 0.24676324 -0.021530524
0.1264011 0.41433373 0.11581688 0.13749582 0.27054882 0.36342308 0.01901572 0.40118015
-0.17174207 -0.1600393 0.039711587 0.03233709 0.027954396 -0.4548762 0.27851793 0.3854168
-0.094644636 -0.2606997 -0.4629346 0.08364932 -0.36068463 0.41793042 -0.31433856 0.26428407
0.66897607 0.07586971 0.24942736 -0.26995406 -0.14009091 -0.13086177 -0.31138793 0.05926687
0.24329543 -0.12990436 -0.28120235 -0.3247347 -0.080552846 -0.692039 0.061919607 -0.061355602
0.023420814 0.68179154 -0.2936288 0.14696811 -0.0073334808 -0.5875168 -0.1882249 -0.031807527
0.122676104 -0.07123183 0.64299333 -0.14040709 0.16867146 -0.30372003 -0.4452894 0.43352255
0.08785636 -0.5551525 -0.123512246 0.29538912 0.19973847 -0.0937092 -0.072466135 0.016464433
0.28133 -0.41207433 0.3839755 0.03644559 -0.27738163 0.51809555 0.011078646 -0.2372069
-0.056123532 -0.2560762 -0.5697895 0.024341248 -0.23546265 0.19963036 0.17380466 0.2528414
-0.5110848 -0.16340588 -0.03044046 0.46916378 0.42317966 0.03873103 -0.4258897 0.07985051
-0.012620422 0.22079273 -0.15283497 0.097328946 0.20417102 0.19719507 0.07445531 0.013232826
-0.28194335 -0.31671453 -0.20177342 -0.4281484 -0.3643288 -0.47261357 0.13156049 0.43843156
0.020361114 0.6787783 0.44385853 -0.19774099 -0.0028036698 0.20697965 -0.10383192 0.078170404
0.053101018 0.2904343 -0.34344947 -0.28128487 -0.15090935 -0.041331127 -0.023580242 0.16814624
0.0011011913 0.18561362 -0.24450472 0.20908022 -0.12335263 -0.24426298 -0.27103105 -0.06225387
-0.16494696 -0.14219709 -0.10611382 0.19137926 -0.22966242 -0.017047102 0.23685335 0.35182595
-0.07372593 -0.07840886 -0.44787374 -0.12888634 -0.049526498 0.2824562 -0.21215898 0.25256428
00000000: 86e1 edbe 2e5c 0a3d ced5 0c3e e2bf 03be
00000010: 6d48 2abf 4360 e5bd 1eba e7be 3fb1 b73e
00000020: 0e65 44be be24 98bd 8d36 85bc d854 083f
00000030: 2604 433e f738 cbbd e1bc 983e a244 233e
00000040: 591e 913d a01f 6d3b e679 f4bd 4ec7 82bd
00000050: 1e54 04be 625f 15be 7f0f 423e 8503 ea3e
00000060: 7e17 ee3d 895e a73e b7a0 0ebf 657f 403d
00000070: 9278 79be 62d6 f03e 5283 cebe 9f6a 953e
00000080: f540 f3be d51d 38bf babb a13e 8273 203e
00000090: 1eab 883e 7f17 ffbe 22b3 aabd 519c e7be
000000a0: a809 843e b29a 9ebe 156e a83e 08a9 31bf
000000b0: 3c95 0cbe ebe2 9a3e 25e0 cf3c 593a 5dbd
000000c0: a604 8c3e 7dbb 15bf ffab 3bbe ef8d b83d
000000d0: f970 b33e 7952 253e e6ff 893d 63b6 fd3d
000000e0: 1691 88be d235 36be 02c1 13bf d006 dc3e
000000f0: 2333 03bf 0a36 933e 8808 053f f747 193f
00000100: 0017 593e 7d18 d93e 4329 b53e 5d6b c23d
00000110: 1a91 16bf bf8e 83be ac4f 2b3f 76e9 bcbd
00000120: 4b56 933e 7bda 57bd 8f0a e63c f247 b83c
00000130: b575 45bd 52f3 23be 8462 a33b 3106 bdbc
00000140: 9fa3 87be dd4b e2be 5566 473e 51b3 b33e
00000150: 665f 22bf 534a 1abf c297 84be 11bb a3be
00000160: 817f c43e 3ebb cc3d 53fb dbbc f183 f63e
00000170: 9802 36be 6111 fe3e a4b6 3c3e 1ed6 f9bd
00000180: 82e9 363f 0cf4 d0be a45c 043f 0ec6 85bd
00000190: 666c bdbe 0c59 0dbe 0c08 0bbd 7415 35bd
000001a0: 9d8c 13be da37 ad3e bafd 833e c510 e83e
000001b0: 038d 18bf 8a02 283e 81af 7c3e c860 b0bc
000001c0: 4a6f 013e 8d23 d43e 6631 ed3d b4cb 0c3e
000001d0: 6085 8a3e 9712 ba3e dbc6 9b3c 7c67 cd3e
000001e0: 27dd 2fbe 58e1 23be 9ea8 223d e573 043d
000001f0: 9e00 e53c 89e5 e8be e799 8e3e 5a55 c53e
00000200: 0cd5 c1bd 6e7a 85be c405 edbe 5650 ab3d
00000210: a8ab b8be fafa d53e fcf0 a0be 3e50 873e
00000220: 0442 2b3f 9461 9b3d e369 7f3e 6b37 8abe
00000230: fe73 0fbe a100 06be 3d6e 9fbe d1c1 723d
00000240: 7022 793e a605 05be c1f9 8fbe a043 a6be
00000250: e4f8 a4bd 7829 31bf 6a9f 7d3d 0350 7bbd
00000260: 02dd bf3c e489 2e3f 8456 96be cf7e 163e
00000270: b24d f0bb 8067 16bf 07be 40be 9c48 02bd
00000280: 9c3d fb3d fee1 91bd 369b 243f e0c6 0fbe
00000290: 36b8 2c3e 3181 9bbe f9fc e3be abf6 dd3e
000002a0: 09ee b33d 791e 0ebf fdf3 fcbd 3e3d 973e
000002b0: 3e88 4c3e 9cea bfbd 2069 94bd 6be0 863c
000002c0: 7c0a 903e 68fb d2be 7098 c43e f947 153d
000002d0: f704 8ebe e9a1 043f 3683 353c 5ee6 72be
000002e0: cae1 65bd 6b1c 83be badd 11bf 4c67 c73c
000002f0: 1f1d 71be e76b 4c3e d9f9 313e 6e74 813e
00000300: 74d6 02bf df53 27be 465e f9bc 3c36 f03e
00000310: 01ab d83e 6ea4 1e3d 370e dabe aa88 a33d
00000320: e3c5 4ebc 7d17 623e c580 1cbe 6654 c73d
00000330: 3512 513e 81ed 493e 077c 983d 7fce 583c
00000340: e15a 90be 6828 a2be b19d 4ebe 4436 dbbe
00000350: 4e89 babe 68fa f1be cbb7 063e 1a7a e03e
00000360: 5acc a63c 6ac4 2d3f 6d41 e33e 9d7c 4abe
00000370: c6bd 37bb 79f2 533e d4a5 d4bd ce17 a03d
00000380: 7480 593d ceb3 943e 9cd8 afbe 9204 90be
00000390: fb87 1abe d44a 29bd 5a2b c1bc 872e 2c3e
000003a0: d955 903a 7f11 3e3e 725f 7abe 2019 563e
000003b0: 4ea0 fcbd 1320 7abe 95c4 8abe eafd 7ebd
000003c0: dbe7 28be 1d9c 11be 3452 d9bd edf8 433e
000003d0: a02c 6bbe 5da6 8bbc af89 723e 8822 b43e
000003e0: 9ffd 96bd d394 a0bd b54f e5be c8fa 03be
000003f0: 4cdc 4abd 199e 903e 3440 59be 1b50 813e

network_body._body_endoder.seq_layers.0.bias f4 [256]
0.0 0.0 0.0 0.0 0.0 0.0 0.0 0.0
0.0 0.0 0.0 0.0 0.0 0.0 0.0 0.0
0.0 0.0 0.0 0.0 0.0 0.0 0.0 0.0
0.0 0.0 0.0 0.0 0.0 0.0 0.0 0.0
0.0 0.0 0.0 0.0 0.0 0.0 0.0 0.0
0.0 0.0 0.0 0.0 0.0 0.0 0.0 0.0
0.0 0.0 0.0 0.0 0.0 0.0 0.0 0.0
0.0 0.0 0.0 0.0 0.0 0.0 0.0 0.0
0.0 0.0 0.0 0.0 0.0 0.0 0.0 0.0
0.0 0.0 0.0 0.0 0.0 0.0 0.0 0.0
0.0 0.0 0.0 0.0 0.0 0.0 0.0 0.0
0.0 0.0 0.0 0.0 0.0 0.0 0.0 0.0
0.0 0.0 0.0 0.0 0.0 0.0 0.0 0.0
0.0 0.0 0.0 0.0 0.0 0.0 0.0 0.0
0.0 0.0 0.0 0.0 0.0 0.0 0.0 0.0
0.0 0.0 0.0 0.0 0.0 0.0 0.0 0.0
0.0 0.0 0.0 0.0 0.0 0.0 0.0 0.0
0.0 0.0 0.0 0.0 0.0 0.0 0.0 0.0
0.0 0.0 0.0 0.0 0.0 0.0 0.0 0.0
0.0 0.0 0.0 0.0 0.0 0.0 0.0 0.0
0.0 0.0 0.0 0.0 0.0 0.0 0.0 0.0
0.0 0.0 0.0 0.0 0.0 0.0 0.0 0.0
0.0 0.0 0.0 0.0 0.0 0.0 0.0 0.0
0.0 0.0 0.0 0.0 0.0 0.0 0.0 0.0
0.0 0.0 0.0 0.0 0.0 0.0 0.0 0.0
0.0 0.0 0.0 0.0 0.0 0.0 0.0 0.0
0.0 0.0 0.0 0.0 0.0 0.0 0.0 0.0
0.0 0.0 0.0 0.0 0.0 0.0 0.0 0.0
0.0 0.0 0.0 0.0 0.0 0.0 0.0 0.0
0.0 0.0 0.0 0.0 0.0 0.0 0.0 0.0
0.0 0.0 0.0 0.0 0.0 0.0 0.0 0.0
0.0 0.0 0.0 0.0 0.0 0.0 0.0 0.0
00000000: 0000 0000 0000 0000 0000 0000 0000 0000
00000010: 0000 0000 0000 0000 0000 0000 0000 0000
00000020: 0000 0000 0000 0000 0000 0000 0000 0000
00000030: 0000 0000 0000 0000 0000 0000 0000 0000
00000040: 0000 0000 0000 0000 0000 0000 0000 0000
00000050: 0000 0000 0000 0000 0000 0000 0000 0000
00000060: 0000 0000 0000 0000 0000 0000 0000 0000
00000070: 0000 0000 0000 0000 0000 0000 0000 0000
00000080: 0000 0000 0000 0000 0000 0000 0000 0000
00000090: 0000 0000 0000 0000 0000 0000 0000 0000
000000a0: 0000 0000 0000 0000 0000 0000 0000 0000
000000b0: 0000 0000 0000 0000 0000 0000 0000 0000
000000c0: 0000 0000 0000 0000 0000 0000 0000 0000
000000d0: 0000 0000 0000 0000 0000 0000 0000 0000
000000e0: 0000 0000 0000 0000 0000 0000 0000 0000
000000f0: 0000 0000 0000 0000 0000 0000 0000 0000
00000100: 0000 0000 0000 0000 0000 0000 0000 0000
00000110: 0000 0000 0000 0000 0000 0000 0000 0000
00000120: 0000 0000 0000 0000 0000 0000 0000 0000
00000130: 0000 0000 0000 0000 0000 0000 0000 0000
00000140: 0000 0000 0000 0000 0000 0000 0000 0000
00000150: 0000 0000 0000 0000 0000 0000 0000 0000
00000160: 0000 0000 0000 0000 0000 0000 0000 0000
00000170: 0000 0000 0000 0000 0000 0000 0000 0000
00000180: 0000 0000 0000 0000 0000 0000 0000 0000
00000190: 0000 0000 0000 0000 0000 0000 0000 0000
000001a0: 0000 0000 0000 0000 0000 0000 0000 0000
000001b0: 0000 0000 0000 0000 0000 0000 0000 0000
000001c0: 0000 0000 0000 0000 0000 0000 0000 0000
000001d0: 0000 0000 0000 0000 0000 0000 0000 0000
000001e0: 0000 0000 0000 0000 0000 0000 0000 0000
000001f0: 0000 0000 0000 0000 0000 0000 0000 0000
00000200: 0000 0000 0000 0000 0000 0000 0000 0000
00000210: 0000 0000 0000 0000 0000 0000 0000 0000
00000220: 0000 0000 0000 0000 0000 0000 0000 0000
00000230: 0000 0000 0000 0000 0000 0000 0000 0000
00000240: 0000 0000 0000 0000 0000 0000 0000 0000
00000250: 0000 0000 0000 0000 0000 0000 0000 0000
00000260: 0000 0000 0000 0000 0000 0000 0000 0000
00000270: 0000 0000 0000 0000 0000 0000 0000 0000
00000280: 0000 0000 0000 0000 0000 0000 0000 0000
00000290: 0000 0000 0000 0000 0000 0000 0000 0000
000002a0: 0000 0000 0000 0000 0000 0000 0000 0000
000002b0: 0000 0000 0000 0000 0000 0000 0000 0000
000002c0: 0000 0000 0000 0000 0000 0000 0000 0000
000002d0: 0000 0000 0000 0000 0000 0000 0000 0000
000002e0: 0000 0000 0000 0000 0000 0000 0000 0000
000002f0: 0000 0000 0000 0000 0000 0000 0000 0000
00000300: 0000 0000 0000 0000 0000 0000 0000 0000
00000310: 0000 0000 0000 0000 0000 0000 0000 0000
00000320: 0000 0000 0000 0000 0000 0000 0000 0000
00000330: 0000 0000 0000 0000 0000 0000 0000 0000
00000340: 0000 0000 0000 0000 0000 0000 0000 0000
00000350: 0000 0000 0000 0000 0000 0000 0000 0000
00000360: 0000 0000 0000 0000 0000 0000 0000 0000
00000370: 0000 0000 0000 0000 0000 0000 0000 0000
00000380: 0000 0000 0000 0000 0000 0000 0000 0000
00000390: 0000 0000 0000 0000 0000 0000 0000 0000
000003a0: 0000 0000 0000 0000 0000 0000 0000 0000
000003b0: 0000 0000 0000 0000 0000 0000 0000 0000
000003c0: 0000 0000 0000 0000 0000 0000 0000 0000
000003d0: 0000 0000 0000 0000 0000 0000 0000 0000
000003e0: 0000 0000 0000 0000 0000 0000 0000 0000
000003f0: 0000 0000 0000 0000 0000 0000 0000 0000

network_body._body_endoder.seq_layers.2.weight f4 [256, 256]
0.034133594 -0.10077328 -0.03126255 0.14511746 -0.07317684 -0.03232547 0.04013644 -0.011173435
-0.0018558368 0.09008277 -0.101862706 -0.042393807 0.0637609 -0.0888557 0.16159624 0.08330784
0.0356475 -0.023568634 -0.08643447 0.08825161 0.098144844 0.10931809 -0.009957708 -0.043919012
0.020579077 -0.0937622 -0.009107144 0.049621627 0.05076191 0.054529503 -0.071248055 0.09651936
0.0136707835 -0.050181437 0.01279744 0.012496083 0.029886167 -0.007051991 -0.0036168415 -0.00041513547
0.097360805 0.06717666 -0.030008964 -0.005951534 0.009725483 -0.02800089 0.028814454 0.097600035
0.004928913 0.067181945 -0.015050758 -0.009605913 0.08874308 0.037036475 0.068705894 -0.043794576
0.14938477 0.051949557 0.016005509 -0.0052794847 -0.066426985 0.037671607 0.057732236 -0.02775584
-0.05316238 0.012179322 0.007701132 0.04946561 -0.09691959 0.0015685342 0.012314624 -0.02431394
0.052705385 0.12988861 0.021895088 -0.04707271 0.104295336 0.16729918 0.0041105812 0.05251334
-0.030221423 -0.08295979 0.07840101 0.015694145 0.009738195 -0.061625715 -0.13870315 -0.07559292
-0.013705448 -0.061501075 -0.055742595 0.020917255 -0.078163974 0.030154308 -0.076156236 -0.07180356
-0.06413098 0.07473778 0.030815003 -0.074168704 0.037407935 -0.042846344 -0.057406988 -0.014605682
-0.07378007 -0.01970294 0.041094847 0.08410305 0.11075455 0.045710277 -0.02179283 -0.0033872167
-0.107387625 0.049567703 0.06239292 -0.060413875 -0.095979415 0.024285806 0.0696421 -0.07519708
0.07028957 0.12888919 -0.05226636 -0.16167744 -0.067012265 -0.097021945 -0.003772616 -0.050694596
0.03314026 -0.04311768 -0.053871334 0.06384005 0.07132393 -0.009629438 0.030424917 -0.014893796
0.0952169 0.015681377 0.06412349 0.079060584 -0.022744643 -0.009423397 0.11324936 -0.049861103
0.09631618 0.13080378 0.105874576 -0.03415357 -0.08258078 0.015199246 0.15192601 -0.026942486
0.103440255 -0.019081928 0.040719494 0.07907206 0.04190302 -0.01173937 -0.047422968 -0.040787812
0.032326613 -0.06433888 0.015715973 0.0850312 0.05458667 -0.07838349 0.009336872 0.12077656
0.014484832 0.027534127 0.028940532 0.007713443 0.018547365 0.03631802 -0.048921112 0.033903472
0.048937757 -0.09621141 0.027981047 0.038724884 0.019575559 -0.0084901685 -0.0110362 -0.033172674
0.058030464 -0.10426213 -0.12544146 0.003481782 0.10852333 0.04941386 0.016345127 -0.05566873
0.040227216 0.07393927 -0.01999287 0.0103560425 -0.015947187 0.025303692 0.0548568 0.03604648
0.00885954 -0.039758973 0.01356881 0.03911979 -0.01795813 -0.0028034667 -0.038668506 -0.09673021
0.057250857 -0.04181447 -0.0167171 -0.020924082 -0.035332236 0.025890807 0.07457836 0.0242407
-0.0087613305 -0.118508406 0.0054959916 -0.034483496 0.009202401 -0.05417905 -0.042523995 0.019373817
0.0108954795 -0.13830662 -0.1299013 -0.12686956 0.06516383 0.011852318 -0.027274175 -0.07602125
-0.05756011 0.016806675 0.059736993 0.008653187 0.07851249 0.04150582 0.033001088 0.06695513
0.0048933197 0.14776075 0.04116164 -0.12636916 -0.01278457 0.057751108 0.019003714 0.005134618
-0.09231793 -0.122055985 0.08645359 -0.01196187 0.027198482 -0.030651543 0.0018887413 0.02979126
00000000: abcf 0b3d 3962 cebd 290d 00bd ac99 143e
00000010: bddd 95bd b667 04bd 1c66 243d c810 37bc
00000020: 8d3f f3ba 517d b83d 659d d0bd 21a5 2dbd
00000030: 1395 823d faf9 b5bd 7c79 253e 4d9d aa3d
00000040: 1d03 123d 0213 c1bc 8e04 b1bd 43bd b43d
00000050: 2a00 c93d 2ae2 df3d a825 23bc 6ce4 33bd
00000060: 7495 a83c 6506 c0bd 2136 15bc 0c40 4b3d
00000070: b8eb 4f3d 545a 5f3d 80ea 91bd f1ab c53d
00000080: 6cfb 5f3c 0d8b 4dbd 5bac 513c 5fbc 4c3c
00000090: d6d3 f43c 6314 e7bb 8808 6dbb 8aa6 d9b9
000000a0: 1a65 c73d eb93 893d 5cd5 f5bc 1605 c3bb
000000b0: a257 1f3c 1f62 e5bc 4a0c ec3c 87e2 c73d
000000c0: b882 a13b b096 893d 7497 76bc 1f62 1dbc
000000d0: efbe b53d 8fb3 173d adb5 8c3d f161 33bd
000000e0: 52f8 183e 0fc9 543d fc1d 833c 87ff acbb
000000f0: df0a 88bd 8b4d 1a3d a378 6c3d 3760 e3bc
00000100: ccc0 59bd c78b 473c c759 fc3b 749c 4a3d
00000110: c77d c6bd 4697 cd3a 47c3 493c 072e c7bc
00000120: 9ae1 573d 8501 053e 545d b33c 50cf 40bd
00000130: cb98 d53d 7a50 2b3e 0eb2 863b 3a18 573d
00000140: eb92 f7bc d3e6 a9bd b590 a03d 0291 803c
00000150: f38c 1f3c 3f6b 7cbd 3308 0ebe 76d0 9abd
00000160: d18c 60bc 8de8 7bbd 5952 64bd aa5a ab3c
00000170: 6f14 a0bd 2b06 f73c cdf7 9bbd bf0d 93bd
00000180: 1a57 83bd 1f10 993d bf6f fc3c c3e5 97bd
00000190: 1039 193d a67f 2fbd 9723 6bbd ac4c 6fbc
000001a0: 011a 97bd 0f68 a1bc 1253 283d 383e ac3d
000001b0: 48d3 e23d b33a 3b3d e186 b2bc 11fc 5dbb
000001c0: 0bee dbbd 8107 4b3d b88f 7f3d 8a74 77bd
000001d0: db90 c4bd 07f3 c63c 84a0 8e3d ed00 9abd
000001e0: faf3 8f3d 87fb 033e 4015 56bd c58e 25be
000001f0: ba3d 89bd 71b3 c6bd fe3d 77bb 23a5 4fbd
00000200: 15be 073d 2a9c 30bd 30a8 5cbd 92be 823d
00000210: 4812 923d cac4 1dbc ad3d f93c 1c05 74bc
00000220: 1401 c33d 3b76 803c 2d53 833d 84ea a13d
00000230: f952 babc 9764 1abc 48ef e73d 283b 4cbd
00000240: 6b41 c53d 6df1 053e c5d4 d83d 9de4 0bbd
00000250: 1d20 a9bd 4206 793c 7e92 1b3e 7db6 dcbc
00000260: 7cd8 d33d b451 9cbc 7cc9 263d 88f0 a13d
00000270: 80a2 2b3d 7d56 40bc 963e 42bd 1f11 27bd
00000280: e968 043d 1ac4 83bd c9be 803c d624 ae3d
00000290: 4696 5f3d 8687 a0bd aef9 183c b359 f73d
000002a0: ca51 6d3c 408f e13c b214 ed3c 0dc1 fc3b
000002b0: a5f0 973c 34c2 143d 8161 48bd 5ede 0a3d
000002c0: f572 483d 7d0a c5bd 8238 e53c fc9d 1e3d
000002d0: ec5c a03c 591a 0bbc 2ed1 34bc 12e0 07bd
000002e0: 5ab1 6d3d 6287 d5bd ba73 00be 9c2e 643b
000002f0: 7b41 de3d 3066 4a3d 37e6 853c e504 64bd
00000300: 4bc5 243d 796d 973d 16c8 a3bc 64ac 293c
00000310: ada3 82bc b049 cf3c 86b1 603d 79a5 133d
00000320: 9b27 113c 4eda 22bd b74f 5e3c 133c 203d
00000330: ee1c 93bc 5eba 37bb de62 1ebd 7d1a c6bd
00000340: e07f 6a3d a645 2bbd 4df2 88bc fb68 abbc
00000350: 89b8 10bd f518 d43c 8abc 983d 6f94 c63c
00000360: af8b 0fbc 89b4 f2bd b817 b43b 913e 0dbd
00000370: abc5 163c daea 5dbd a42d 2ebd d7b5 9e3c
00000380: f482 323c 40a0 0dbe d904 05be 18ea 01be
00000390: 9d74 853d 3a30 423c 176e dfbc 07b1 9bbd
000003a0: 26c4 6bbd 27ae 893c c7ae 743d 19c6 0d3c
000003b0: 28cb a03d 0202 2a3d 262c 073d c51f 893d
000003c0: 2458 a03b 984e 173e 1c99 283d eb66 01be
000003d0: 6076 51bc 6d8c 6c3d adad 9b3c 4c40 a83b
000003e0: 2f11 bdbd 7df8 f9bd 940e b13d b8fb 43bc
000003f0: 5acf de3c f218 fbbc a48f f73a cd0c f43c

network_body._body_endoder.seq_layers.2.bias f4 [256]
0.0 0.0 0.0 0.0 0.0 0.0 0.0 0.0
0.0 0.0 0.0 0.0 0.0 0.0 0.0 0.0
0.0 0.0 0.0 0.0 0.0 0.0 0.0 0.0
0.0 0.0 0.0 0.0 0.0 0.0 0.0 0.0
0.0 0.0 0.0 0.0 0.0 0.0 0.0 0.0
0.0 0.0 0.0 0.0 0.0 0.0 0.0 0.0
0.0 0.0 0.0 0.0 0.0 0.0 0.0 0.0
0.0 0.0 0.0 0.0 0.0 0.0 0.0 0.0
0.0 0.0 0.0 0.0 0.0 0.0 0.0 0.0
0.0 0.0 0.0 0.0 0.0 0.0 0.0 0.0
0.0 0.0 0.0 0.0 0.0 0.0 0.0 0.0
0.0 0.0 0.0 0.0 0.0 0.0 0.0 0.0
0.0 0.0 0.0 0.0 0.0 0.0 0.0 0.0
0.0 0.0 0.0 0.0 0.0 0.0 0.0 0.0
0.0 0.0 0.0 0.0 0.0 0.0 0.0 0.0
0.0 0.0 0.0 0.0 0.0 0.0 0.0 0.0
0.0 0.0 0.0 0.0 0.0 0.0 0.0 0.0
0.0 0.0 0.0 0.0 0.0 0.0 0.0 0.0
0.0 0.0 0.0 0.0 0.0 0.0 0.0 0.0
0.0 0.0 0.0 0.0 0.0 0.0 0.0 0.0
0.0 0.0 0.0 0.0 0.0 0.0 0.0 0.0
0.0 0.0 0.0 0.0 0.0 0.0 0.0 0.0
0.0 0.0 0.0 0.0 0.0 0.0 0.0 0.0
0.0 0.0 0.0 0.0 0.0 0.0 0.0 0.0
0.0 0.0 0.0 0.0 0.0 0.0 0.0 0.0
0.0 0.0 0.0 0.0 0.0 0.0 0.0 0.0
0.0 0.0 0.0 0.0 0.0 0.0 0.0 0.0
0.0 0.0 0.0 0.0 0.0 0.0 0.0 0.0
0.0 0.0 0.0 0.0 0.0 0.0 0.0 0.0
0.0 0.0 0.0 0.0 0.0 0.0 0.0 0.0
0.0 0.0 0.0 0.0 0.0 0.0 0.0 0.0
0.0 0.0 0.0 0.0 0.0 0.0 0.0 0.0
00000000: 0000 0000 0000 0000 0000 0000 0000 0000
00000010: 0000 0000 0000 0000 0000 0000 0000 0000
00000020: 0000 0000 0000 0000 0000 0000 0000 0000
00000030: 0000 0000 0000 0000 0000 0000 0000 0000
00000040: 0000 0000 0000 0000 0000 0000 0000 0000
00000050: 0000 0000 0000 0000 0000 0000 0000 0000
00000060: 0000 0000 0000 0000 0000 0000 0000 0000
00000070: 0000 0000 0000 0000 0000 0000 0000 0000
00000080: 0000 0000 0000 0000 0000 0000 0000 0000
00000090: 0000 0000 0000 0000 0000 0000 0000 0000
000000a0: 0000 0000 0000 0000 0000 0000 0000 0000
000000b0: 0000 0000 0000 0000 0000 0000 0000 0000
000000c0: 0000 0000 0000 0000 0000 0000 0000 0000
000000d0: 0000 0000 0000 0000 0000 0000 0000 0000
000000e0: 0000 0000 0000 0000 0000 0000 0000 0000
000000f0: 0000 0000 0000 0000 0000 0000 0000 0000
00000100: 0000 0000 0000 0000 0000 0000 0000 0000
00000110: 0000 0000 0000 0000 0000 0000 0000 0000
00000120: 0000 0000 0000 0000 0000 0000 0000 0000
00000130: 0000 0000 0000 0000 0000 0000 0000 0000
00000140: 0000 0000 0000 0000 0000 0000 0000 0000
00000150: 0000 0000 0000 0000 0000 0000 0000 0000
00000160: 0000 0000 0000 0000 0000 0000 0000 0000
00000170: 0000 0000 0000 0000 0000 0000 0000 0000
00000180: 0000 0000 0000 0000 0000 0000 0000 0000
00000190: 0000 0000 0000 0000 0000 0000 0000 0000
000001a0: 0000 0000 0000 0000 0000 0000 0000 0000
000001b0: 0000 0000 0000 0000 0000 0000 0000 0000
000001c0: 0000 0000 0000 0000 0000 0000 0000 0000
000001d0: 0000 0000 0000 0000 0000 0000 0000 0000
000001e0: 0000 0000 0000 0000 0000 0000 0000 0000
000001f0: 0000 0000 0000 0000 0000 0000 0000 0000
00000200: 0000 0000 0000 0000 0000 0000 0000 0000
00000210: 0000 0000 0000 0000 0000 0000 0000 0000
00000220: 0000 0000 0000 0000 0000 0000 0000 0000
00000230: 0000 0000 0000 0000 0000 0000 0000 0000
00000240: 0000 0000 0000 0000 0000 0000 0000 0000
00000250: 0000 0000 0000 0000 0000 0000 0000 0000
00000260: 0000 0000 0000 0000 0000 0000 0000 0000
00000270: 0000 0000 0000 0000 0000 0000 0000 0000
00000280: 0000 0000 0000 0000 0000 0000 0000 0000
00000290: 0000 0000 0000 0000 0000 0000 0000 0000
000002a0: 0000 0000 0000 0000 0000 0000 0000 0000
000002b0: 0000 0000 0000 0000 0000 0000 0000 0000
000002c0: 0000 0000 0000 0000 0000 0000 0000 0000
000002d0: 0000 0000 0000 0000 0000 0000 0000 0000
000002e0: 0000 0000 0000 0000 0000 0000 0000 0000
000002f0: 0000 0000 0000 0000 0000 0000 0000 0000
00000300: 0000 0000 0000 0000 0000 0000 0000 0000
00000310: 0000 0000 0000 0000 0000 0000 0000 0000
00000320: 0000 0000 0000 0000 0000 0000 0000 0000
00000330: 0000 0000 0000 0000 0000 0000 0000 0000
00000340: 0000 0000 0000 0000 0000 0000 0000 0000
00000350: 0000 0000 0000 0000 0000 0000 0000 0000
00000360: 0000 0000 0000 0000 0000 0000 0000 0000
00000370: 0000 0000 0000 0000 0000 0000 0000 0000
00000380: 0000 0000 0000 0000 0000 0000 0000 0000
00000390: 0000 0000 0000 0000 0000 0000 0000 0000
000003a0: 0000 0000 0000 0000 0000 0000 0000 0000
000003b0: 0000 0000 0000 0000 0000 0000 0000 0000
000003c0: 0000 0000 0000 0000 0000 0000 0000 0000
000003d0: 0000 0000 0000 0000 0000 0000 0000 0000
000003e0: 0000 0000 0000 0000 0000 0000 0000 0000
000003f0: 0000 0000 0000 0000 0000 0000 0000 0000

action_model._discrete_distribution.branches.0.weight f4 [3, 256]
0.0087897135 -0.0036933466 0.0006638532 -0.0035228957 -0.0009210139 0.0015962733 -0.010642275 -0.010977252
0.0052354527 -7.762709e-06 -0.0057963706 -0.0019520583 0.004908879 0.011104593 0.0077542863 0.0056518433
-0.006764156 -0.00024829333 0.004352792 0.0072643184 -0.010248487 -0.011695834 0.0025108028 -0.001525371
0.0013555911 -0.008540737 -0.01393638 -0.008590993 -0.013572092 -0.00040380875 -0.00078261737 -0.006429599
-0.0076000164 -0.004909481 0.012829824 -0.007937413 -0.0010624324 0.008283783 0.008012531 -0.0061549
0.001989181 -0.014116152 0.0054132915 -0.0059716846 -0.0012241607 -0.013013986 0.0069501633 0.0011152028
-0.008131142 -0.0056666243 0.00044957438 -0.0048846523 -0.0027237271 -0.0013321996 -0.0005944975 -0.003023484
-0.0026394946 0.0026141228 -0.005417661 -0.0047387048 0.004907942 0.0018713482 -0.0009793293 0.012919158
-0.008656863 -0.008705356 0.014316213 -0.0014069447 0.0030753114 -0.0070637832 0.0047920193 -0.0043577645
-0.0032547582 -0.0061798366 -0.009981856 0.0029318298 0.00782192 -0.0035515602 0.012655983 0.0035237537
0.00024414726 0.01052425 -0.0018900353 0.0062383614 -0.0047174343 0.0031584415 0.0051708473 -0.011934717
-0.006128885 -0.0041111675 -0.00023562611 0.0032350726 0.006525177 -0.0043971385 0.0073204213 0.0042343973
-0.00017806141 -0.004378523 -0.0040175114 7.156518e-05 0.009073292 -0.007414408 -0.0035658234 -0.0063862475
0.00059408246 -0.00096605247 0.0010715865 0.0034579665 -0.010383094 -0.0058239414 0.0016627972 0.008146883
-0.010140055 -0.005730244 -0.006898316 0.008999775 0.0015840697 -0.0025085348 0.002069745 -0.0025688873
-0.002675146 -0.0013303325 -0.0050317678 -0.00065033435 0.009120072 0.00219175 0.0016538643 0.0067480127
0.0036718396 -0.008477296 0.0015696764 -0.0052499017 0.0065661753 -0.00032205868 -0.0046009547 -0.011258841
-0.0072760596 -0.0058293073 0.008761887 0.0015575939 -0.0067704283 0.0049468176 0.004716974 0.004920534
-0.009827986 -0.005967501 0.010994464 -0.004609512 -0.013784978 -0.0066983737 0.0003726212 -0.0049945186
-0.011063396 -0.0016447533 0.0013886348 0.0017463661 0.00484984 0.005076445 -0.006157366 -0.0017925544
0.011239985 -0.013876225 0.008928533 -0.009486041 0.0053878888 0.0057944697 -0.0017977487 0.008588167
0.0022976252 -0.0029315695 -0.0070610135 0.0046606916 0.0047357287 -0.0014156129 5.285616e-05 0.003971737
-0.0060195117 -0.0010634018 -3.715159e-05 0.004629545 -0.0034578682 0.0008413774 -0.005479728 -0.0033163156
-0.010019022 0.009379913 -0.0020574718 -0.011547263 0.010994175 -0.0014370406 -0.0017418684 0.015966695
-0.003524441 -0.006395135 0.009796309 -0.004329191 0.012246809 -0.0017403662 -0.00047664015 0.0050487434
-0.0020847844 0.009338423 -0.0117941005 0.008648041 0.0063366196 0.0030497294 0.010704237 0.002889081
0.0046701278 0.001622313 0.00091136195 -0.0010467315 0.008508548 -0.0033829398 0.006426559 0.0023918597
-0.0048557483 0.0014947847 -0.0058427732 0.006730334 0.0031985566 -0.010557267 -0.004026947 -0.0016005691
0.0026884906 0.0032404473 -0.0013907588 -0.004307085 0.0061953897 0.005254209 0.006212421 0.008611827
-0.000854602 0.008248223 -0.0025747363 0.005679804 0.0025514956 -0.0029871406 -0.0033323485 -0.0007886253
-0.0049234005 -0.0022390734 -0.005026493 0.0044524255 -0.0043992726 -0.0013839958 0.011876156 -0.011665058
-0.0065037753 0.006668787 -0.009100007 0.009881576 0.005619855 0.012571839 -6.536646e-05 0.0059777745
00000000: bb02 103c 130c 72bb 6f06 2e3a 62e0 66bb
00000010: 3270 71ba 0b3a d13a f05c 2ebc efd9 33bc
00000020: 298e ab3b 953c 02b7 7bef bdbb 35dc ffba
00000030: a9da a03b 0af0 353c ab17 fe3b 1933 b93b
00000040: daa5 ddbb 5e2d 82b9 dea1 8e3b 8509 ee3b
00000050: 45e9 27bc e29f 3fbc 488c 243b f5ee c7ba
00000060: 17ae b13a 73ee 0bbc 6a55 64bc 3cc1 0cbc
00000070: 7b5d 5ebc 4bb6 d3b9 9028 4dba 63af d2bb
00000080: 8f09 f9bb b6df a0bb 2f34 523c ec0b 02bc
00000090: 5141 8bba b4b8 073c fe46 033c 0baf c9bb
000000a0: eb5c 023b 6f47 67bc fb61 b13b 1fae c3bb
000000b0: 0474 a0ba 9d38 55bc 32be e33b ff2b 923a
000000c0: 7b38 05bc 17af b9bb dab4 eb39 6f0f a0bb
000000d0: 8f80 32bb 339d aeba 0dd8 1bba a525 46bb
000000e0: 5ffb 2cbb b451 2b3b a286 b1bb 2347 9bbb
000000f0: cdd2 a03b 0748 f53a d75c 80ba e0aa 533c
00000100: 84d5 0dbc e9a0 0ebc 8d8e 6a3c 3b69 b8ba
00000110: 2a8b 493b 4f77 e7bb 5f06 9d3b 94cb 8ebb
00000120: c84d 55bb 3a80 cabb f08a 23bc f123 403b
00000130: 8327 003c 4bc1 68bb 0a5b 4f3c c7ee 663b
00000140: e400 8039 e76d 2c3c 10bb f7ba 2b6b cc3b
00000150: b594 9abb dbfd 4e3b 3670 a93b d589 43bc
00000160: d0d4 c8bb f9b6 86bb 6712 77b9 8303 543b
00000170: 27d1 d53b df15 90bb 25e0 ef3b b3c0 8a3b
00000180: ffb5 3ab9 b779 8fbb 54a5 83bb 4315 9638
00000190: 25a8 143c 90f4 f2bb 97b0 69bb ba43 d1bb
000001a0: 33bc 1b3a af3e 7dba 7a74 8c3a 0d9f 623b
000001b0: da1d 2abc c3d6 bebb 37f2 d93a 817a 053c
000001c0: 7922 26bc c5c4 bbbb 450b e2bb cb73 133c
000001d0: 8fa0 cf3a 3b66 24bb 8fa4 073b c75a 28bb
000001e0: 8151 2fbb 8d5e aeba 87e1 a4bb 337b 2aba
000001f0: 5b6c 153c 77a3 0f3b 7ac6 d83a 6f1e dd3b
00000200: 3fa3 703b 5be4 0abc 9abd cd3a 5e07 acbb
00000210: 1229 d73b fcd9 a8b9 9bc3 96bb 0077 38bc
00000220: 036c eebb c603 bfbb 058e 0f3c 2e28 cc3a
00000230: 78da ddbb ea18 a23b d990 9a3b 6e3c a13b
00000240: 9005 21bc 078b c3bb 2022 343c 640b 97bb
00000250: 63da 61bc 087e dbbb 5f5c c339 0fa9 a3bb
00000260: 3f43 35bc c394 d7ba da02 b63a 53e6 e43a
00000270: 68eb 9e3b 4f58 a63b bbc3 c9bb 25f4 eaba
00000280: ea27 383c 1b59 63bc fb48 123c 576b 1bbc
00000290: e38c b03b 89df bd3b 70a2 ebba 62b5 0c3c
000002a0: c193 163b 931f 40bb 1360 e7bb b7b8 983b
000002b0: 2c2e 9b3b 168c b9ba dfb1 5d38 5825 823b
000002c0: 533f c5bb d861 8bba 37d3 1bb8 70b3 973b
000002d0: 679d 62bb e28f 5c3a 4a8f b3bb 8b56 59bb
000002e0: d326 24bc 35ae 193c a6d6 06bb bb30 3dbc
000002f0: ea20 343c 155b bcba 684f e4ba 96cc 823c
00000300: 4ffa 66bb 488e d1bb b380 203c e3db 8dbb
00000310: d7a6 483c 001d e4ba 8fe5 f9b9 ee6f a53b
00000320: e1a0 08bb 2f00 193c 0b3c 41bc 83b0 0d3c
00000330: 6ba3 cf3b f8dd 473b d360 2f3c bc56 3d3b
00000340: df07 993b cba3 d43a 77e8 6e3a 7b32 89ba
00000350: 7067 0b3c 50b4 5dbb e295 d23b bfc0 1c3b
00000360: f81c 9fbb a7ec c33a bc74 bfbb 228a dc3b
00000370: e09e 513b 63f8 2cbc 7bf4 83bb 30ca d1ba
00000380: 6331 303b af5d 543b 1f4a b6ba 7322 8dbb
00000390: b202 cb3b 802b ac3b 9191 cb3b 9f18 0d3c
000003a0: 5f07 60ba 8e23 073c e8bc 28bb a61d ba3b
000003b0: fe36 273b e7c3 43bb 8863 5abb bfbb 4eba
000003c0: 7a54 a1bb 6bbd 12bb 48b5 a4bb a7e5 913b
000003d0: c627 90bb 3167 b5ba 3594 423c cd1e 3fbc
000003e0: 9f1d d5bb d785 da3b 3218 15bc 55e6 213c
000003f0: c326 b83b 1dfa 4d3c 5a15 89b8 35e1 c33b

action_model._discrete_distribution.branches.0.bias f4 [3]
0.0 0.0 0.0
00000000: 0000 0000 0000 0000 0000 0000

action_model._discrete_distribution.branches.1.weight f4 [3, 256]
-0.003282393 0.0008664962 -0.002742394 0.008340767 0.004098781 -0.016538057 0.0006404775 -0.0006968767
0.009571075 -0.0059413426 -0.00047267746 -0.0023947367 0.000393509 -0.007705824 -0.0014962786 0.00016960978
-0.010628861 0.005644139 -0.01206129 -0.004243075 -0.0044662314 0.008663703 0.0045828857 -0.0026073987
-0.0014581236 0.0073446217 -0.00531833 -0.0070566833 0.0020284147 0.01167917 0.0018958983 0.006192995
-0.005349595 0.0022289702 -0.001056082 0.013203499 -0.00375689 0.0135788 -0.004206977 -0.003672645
-0.004255642 -0.004073971 0.0053474917 0.0022871483 0.0016677609 -0.007341211 -0.0078025386 0.0069355713
0.010426164 -0.016544526 -0.003646201 -0.00436557 -0.005675242 -0.00025695184 -0.0059580985 0.0023921842
-0.00708154 -0.0008429748 -0.0004568968 -0.0023568715 -0.0035633564 0.0019814647 0.0043453267 -0.005888911
-0.0056390236 -0.00329979 0.005394684 0.002927032 -0.0040949527 -0.003132817 -0.004465872 -0.0050576716
-0.0058844658 0.0025431656 -0.007910795 0.0038735536 -0.010642632 0.0002608137 0.0046075736 0.00680427
-0.0013640415 0.0032061872 0.0031928008 0.00510774 0.012220358 0.0037156865 0.0043171435 0.010073095
0.012125868 -0.0028651843 0.009252199 0.003806356 -0.004827209 0.0023926047 0.007783475 0.0088614235
-0.008756156 -0.006406075 -0.0068819188 -0.0025314102 -0.0011810688 -0.0017637156 0.0026870982 0.015703028
0.0011301747 0.0043839165 0.007872155 0.014703748 -1.3755266e-05 -0.005435053 -0.007853094 0.0024147434
-0.004092504 0.0015657711 0.0014440028 -0.0028801723 -0.0023688346 -0.00029555286 -0.015202681 0.0044501754
-0.0044748276 -0.0044457684 -0.00018573803 -0.0004742151 -0.0070355884 -0.009112717 -0.015985457 -0.0014102639
0.001513963 -0.00012405551 -0.002595882 -0.0024220205 0.0004750105 0.005819783 0.0015726704 -0.00667647
0.0063157044 0.0036689693 -0.00545996 0.0039301417 0.0061044134 0.0040690745 0.002449483 0.0011866114
-0.0031673273 -0.014424964 0.000738121 0.005083408 -0.001052906 -0.012049573 0.014006535 0.008897416
-0.0076919184 -0.0015204638 -0.0075124227 0.0021835985 -0.0039648027 -0.0073508406 -0.010247806 0.008953957
0.0010187072 0.0044413544 0.006541104 -0.004099429 -0.0035301836 0.0017840968 -0.006441217 -0.00080068177
-0.007395045 0.0029065486 -0.0008669382 -0.0100301495 0.0021377162 0.010191077 -0.0057536326 -0.0008292637
0.0013605157 -0.00075235486 -0.0016094906 0.0022933776 0.0014703014 0.0011294502 0.0027729422 0.0031523728
0.010614806 -0.0016291224 -0.00072589 0.0024271372 0.0069319233 -0.0042143473 -0.0035124307 -0.0016407641
-0.0029088065 -0.0058492194 0.004731858 0.002283304 0.010567292 -0.0010062716 0.002092049 0.01637944
0.0046815546 0.008099557 0.0012305047 0.0020584352 -0.0035077494 -0.0030645952 -0.0047325026 -0.0013736353
0.003721082 0.00822523 -0.009885385 -0.007496729 0.00547447 0.0050742417 0.00087998324 0.001737063
-0.00081364065 -0.0061930288 -0.015658708 0.007400028 0.0044903145 -0.0028331755 -0.0019202987 -0.0007850028
0.010732571 -0.0064213164 0.003681001 -0.004139328 -0.006469061 0.005026266 -0.007605282 -0.004114226
-0.0048078336 -0.0035461884 0.001231852 -0.0030332746 -0.002529484 -0.0065422333 -0.0026581013 0.005677262
-0.007139248 -0.008481695 0.010032937 -0.001260109 -0.006387112 0.0002315564 0.0038530116 0.0011674266
-0.00020461602 0.002365834 -0.0010118553 -0.00032230187 0.005274869 0.009198211 0.015180345 0.0011752973
00000000: 6b1d 57bb 9325 633a bdb9 33bb b6a7 083c
00000010: 114f 863b d27a 87bc b8e5 273a 9bae 36ba
00000020: 00d0 1c3c 98af c2bb b2d1 f7b9 04f1 1cbb
00000030: e24f ce39 2381 fcbb c71e c4ba 47d9 3139
00000040: ad24 2ebc 78f2 b83b b89c 45bc 7e09 8bbb
00000050: 7759 92bb 34f2 0d3c 082c 963b e4e0 2abb
00000060: 821e bfba 27ab f03b 6345 aebb c03b e7bb
00000070: 27ef 043b fd59 3f3c ca7f f83a 9bee ca3b
00000080: a84b afbb ea13 123b 3b6c 8aba 7d53 583c
00000090: 2836 76bb 9d79 5e3c aeda 89bb c2b0 70bb
000000a0: ea72 8bbb f27e 85bb 033a af3b fbe3 153b
000000b0: c598 da3a 8b8e f0bb 70ac ffbb ca43 e33b
000000c0: 80d2 2a3c 6388 87bc 1af5 6ebb 0e0d 8fbb
000000d0: 61f7 b9bb 7eb7 86b9 273c c3bb 31c6 1c3b
000000e0: 430c e8bb 15fb 5cba a78b efb9 be75 1abb
000000f0: 3387 69bb 76db 013b 3e63 8e3b c4f7 c0bb
00000100: 8fc7 b8bb 4a41 58bb e4c5 b03b 73d3 3f3b
00000110: f42e 86bb f34f 4dbb 7356 92bb d3ba a5bb
00000120: 7ad2 c0bb 3dab 263b 479c 01bc 72db 7d3b
00000130: 6f5e 2ebc d2bd 8839 21fb 963b 5bf6 de3b
00000140: a3c9 b2ba e51e 523b 4f3e 513b d45e a73b
00000150: e537 483c e082 733b d376 8d3b 9f09 253c
00000160: 94ab 463c d1c5 3bbb 8996 173c 0f74 793b
00000170: 902d 9ebb 3fcd 1c3b 850c ff3b 812f 113c
00000180: fb75 0fbc 0dea d1bb b881 e1bb 04e6 25bb
00000190: 18ce 9aba 7a2c e7ba 071a 303b a3a3 803c
000001a0: 5f22 943a f5a6 8f3b 36fa 003c fde7 703c
000001b0: 6bc6 66b7 8718 b2bb 43aa 00bc ac40 1e3b
000001c0: 691a 86bb 8f3a cd3a b244 bd3a 46c1 3cbb
000001d0: 733e 1bbb 6ff4 9ab9 aa14 79bc c7d2 913b
000001e0: 93a1 92bb cfad 91bb acc2 42b9 13a0 f8b9
000001f0: cb8a e6bb 814d 15bc eff3 82bc 9bd8 b8ba
00000200: 2b70 c63a e614 02b9 ac1f 2abb c3ba 1ebb
00000210: d50a f939 e1b3 be3b 1022 ce3a 4ac6 dabb
00000220: f8f3 ce3b 1773 703b 77e9 b2bb 6bc8 803b
00000230: 8807 c83b df55 853b 8187 203b 1288 9b3a
00000240: ef92 4fbb af56 6cbc 767e 413a b892 a63b
00000250: aa01 8aba 926b 45bc aa7b 653c 78c6 113c
00000260: 7d0c fcbb 4d4a c7ba c52a f6bb b41a 0f3b
00000270: 2deb 81bb 52df f0bb 6ae6 27bc 9eb3 123c
00000280: 2486 853a c888 913b c256 d63b 8154 86bb
00000290: a75a 67bb 5bd8 e93a d810 d3bb d8e4 51ba
000002a0: 2252 f2bb cb7b 3e3b 3d43 63ba 7f55 24bc
000002b0: ed18 0c3b 7af8 263c f888 bcbb f262 59ba
000002c0: 5553 b23a ae39 45ba 8bf5 d2ba 7e4c 163b
000002d0: 21b7 c03a 0f0a 943a 40ba 353b 0a98 4e3b
000002e0: b9e9 2d3c 4788 d5ba a749 3eba 9b10 1f3b
000002f0: 3025 e33b 8218 8abb cf30 66bb e80e d7ba
00000300: ada1 3ebb cfaa bfbb b40d 9b3b 7ca3 153b
00000310: 6f22 2d3c dfe4 83ba c21a 093b 2d2e 863c
00000320: ba67 993b 01b4 043c e348 a13a d0e6 063b
00000330: 45e2 65bb 60d7 48bb 1c13 9bbb 8d0b b4ba
00000340: 65dd 733b 1dc3 063c 4ff6 21bc 1fa7 f5bb
00000350: 2f63 b33b d345 a63b adae 663a 2aae e33a
00000360: 804a 55ba e4ee cabb b146 80bc ef7b f23b
00000370: 7d23 933b ccac 39bb 88b2 fbba a5c8 4dba
00000380: aad7 2f3c e869 d2bb f33c 713b 33a3 87bb
00000390: 6bfa d3bb 60b3 a43b bb35 f9bb a1d0 86bb
000003a0: 088b 9dbb 2b67 68bb 1876 a13a e7c9 46bb
000003b0: b3c5 25bb 3b60 d6bb 8a33 2ebb 5308 ba3b
000003c0: 5af0 e9bb cff6 0abc 3061 243c 3e2a a5ba
000003d0: fb4a d1bb f3cd 7239 cf82 7c3b 5604 993a
000003e0: 328e 56b9 1c0c 1b3b 3ba0 84ba a0fa a8b9
000003f0: cfd8 ac3b 18b4 163c fbb6 783c 6f0c 9a3a

action_model._discrete_distribution.branches.1.bias f4 [3]
0.0 0.0 0.0
00000000: 0000 0000 0000 0000 0000 0000

action_model._discrete_distribution.branches.2.weight f4 [3, 256]
0.0062817256 0.0067320443 -0.01162821 -0.0066871503 0.0015701595 0.002048846 0.010890636 -0.0053218883
0.010453393 -0.004368259 -0.0013354992 0.0028812683 -0.011389847 0.013407986 0.008825878 -0.0022758297
0.0027363447 -0.0008577685 -0.0002943276 0.009596306 -0.009815709 -0.0064573213 0.005334977 -0.0024659005
0.0143304905 -0.011799904 0.0014757364 0.0019287199 -0.0061592422 0.0012227927 -0.0019315567 -0.0071778432
-0.00339735 3.174038e-05 -0.0009224724 -0.0020717585 0.0030257886 -0.005472139 -0.00022163689 0.004569329
-0.0024105627 0.0065940768 -0.0060259285 0.010506992 -0.0004009963 -0.0066339895 -0.0033544686 0.0016334587
-0.016659189 -0.0026994317 0.0076167346 -0.0057440302 -0.011583294 0.0036163458 0.0077532567 -0.011650851
-0.009080018 -0.0025305932 0.00095053104 -0.0027693124 -0.0023141783 -0.00608913 -0.006970111 0.008728224
0.008657596 0.0033359695 -0.007717017 0.0043027657 -0.005023739 0.010844872 0.012610053 0.006131293
-0.003956855 0.01172633 0.0046091327 -0.0011521708 0.0010060339 0.0007809137 0.0031598979 0.0066939243
-0.00034543825 0.013517337 0.0031966243 -0.0062284363 -0.0072865807 -0.0037500698 -0.0073172874 -0.006902912
-0.006743697 0.002919345 -0.003976121 0.0084242225 -0.007792236 0.0073773884 -0.00057489757 -0.008538882
-0.002249832 -0.014062256 0.007778132 -0.013780492 0.0017664053 0.0042107957 0.0038000809 -0.0027520454
-0.0062366733 -0.007736638 0.001803724 0.000908446 -0.0055722673 -0.0008998417 0.00026187845 7.710136e-06
0.003292754 -0.0033667341 -0.0034834412 -0.009945225 -0.0029934058 -0.007920247 0.0004372907 -0.005651429
-0.008478623 0.010336963 -0.0073900963 -0.018845562 0.0019031222 0.0023173657 -0.0036703714 0.0067296433
2.5658339e-05 -0.006637829 -0.0012422963 0.014444584 0.00290054 0.0022815843 0.0011392465 -0.011356904
-0.002315586 0.0024994675 -0.008039161 -0.0017755637 0.0008653444 -0.0072279065 0.00080983614 -0.013472113
-0.003954053 -0.0005783978 0.0056641116 -0.0012832308 -0.011299732 0.004764195 -0.011212016 -0.0025475675
-0.011089488 -0.009279282 -0.0040289243 -0.00808579 0.0011033142 0.004808604 0.000690625 0.006036571
0.00021345452 -0.003249387 -0.00829799 -0.010325208 0.0031503912 0.004141815 -0.003997193 0.00046360772
-0.006919231 0.002667362 -0.0037443626 -0.007527061 0.004160558 0.013958903 -0.00018803668 0.000604629
-0.0018809865 0.004645605 -0.011806126 -0.0066551617 0.002978061 -0.00799087 0.00059916556 -0.0023548524
0.0013373222 0.016823731 -0.0010900833 0.014879997 0.00653813 -0.010147418 0.003494522 0.0075304382
0.0013564186 0.0026654827 -0.0053089033 -0.002449088 -0.0002269682 -0.004703066 0.00018675193 0.005262043
0.0009769426 -0.005064707 0.007208593 -0.009540497 -0.001324732 -0.0022574929 -0.0004754716 0.0033661153
0.004001388 -0.004705024 0.008316556 -0.0033266058 -0.0024237882 -0.0060792984 0.0040401337 0.0058069066
-0.013557605 -0.006637957 0.0074569094 0.0007896144 0.005516661 -0.0026548232 -0.0050566094 -0.011911306
0.006744885 0.000119214485 -0.0041661975 -0.0074395994 0.005565092 0.0048090476 0.0004938719 0.007865584
-0.0026994448 0.0007607751 -0.0031890075 -0.0010082325 -0.0038227742 0.0076771947 -0.0007398054 -0.009196277
-0.0104231015 0.0065864534 0.0067149373 -0.008122067 0.009284093 -0.0020836268 0.0049238014 -0.0056617903
-0.0027494994 -0.0049315314 0.00926534 0.00097305776 0.002074088 0.0025451216 0.0018147327 -0.0050306036
00000000: efd6 cd3b 7b98 dc3b 3f84 3ebc e21f dbbb
00000010: cfcd cd3a ef45 063b a36e 323c 3c63 aebb
00000020: b544 2b3c 9d23 8fbb eb0b afba a9d3 3c3b
00000030: 7b9c 3abc 2bad 5b3c 6a9a 103c 1626 15bb
00000040: 3f54 333b dfdb 60ba fb4f 9ab9 d339 1d3c
00000050: 11d2 20bc f097 d3bb 08d1 ae3b f29a 21bb
00000060: 6fca 6a3c 6254 41bc 7f6d c13a 1acd fc3a
00000070: 78d3 c9bb 1d46 a03a 4a2c fdba 1d34 ebbb
00000080: 13a6 5ebb f920 0538 13d2 71ba 57c6 07bb
00000090: 4f4c 463b a14f b3bb 3367 68b9 4fba 953b
000000a0: 88fa 1dbb 2013 d83b 2775 c5bb 8525 2c3c
000000b0: d03c d2b9 f061 d9bb a5d6 5bbb c719 d63a
000000c0: da78 88bc f3e8 30bb cd95 f93b 6b38 bcbb
000000d0: dbc7 3dbc 3700 6d3b 080f fe3b 36e3 3ebc
000000e0: 5bc4 14bc 4fd8 25bb 0f2d 793a 5a7d 35bb
000000f0: 78a9 17bb 5387 c7bb 8765 e4bb d300 0f3c
00000100: 97d8 0d3c 48a0 5a3b 08df fcbb 37fe 8c3b
00000110: 2d9e a4bb b1ae 313c 659a 4e3c 03e9 c83b
00000120: 81a8 81bb cb1f 403c 3508 973b 7004 97ba
00000130: e5dc 833a 3bb6 4c3a 4a16 4f3b b558 db3b
00000140: f01b b5b9 d277 5d3c 757e 513b e917 ccbb
00000150: 45c4 eebb bbc3 75bb dbc5 efbb d331 e2bb
00000160: 3bfa dcbb 7b52 3f3b 1f4a 82bb c005 0a3c
00000170: 0356 ffbb 05be f13b b9b4 16ba abe6 0bbc
00000180: eb71 13bb 6065 66bc b3df fe3b 93c7 61bc
00000190: ba86 e73a b7fa 893b c70a 793b a95b 34bb
000001a0: 025d ccbb a083 fdbb ef6a ec3a c724 6e3a
000001b0: 9197 b6bb 5be3 6bba bb4c 8939 c85a 0137
000001c0: 3fcb 573b 6da4 5cbb 724a 64bb 4cf1 22bc
000001d0: 042d 44bb ecc3 01bc 2a44 e539 9f2f b9bb
000001e0: ece9 0abc 5e5c 293c 9f28 f2bb 0262 9abc
000001f0: 2f72 f93a f2de 173b 9d8a 70bb 5784 dc3b
00000200: dd3c d737 2582 d9bb 8cd4 a2ba faa8 6c3c
00000210: fc16 3e3b a286 153b c552 953a 4f12 3abc
00000220: 16c1 17bb 1bce 233b afb6 03bc 08ba e8ba
00000230: 48d8 623a 13d8 ecbb 2f4b 543a 23ba 5cbc
00000240: 0091 81bb 9f9f 17ba 039a b93b 1532 a8ba
00000250: 8322 39bc f71c 9c3b 9bb2 37bc 17f5 26bb
00000260: afb0 35bc 2108 18bc 1105 84bb 437a 04bc
00000270: 159d 903a 7e91 9d3b 0f0b 353a 6ece c53b
00000280: c3d2 5f39 abf3 54bb 4bf4 07bc 102b 29bc
00000290: cb76 4e3b 10b8 873b e3fa 82bb 6010 f339
000002a0: b7ba e2bb e9ce 2e3b fb63 75bb 90a5 f6bb
000002b0: 4a55 883b e2b3 643c b62b 45b9 f77f 1e3a
000002c0: 6f8b f6ba 293a 983b 7b6e 41bc 8b13 dabb
000002d0: 932b 433b 23ec 02bc 5211 1d3a de53 1abb
000002e0: 1649 af3a ecd1 893c 20e1 8eba 3bcb 733c
000002f0: cf3d d63b 5b41 26bc 5a04 653b e5c1 f63b
00000300: dbc9 b13a 61af 2e3b 4ff6 adbb e180 20bb
00000310: 50fe 6db9 2d1c 9abb d7d2 4339 376d ac3b
00000320: c10c 803a d7f5 a5bb 1036 ec3b bf4f 1cbc
00000330: a1a2 adba 72f2 13bb b848 f9b9 0b9a 5c3b
00000340: 131e 833b 9a2c 9abb 2a42 083c 2f03 5abb
00000350: 6bd8 1ebb da34 c7bb 1963 843b dd47 be3b
00000360: b820 5ebc 3883 d9bb 1759 f43b 20fe 4e3a
00000370: 1bc5 b43b 8bfc 2dbb eab1 a5bb a327 43bc
00000380: 3204 dd3b ca02 fa38 9984 88bb e2c7 f3bb
00000390: 605b b63b 3795 9d3b 2f77 013a a7de 003c
000003a0: 2be9 30bb c16e 473a abfe 50bb ab26 84ba
000003b0: 8287 7abb fa90 fb3b 80ef 41ba fbab 16bc
000003c0: a8c5 2abc 2dd3 d73b fa08 dc3b 6b12 05bc
000003d0: 4f1c 183c 758d 08bb d757 a13b 8a86 b9bb
000003e0: f230 34bb af98 a1bb a7cd 173c cd14 7f3a
000003f0: 6ced 073b 0ecc 263b 53dc ed3a c3d7 a4bb

action_model._discrete_distribution.branches.2.bias f4 [3]
0.0 0.0 0.0
00000000: 0000 0000 0000 0000 0000 0000

action_model._discrete_distribution.branches.3.weight f4 [2, 256]
0.0044248765 0.0030683286 0.0028941613 -0.0047542416 0.0022742474 -0.0028426063 -0.009358963 -0.0038797015
-0.001795173 -0.0024241705 0.0005974015 -0.007635849 0.00628204 -0.014320145 0.010432518 -0.00064046955
-0.0013517635 0.0013951323 0.0034009994 -0.00028051974 0.0039431294 -0.0029313662 -0.00432663 -0.0014255084
0.0020314027 0.0032931285 -0.004432294 0.0036987748 0.007699005 0.0030765168 0.003355521 0.008764295
-0.0007553081 0.0022016985 0.00038039812 0.005944823 0.012330141 -0.00013346238 -0.004208182 0.0072549037
0.003963539 0.002802411 -0.011340387 0.00096467213 -0.0025451134 -0.00483358 0.007814946 0.0014915698
-0.0045192763 0.003303288 0.010555601 0.011323853 -0.0059587364 -0.0008527455 -0.0072795586 -0.015342864
-0.0034069673 0.009163369 0.0046277624 0.0074056843 -0.0044102506 0.004808539 -0.00049847947 0.0040687476
0.006303226 0.003922299 -0.004690892 0.0027801865 0.00021950333 0.0031310313 0.008824022 0.0021450487
0.0035808783 0.011502418 -0.0039449935 0.0010235556 -0.0023116563 0.0014947796 -0.006895876 -0.0012233034
0.004438484 0.0030462744 0.0003747626 0.005418171 0.0017063314 0.010918521 0.0032063145 0.0009171838
0.0029567282 0.0035295007 0.0018966476 -0.009986545 -0.0057146396 -0.0052206386 0.003208323 0.0029579161
0.002546013 0.00019648221 -0.00041270247 -0.008190406 -0.0062632053 0.0066445568 -0.007729026 -0.009456205
-0.0045170668 -0.012749719 -0.008790741 0.005191392 -0.00555618 -0.0012381393 0.0070970217 -0.006169222
0.003983583 -0.0072027068 0.0014898755 0.004221709 -0.006482303 0.0007054134 -6.195783e-05 -0.014093354
-0.007895498 0.0055710175 -0.00020932802 5.1864346e-05 -0.0025761917 0.00022441368 0.0003654458 0.0038076025
-0.00493564 0.0030426888 -0.00906116 0.0051185093 0.0036313625 -0.0011949588 0.00021782458 0.011327456
-0.0133862225 0.008616514 0.004642345 0.0030229972 -0.002546929 -0.008200868 -0.00047984556 -0.0014166128
-0.011590412 -0.007834604 -0.0010548342 -0.009719543 0.0034291127 -0.00072007877 -0.007914014 0.002177728
-0.0022940051 0.008559119 0.006157244 -0.005425419 -0.000979047 -0.008650935 -2.593757e-05 0.004310292
0.009629244 0.0023090534 -0.0034469597 -0.008428137 0.0046103853 0.006969116 0.004452218 0.0012706484
0.011133676 0.0002962502 0.0063094865 0.002671182 0.0002872643 0.0023085373 -0.0065198364 0.000202441
0.0027619135 -0.002344118 -0.0026257033 0.0020590913 -0.00404976 0.0042387913 0.0027308937 0.00121685
0.014401694 0.0054468634 0.0061557065 6.2042636e-05 0.0007739677 0.00054949004 -0.00076746143 0.011515327
0.0071137617 -0.008263967 0.0015240571 -0.0016028107 0.003991167 -0.0046403613 0.0025097087 0.0035928816
0.011298458 -0.0010893261 0.008652732 0.0048653707 -0.0060173133 0.007892381 0.0052975896 0.0056367866
-0.0011571726 0.0067863897 -0.01114045 -0.0061070803 -0.0042570755 -0.0037888996 0.0005179937 -0.0075247535
0.00037190467 0.010097003 -0.003165926 -0.0036026915 -0.0040060566 -0.0064703077 -0.006537713 -0.003047657
-0.0023468796 -0.008185701 0.0028592488 -0.0066176304 -0.0032382873 0.0048483973 0.00051238586 0.010542882
0.002830483 -0.008691652 -0.0051204255 -0.007795069 0.0002826742 -0.001903225 -0.01134166 0.0013930601
-0.002440982 0.0026836158 0.0023211727 -0.0020390323 -0.007423989 0.00080091384 0.00405727 0.0046960665
-0.0094444975 0.010249837 0.0024965226 -0.0017098393 -0.008834162 -0.0016796984 -0.01874031 0.007501788
00000000: 8efe 903b 0316 493b f8ab 3d3b 78c9 9bbb
00000010: 8a0b 153b 054b 3abb 5656 19bc 9742 7ebb
00000020: 034c ebba d5de 1ebb f09a 1c3a 2536 fabb
00000030: 92d9 cd3b 0b9f 6abc 27ed 2a3c 2fe5 27ba
00000040: a82d b1ba dfdc b63a 4de3 5e3b b912 93b9
00000050: 5e35 813b 2a1c 40bb 67c6 8dbb 20d8 baba
00000060: 4821 053b 87d1 573b c73c 91bb 2567 723b
00000070: ef47 fc3b 639f 493b 4de8 5b3b 1e98 0f3c
00000080: deff 45ba 5f4a 103b 2c70 c739 cacc c23b
00000090: 5c04 4a3c 09f2 0bb9 cae4 89bb 8bba ed3b
000000a0: 93e0 813b a8a8 373b 08cd 39bc 0de2 7c3a
000000b0: ebcb 26bb 0263 9ebb 420a 003c c780 c33a
000000c0: 7016 94bb fa7b 583b 66f1 2c3c af87 393c
000000d0: 8141 c3bb c88a 5fba 5d89 eebb a360 7bbc
000000e0: 6d47 5fbb f521 163c 7ca4 973b 62ab f23b
000000f0: dd83 90bb f390 9d3b 64ac 02ba 2153 853b
00000100: 4b8b ce3b a186 803b 0eb6 99bb ca33 363b
00000110: 7a2a 6639 fd31 4d3b a192 103c f293 0c3b
00000120: 2bad 6a3b a374 3c3c 0145 81bb d428 863a
00000130: 287f 17bb 7bec c33a cdf6 e1bb 4057 a0ba
00000140: b470 913b 01a4 473b c97b c439 ea8a b13b
00000150: fba6 df3a 99e3 323c 0821 523b 2a6f 703a
00000160: abc5 413b 324f 673b ef98 f83a 9b9e 23bc
00000170: df41 bbbb e411 abbb ba42 523b 99d9 413b
00000180: 03db 263b cb06 4e39 fd5f d8b9 0d31 06bc
00000190: 933b cdbb 95ba d93b c543 fdbb 33ee 1abc
000001a0: e703 94bb 33e4 50bc 0a07 10bc 8d1c aa3b
000001b0: 9e10 b6bb 1049 a2ba 228e e83b 2f27 cabb
000001c0: b788 823b af04 ecbb ed47 c33a 4356 8a3b
000001d0: 8069 d4bb 7eeb 383a 5bef 81b8 d0e7 66bc
000001e0: 1e5c 01bc 158d b63b 107f 5bb9 eb88 5938
000001f0: 53d5 28bb 9750 6b39 4e99 bf39 f888 793b
00000200: 26bb a1bb d967 473b 4275 14bc 2bb9 a73b
00000210: 27fc 6d3b 2aa0 9cba d767 6439 cb96 393c
00000220: e351 5bbc 472c 0d3c d01e 983b 7a1d 463b
00000230: 61ea 26bb ef5c 06bc c893 fbb9 a3ad b9ba
00000240: b6e5 3dbc b65c 00bc 5d42 8aba b83e 1fbc
00000250: f7ba 603b abc3 3cba c8a9 01bc 37b8 0e3b
00000260: 0557 16bb 8c3b 0c3c b5c2 c93b b7c7 b1bb
00000270: 5e53 80ba a7bc 0dbc 8294 d9b7 5a3d 8d3b
00000280: fac3 1d3c 7d53 173b 63e6 61bb 2b16 0abc
00000290: b712 973b 2f5d e43b e9e3 913b e38b a63a
000002a0: 066a 363c 0752 9b39 cfbf ce3b ff0e 2f3b
000002b0: f69b 9639 d44a 173b 5aa4 d5bb 5846 5439
000002c0: 3801 353b c69f 19bb fe13 2cbb d2f1 063b
000002d0: d9b3 84bb 8fe5 8a3b cbf8 323b b67e 9f3a
000002e0: 15f5 6b3c 9a7b b23b cfb5 c93b e31c 8238
000002f0: 18e4 4a3a a70b 103a 772f 49ba c8aa 3c3c
00000300: 8f1a e93b 9765 07bc dfc2 c73a 6715 d2ba
00000310: 56c8 823b 2c0e 98bb ed79 243b 8d76 6b3b
00000320: 2b1d 393c b8c7 8eba 30c4 0d3c b06d 9f3b
00000330: e22c c5bb 0c4f 013c 6797 ad3b cbb4 b83b
00000340: 45ac 97ba 5d60 de3b 6f86 36bc e71d c8bb
00000350: f07e 8bbb 304f 78bb f8c9 073a 3592 f6bb
00000360: 33fc c239 e66d 253c 6d7b 4fbb 221b 6cbb
00000370: 3d45 83bb e004 d4bb 503a d6bb 33bb 47bb
00000380: 1bce 19bb 521d 06bc 3c62 3b3b b5d8 d8bb
00000390: 7239 54bb 4edf 9e3b a251 063a 0dbc 2c3c
000003a0: a07f 393b 6e67 0ebc 3ec9 a7bb c76d ffbb
000003b0: e433 9439 a275 f9ba 5fd2 39bc 5797 b63a
000003c0: e2f8 1fbb 9adf 2f3b d11e 183b 49a1 05bb
000003d0: ef44 f3bb 6bf4 513a d9f2 843b 76e1 993b
000003e0: 18bd 1abc efee 273c b39c 233b b01c e0ba
000003f0: 29bd 10bc 5329 dcba 4785 99bc 8fd1 f53b

action_model._discrete_distribution.branches.3.bias f4 [2]
0.0 0.0
00000000: 0000 0000 0000 0000

network_body.observation_encoder.processors.0.normalizer.running_mean f4 [11]
0.0 0.0 0.0 0.0 0.0 0.0 0.0 0.0
0.0 0.0 0.0
00000000: 0000 0000 0000 0000 0000 0000 0000 0000
00000010: 0000 0000 0000 0000 0000 0000 0000 0000
00000020: 0000 0000 0000 0000 0000 0000

network_body.observation_encoder.processors.0.normalizer.running_variance f4 [11]
1.0 1.0 1.0 1.0 1.0 1.0 1.0 1.0
1.0 1.0 1.0
00000000: 0000 803f 0000 803f 0000 803f 0000 803f
00000010: 0000 803f 0000 803f 0000 803f 0000 803f
00000020: 0000 803f 0000 803f 0000 803f

network_body.processors.0.normalizer.running_mean f4 [11]
0.0 0.0 0.0 0.0 0.0 0.0 0.0 0.0
0.0 0.0 0.0
00000000: 0000 0000 0000 0000 0000 0000 0000 0000
00000010: 0000 0000 0000 0000 0000 0000 0000 0000
00000020: 0000 0000 0000 0000 0000 0000

network_body.processors.0.normalizer.running_variance f4 [11]
1.0 1.0 1.0 1.0 1.0 1.0 1.0 1.0
1.0 1.0 1.0
00000000: 0000 803f 0000 803f 0000 803f 0000 803f
00000010: 0000 803f 0000 803f 0000 803f 0000 803f
00000020: 0000 803f 0000 803f 0000 803f
