results/VB_1/Volleyball/Volleyball-499998.onnx (onnx, 291913 bytes, 15 tensors)

97 f4 [11]
0	0x3ea9a5a0	0.33134174
1	0x3eaf7333	0.34267578
2	0x3eb8a11f	0.36060426
3	0x3f20e63a	0.628513
4	0x40c36dc2	6.107148
5	0x4021bccd	2.5271485
6	0x413a500b	11.644542
7	0x400f1fd8	2.2363186
8	0x40b91159	5.7833676
9	0x4021058e	2.515964
10	0x40210e94	2.5165148

action_model._discrete_distribution.branches.0.bias f4 [3]
0	0xb8463e9e	-4.7265195e-05
1	0xba6a10c4	-0.000892889
2	0x3a08698b	0.00052037154

action_model._discrete_distribution.branches.0.weight f4 [3, 256]
0	0xbb6734da	-0.0035279305
1	0xbbdff2a1	-0.0068343435
2	0x3c2a16b1	0.010381387
3	0x3b5f806b	0.0034103643
4	0x3a6117af	0.0008586598
5	0xbc5f9c5f	-0.013648122
6	0x3988efae	0.00026118517
7	0x3b074f82	0.0020646756
8	0x3c7f2211	0.015572087
9	0x3bf9834c	0.0076145288
10	0xbc0b5c6f	-0.008505925
11	0xbc621ec4	-0.01380128
12	0x3c1c4004	0.009536747
13	0xbc60711a	-0.0136988405
14	0xb86d2384	-5.653828e-05
15	0xbc1b19d6	-0.009466609
16	0xbbe00f6b	-0.0068377755
17	0x3c396d41	0.011317552
18	0xbc38df38	-0.011283688
19	0xbc30ad6b	-0.010783534
20	0xbaad39ad	-0.0013216041
21	0x3c248d82	0.010043504
22	0x3b0ca94e	0.0021463218
23	0xba895790	-0.0010478366
24	0x3c0ad797	0.008474252
25	0xba6080f2	-0.0008564136
26	0xbbd5636a	-0.006512095
27	0xbb3e813d	-0.0029068731
28	0xbcbaf38b	-0.022821208
29	0x3c01320e	0.007885469
30	0xbc886b20	-0.016652644
31	0xbb934ea0	-0.004495457
32	0x3b984dc6	0.004647943
33	0x3c9c4185	0.01907421
34	0xba8f7833	-0.0010945856
35	0xbc6d8527	-0.014497078
36	0x3bdf3725	0.0068119937
37	0x3c86d98b	0.016461154
38	0x3c27d1e6	0.010242915
39	0x3c5936c4	0.013257686
40	0x3afa7dae	0.0019110942
41	0x3afbb892	0.0019204787
42	0x3c1f6eef	0.0097310385
43	0x3c5f46a1	0.013627679
44	0x3cc6deda	0.024276186
45	0xbc4c0cde	-0.01245424
46	0xbaf791a0	-0.0018888004
47	0x3c82001d	0.015869195
48	0x3c0a04ac	0.008423965
49	0x3c4cd6ab	0.012502353
50	0x3d0c8bdf	0.03431308
51	0x3b80fb53	0.00393621
52	0xbbac21ea	-0.0052530663
53	0x3c439d96	0.011939427
54	0xbbd74f7c	-0.0065707546
55	0xbc8f2562	-0.01747388
56	0xbc0d83bb	-0.008637364
57	0xbb8decf1	-0.004331224
58	0xbcae0a05	-0.021245012
59	0xbc25a3ee	-0.010109885
60	0xbc089203	-0.008335593
61	0xba89a89c	-0.001050252
62	0x3cbd2da9	0.023093062
63	0x3c310fd1	0.010806994
64	0xbbe145e6	-0.0068747876
65	0x3c05d406	0.008168226
66	0xbbdaf313	-0.0066818087
67	0xbc227fa0	-0.0099181235
68	0x3c89425f	0.016755281
69	0xbc9a9b0a	-0.018872757
70	0xbc3d994f	-0.011572196
71	0x3c4f3931	0.012647913
72	0xbcccb9b7	-0.0249909
73	0x3c366ba9	0.011134067
74	0xbc92c350	-0.017915398
75	0x3c8c68af	0.01713976
76	0xbae4aa57	-0.0017445785
77	0x3c2eab65	0.010660981
78	0x3b87ef4e	0.0041484004
79	0x3b46e5b3	0.0030349314
80	0x397ffb5c	0.00024412334
81	0x3b2aa192	0.0026036245
82	0xbb13c56d	-0.0022548095
83	0xbc29b197	-0.010357282
84	0x3b3aa628	0.0028480384
85	0xbbe77012	-0.0070629204
86	0xbbb74d46	-0.0055939285
87	0xbb979cd0	-0.004626848
88	0x3b0cceeb	0.0021485637
89	0xbc57db22	-0.013174804
90	0x3b6f7423	0.0036537729
91	0xbb9fc0d9	-0.004875284
92	0x3b9e1234	0.0048239473
93	0xbba3e87c	-0.0050020795
94	0xbad91db1	-0.0016564635
95	0xbabb0810	-0.0014269371
96	0x3c2b546f	0.010457142
97	0x3bb0830f	0.005386717
98	0x3cfab6d3	0.030604756
99	0xbb8c6433	-0.0042844056
100	0xbb7af005	-0.0038290035
101	0x3c29e1b8	0.010368757
102	0x3ab4ace6	0.0013784438
103	0x3ccc15c9	0.024912732
104	0x3ad3e197	0.0016165253
105	0x3b9e48a9	0.004830439
106	0x3b0aa343	0.002115444
107	0x3b8c3f81	0.004280031
108	0x3bcf0364	0.006317543
109	0xbbdfa50f	-0.0068250964
110	0xbb520e04	-0.003205181
111	0xbb756a6e	-0.003744747
112	0xbb8e5398	-0.0043434612
113	0x3c8ec4f3	0.017427897
114	0x3ae37656	0.0017353992
115	0x3a8d1d70	0.0010766219
116	0x3b3c8af0	0.0028769337
117	0x3be04d87	0.0068451795
118	0x3ae1ec85	0.0017236626
119	0x3b975a2e	0.0046189046
120	0xbc15cf0b	-0.009143601
121	0xbc03558a	-0.008016
122	0x399651b6	0.0002867111
123	0x3c986178	0.018601164
124	0xbbb843e7	-0.005623329
125	0x3a74745a	0.0009325199
126	0xbc84b537	-0.016199691
127	0xbb893c01	-0.004188061
128	0xbc045125	-0.008075987
129	0x3c80753e	0.015680905
130	0x3982fd02	0.00024984038
131	0x3c77e9da	0.015131438
132	0xbb475d47	-0.0030420588
133	0x38f9f1af	0.00011918262
134	0x3b6f930b	0.003655615
135	0xbc7d5a6a	-0.015463451
136	0x3b9e9521	0.004839555
137	0xbc3bd9fc	-0.011465546
138	0xbbad43bc	-0.0052876156
139	0xbb72d259	-0.0037051647
140	0xbc6476c4	-0.013944332
141	0xbc30876c	-0.010774475
142	0xbc1cea1c	-0.0095773
143	0xbbd2dfc8	-0.006435368
144	0xbb045017	-0.0020189339
145	0x3cb32e25	0.02187259
146	0xbc300ee0	-0.010745734
147	0xb912aa1b	-0.00013987014
148	0xbc3e5548	-0.011617012
149	0xbc7d87ab	-0.01547424
150	0xbcba58da	-0.022747446
151	0x3beea984	0.0072833914
152	0xbbaf0374	-0.005340988
153	0xbc1feef3	-0.00976156
154	0xbb2ae43e	-0.0026075984
155	0xbc580596	-0.013184926
156	0xbc715341	-0.014729322
157	0xbc3ed6b7	-0.011647872
158	0x3cb51ce7	0.022108508
159	0x3c895ea6	0.016768765
160	0xbcad2df2	-0.021140072
161	0xbb77ef2a	-0.0037831762
162	0xbc127730	-0.008939549
163	0xbb92daa8	-0.0044816323
164	0xbc929e7b	-0.017897835
165	0xbc48c2c1	-0.012253464
166	0x3bab3b6a	0.0052255886
167	0xbb36ee66	-0.0027913093
168	0xbcd964d8	-0.026537344
169	0x3c8a91a1	0.016915144
170	0x3bc13e5b	0.005897326
171	0xbc7f0186	-0.015564328
172	0xbc9e4f63	-0.019324964
173	0x3d1967e8	0.03745261
174	0xbb230287	-0.0024873333
175	0xbb723914	-0.003696029
176	0x3c12e7e6	0.008966422
177	0x3c34c715	0.011033793
178	0x3ae1948e	0.001721041
179	0xbbacee55	-0.005277435
180	0xbb1ac9c5	-0.00236188
181	0xbb3686f6	-0.002785144
182	0xbb121840	-0.0022292286
183	0x3b968877	0.0045939046
184	0xbabeb9f8	-0.0014551273
185	0x3c7c353f	0.015393554
186	0x3c6463c8	0.013939805
187	0xbba10fd4	-0.004915217
188	0xbb9924dd	-0.004673584
189	0x3bc8dbf0	0.006129734
190	0x3c5de5df	0.013543575
191	0xbbb231e8	-0.005438078
192	0xbc76b132	-0.015056895
193	0x3c6aa20c	0.014320862
194	0x3b7eae55	0.0038861234
195	0x3ba3aaf4	0.0049947444
196	0x3af5d02c	0.0018754057
197	0x3bd6562c	0.006541034
198	0xba896513	-0.0010482393
199	0x3c66db68	0.014090396
200	0x3aa0d59a	0.001227069
201	0x3aaa6f1c	0.0013003084
202	0xbba48f5b	-0.005021972
203	0x3bbce346	0.005764398
204	0xbc41c005	-0.011825566
205	0xbbfc139b	-0.007692767
206	0x3ccf6f32	0.025321577
207	0x3b2bd0ea	0.0026217052
208	0xbc3ce0b8	-0.0115281865
209	0xbbf2575c	-0.007395668
210	0xbc07cc3b	-0.008288438
211	0xbbea6774	-0.007153446
212	0x3b41eca2	0.0029590507
213	0x3b0752f9	0.002064882
214	0x3be316b9	0.006930199
215	0x39ab374c	0.0003265686
216	0x3ba28d2f	0.004960678
217	0xbbee7ece	-0.0072783
218	0x3c2492c3	0.010044756
219	0xbc3f0d27	-0.011660851
220	0x3bd4001c	0.0064697396
221	0xbb9700f0	-0.004608266
222	0x3b903bb4	0.0044016484
223	0x3c7a931d	0.015293864
224	0xbbcb170f	-0.006197817
225	0x3c2868ec	0.010278922
226	0xbc9ddd74	-0.019270636
227	0xbb3a529f	-0.0028430594
228	0xbc912300	-0.017716885
229	0x3bd887ed	0.0066080005
230	0x3c359fd6	0.011085471
231	0xbb887446	-0.0041642515
232	0x39dac2d2	0.00041725353
233	0xbc1d2ce1	-0.0095932195
234	0x3756f19e	1.281165e-05
235	0xbbc49482	-0.005999149
236	0xbc0d2a9a	-0.008616114
237	0x3a034620	0.0005007703
238	0xbab1c184	-0.00135617
239	0xbaaed49e	-0.0013338511
240	0xbb1047d5	-0.0022015471
241	0x3b96f573	0.0046068965
242	0x3bb13bcd	0.00540874
243	0x3991eeb1	0.00027834394
244	0x3be63885	0.0070257806
245	0x3c8c47fa	0.017124165
246	0xbc5f4cec	-0.013629179
247	0xbc801b5b	-0.015638044
248	0xbcac89f1	-0.02106187
249	0x3b8cf444	0.0043015797
250	0xbb6f76ed	-0.003653939
251	0x3c9cf17e	0.019158121
252	0x3c7ffe31	0.015624569
253	0x3b692eb7	0.0035580823
254	0xbc7a2ccc	-0.0152694695
255	0x3bfd7402	0.0077347765

action_model._discrete_distribution.branches.1.bias f4 [3]
0	0x3bae3f6d	0.0053176195
1	0xbce70368	-0.028199866
2	0x3cac1830	0.021007627

action_model._discrete_distribution.branches.1.weight f4 [3, 256]
0	0x3c122d78	0.008921973
1	0xbc8a0b73	-0.016851163
2	0x3c0a3990	0.0084365755
3	0xbb29104a	-0.0025797063
4	0xbc3ce560	-0.011529297
5	0xbc4ddcf0	-0.012564883
6	0xbc2b8d92	-0.010470765
7	0xbc58c6e8	-0.013231017
8	0xbbe8ff71	-0.007110529
9	0x3c2c8029	0.010528603
10	0xbb6e5e9d	-0.0036372312
11	0xbc053794	-0.008130927
12	0xbc607c5f	-0.013701527
13	0xbb150ab8	-0.0022741985
14	0xbbf40858	-0.0074472837
15	0x3b395bb4	0.002828342
16	0xb94b788e	-0.00019404499
17	0x3c171c55	0.0092230635
18	0xbb2f9316	-0.002679055
19	0xbb561e47	-0.0032671855
20	0x3c937164	0.017998405
21	0xbcf2d1e0	-0.029641092
22	0xbc021e94	-0.007941861
23	0x3bd76116	0.006572853
24	0xbc973395	-0.018457213
25	0xba3adf25	-0.0007128588
26	0xbb8cf93f	-0.0043021734
27	0xbc5e7879	-0.013578528
28	0x3bf1408c	0.007362431
29	0xbc4bea1e	-0.012445955
30	0xbc50e161	-0.012749047
31	0x3c9c8b4d	0.019109393
32	0x3ab7ad5b	0.0014013456
33	0xbc0e1027	-0.008670843
34	0x3bed5a3d	0.0072434233
35	0xbaa77e39	-0.0012778706
36	0xbb7b736d	-0.003836836
37	0xbbcc45e0	-0.0062339157
38	0xbc3531e3	-0.011059257
39	0x3c7ca42b	0.01542
40	0x3c0125e0	0.007882565
41	0x3ba3db9c	0.0050005447
42	0x3c94e175	0.018173913
43	0xbb409ef3	-0.0029391616
44	0x3c8f5e03	0.017500883
45	0x3b48d2a4	0.003064313
46	0xbc8b5f99	-0.017013358
47	0x3be03754	0.006842533
48	0xb9917aa0	-0.00027747918
49	0xbb942f45	-0.0045222365
50	0x39d81d7c	0.00041220698
51	0x3c0b4404	0.008500103
52	0xb9ae415d	-0.00033236566
53	0xbbc017d0	-0.0058622137
54	0xbcd2d61a	-0.025736857
55	0x3bf77342	0.0075515816
56	0xbc5e58dd	-0.013570991
57	0xbc4fb3b6	-0.012677124
58	0x3ae90aed	0.0017779745
59	0x3c435a0f	0.011923327
60	0x3c7f0992	0.015566247
61	0x3c2ecc8b	0.010668884
62	0xbc163ac6	-0.009169286
63	0xbc47d649	-0.012197086
64	0x3bf1d410	0.007380016
65	0x3ce5b6e1	0.028041305
66	0xbc1fc274	-0.009750951
67	0x3c5cc982	0.013475778
68	0xbb74ee86	-0.0037373616
69	0xba3f91e4	-0.0007307811
70	0xbc101b11	-0.008795516
71	0xb96dc258	-0.0002267448
72	0xba1eef2f	-0.0006062863
73	0x3c4e889a	0.012605811
74	0xbbcb0312	-0.0061954344
75	0x3b844b6d	0.0040373118
76	0x3c630fe9	0.013858774
77	0x3c201056	0.00976952
78	0x3c036e71	0.008021937
79	0x3cb6aa3b	0.02229797
80	0x3c1f1634	0.0097098835
81	0xbc5f6010	-0.013633743
82	0xbb32454d	-0.002720195
83	0x3b192bd2	0.0023372066
84	0xbc5af7d9	-0.013364756
85	0xbc307ccb	-0.01077194
86	0xbba64d7c	-0.005075155
87	0xbc806070	-0.015670985
88	0xbc7be761	-0.015374989
89	0x3b9f8dd5	0.0048692026
90	0xbc1eff28	-0.009704389
91	0x3b4f1e92	0.0031603915
92	0xbc15837a	-0.009125585
93	0xbba4f4cf	-0.0050340663
94	0xbc4132cf	-0.011791899
95	0xbc1abe8d	-0.009444845
96	0xbcb876bc	-0.022517554
97	0xb9b7fce6	-0.00035092904
98	0x3c8bb82e	0.017055597
99	0xbbbce68e	-0.005764789
100	0xbc80c2f7	-0.015717966
101	0xbca8e50a	-0.020617027
102	0xbbe3f126	-0.0069562374
103	0x3c96ff6f	0.018432347
104	0xbae30268	-0.0017319443
105	0xb8c9acc7	-9.616609e-05
106	0x3ca280eb	0.019836864
107	0xbc82e163	-0.015976613
108	0xbc23b244	-0.009991232
109	0x3b072b10	0.0020625032
110	0xbb896b99	-0.004193735
111	0x3c0cedce	0.008601619
112	0x3b06f61e	0.0020593475
113	0x3b0970f2	0.0020971862
114	0xbcc6b1f5	-0.024254778
115	0xbc0d6f83	-0.0086325435
116	0xbc1578f1	-0.009123073
117	0xbc1d33cf	-0.009594872
118	0x3c04a090	0.008094922
119	0xbc1cb722	-0.009565147
120	0xbc17d362	-0.009266706
121	0x3b884eb7	0.004159774
122	0xba0a430f	-0.0005274275
123	0x3bcfcb07	0.0063413414
124	0xbc89cd66	-0.016821574
125	0xbc69b16a	-0.01426349
126	0xbbe65df8	-0.007030245
127	0xbb2b8be1	-0.0026175904
128	0x3c3ab1db	0.011394943
129	0x3a84f8d2	0.0010144955
130	0x3c809b5a	0.015699077
131	0xbc30895f	-0.010774939
132	0xbbe8227a	-0.007084188
133	0xbb085162	-0.002080046
134	0xbb3c3b82	-0.0028721993
135	0xbb612c4a	-0.0034358674
136	0x3c78f770	0.015195712
137	0x3ba677c8	0.005080197
138	0x3c81ba47	0.015835894
139	0xbbdaa075	-0.00667196
140	0xbb984bbe	-0.004647701
141	0x3c4633c5	0.012097304
142	0xbc837996	-0.016049188
143	0xbab3e107	-0.001372368
144	0xbb5254bb	-0.003209396
145	0xbbb6f8b1	-0.0055838455
146	0x3b4e128b	0.0031444158
147	0x3c9d47ba	0.019199241
148	0x3c1be498	0.00951495
149	0x3b0a8bbc	0.0021140417
150	0xbcd587b5	-0.026065687
151	0x3c90cacd	0.017674828
152	0x3aa9e2d3	0.0012961276
153	0x3c606f70	0.013698444
154	0xbc0d6a8f	-0.008631363
155	0x3c6af4f8	0.014340632
156	0x3707d4cc	8.096173e-06
157	0xbb8d7c3e	-0.0043177893
158	0x3cbc66c0	0.022998214
159	0x3bf82639	0.007572916
160	0x3cbfb32e	0.02340087
161	0xb9812d79	-0.00024638677
162	0x3bf014f0	0.0073267147
163	0x3bdb4b58	0.0066923313
164	0xbbe375d6	-0.0069415374
165	0xbb3ac750	-0.0028500147
166	0xbc4098f4	-0.011755217
167	0xbbf78c43	-0.0075545623
168	0x3c72bdfd	0.014815805
169	0xbcc28863	-0.023746675
170	0xbc42c12f	-0.011886879
171	0xbbc978f5	-0.0061484524
172	0xbc666a5a	-0.014063442
173	0x3d0aafc0	0.033859015
174	0xbbe39f70	-0.0069464967
175	0xbb992651	-0.004673757
176	0xbc2b2007	-0.010444648
177	0xbb96ffa8	-0.0046081133
178	0x3c9c1e1e	0.01905733
179	0xbb0cfc89	-0.0021512827
180	0xbb069d90	-0.0020540692
181	0xbbd6f46e	-0.0065599
182	0x3b02feb3	0.0019988238
183	0x3b642a25	0.003481516
184	0xbb3113b4	-0.00270198
185	0x3bb73694	0.005591223
186	0xbbdc69ca	-0.006726478
187	0x3ca49b10	0.02009347
188	0xbc261718	-0.010137342
189	0xb9b4d27b	-0.00034489096
190	0xbc10a99b	-0.0088295
191	0xbc0b7507	-0.008511788
192	0xbbac530a	-0.0052589225
193	0x3c51949e	0.012791781
194	0xbbefb91a	-0.007315767
195	0x3c878538	0.016543016
196	0xbcccb55d	-0.024988825
197	0x3bc39394	0.0059685204
198	0xbbea5686	-0.0071514277
199	0xbc188f84	-0.009311561
200	0x3bc67dff	0.0060575004
201	0xbbf895c3	-0.0075862124
202	0xb96af091	-0.00022405597
203	0xbc5743d5	-0.013138731
204	0xbaae9f5d	-0.001332264
205	0x3cf72c6f	0.030172555
206	0xbc90ba0c	-0.017666839
207	0x3c58969c	0.013219502
208	0xbc292900	-0.010324717
209	0x3c191c69	0.009345152
210	0x3b16fe49	0.002303975
211	0xbb5bfceb	-0.00335675
212	0x3c944a93	0.018101966
213	0x3ca10fd9	0.019660877
214	0xbc0862af	-0.008324309
215	0x3b55110f	0.0032511388
216	0xbbacfb5a	-0.005278987
217	0xbbc78366	-0.006088662
218	0xbc81b593	-0.015833652
219	0xbb4e52e7	-0.003148252
220	0x3ca88d69	0.020575242
221	0x3a5fc9cd	0.00085368456
222	0x3cb35cfc	0.021894924
223	0xbc2e0a08	-0.010622509
224	0xbc22d303	-0.009938004
225	0x3c510592	0.012757676
226	0x3c5fa6dc	0.013650622
227	0x3c0ba079	0.008522146
228	0x3bfd272d	0.0077256174
229	0x3b6473f4	0.0034859153
230	0xbbdf28f6	-0.006810303
231	0xbc788181	-0.015167595
232	0x3a90619e	0.001101542
233	0xbc31052e	-0.010804458
234	0xbc20b9fd	-0.009809968
235	0x3ca45e63	0.020064538
236	0xbc5ede37	-0.013602785
237	0x3c47d4eb	0.01219676
238	0x3b8fa281	0.0043833856
239	0x3c803a79	0.015652882
240	0x3c2bfb5a	0.010496939
241	0xbc5d0cf5	-0.013491859
242	0x3c677fa1	0.01412955
243	0xb8b9cab2	-8.8592424e-05
244	0xbc493fbb	-0.012283261
245	0x3b82c2c0	0.003990501
246	0x3a99884e	0.0011713596
247	0x3ab2ef59	0.0013651653
248	0x3990ced6	0.00027619925
249	0xbc1e6c1b	-0.009669329
250	0xbc000bc3	-0.007815304
251	0x3b01783a	0.0019755499
252	0x3c5c3281	0.013439775
253	0x3bb5c8dc	0.005547626
254	0xbb8ae9a1	-0.0042392765
255	0xbb763c5c	-0.0037572598

action_model._discrete_distribution.branches.2.bias f4 [3]
0	0x3bd50f80	0.006502092
1	0xb8faaf03	-0.000119535274
2	0xbbc87007	-0.0061168703

action_model._discrete_distribution.branches.2.weight f4 [3, 256]
0	0x3bb0de56	0.0053975983
1	0x3b9dee98	0.0048197024
2	0x3bb37b38	0.0054773353
3	0x3c88ce69	0.016699987
4	0x3c6fe47a	0.014641875
5	0x3bc0adb0	0.00588008
6	0x3be6a0a0	0.007038191
7	0xbcbe7e6c	-0.023253642
8	0xbc40b80b	-0.011762629
9	0x3c33a86d	0.010965449
10	0xbc1bd895	-0.009512086
11	0xbb14b8d6	-0.0022693179
12	0xbc6397bc	-0.013891157
13	0xbc4923cd	-0.012276602
14	0x3b1a19f1	0.0023513997
15	0xbca2b5ff	-0.019862173
16	0xbc1c70ea	-0.009548405
17	0xbabf0256	-0.001457284
18	0xbb3ea88d	-0.0029092163
19	0x3ba99f36	0.00517645
20	0xbb097182	-0.0020972197
21	0x3ca89240	0.02057755
22	0x3cf6c1b1	0.030121656
23	0xbcab8f53	-0.020942366
24	0x3b3b95b2	0.002862316
25	0xbc464103	-0.012100461
26	0x3c016548	0.0078976825
27	0xba8a650e	-0.0010558681
28	0x3b11f47f	0.0022270975
29	0xbc4b5bec	-0.012412053
30	0xb9ab6614	-0.00032691716
31	0xbc9a4ced	-0.01883551
32	0x3908e275	0.00013054333
33	0xbc509eb0	-0.012733147
34	0xbb702ba4	-0.0036647106
35	0x3bae810f	0.0053254436
36	0x3c2e159c	0.010625269
37	0xbb4f48c8	-0.0031629074
38	0xba3ceeeb	-0.00072072324
39	0xbc343f14	-0.011001367
40	0x3b1c5906	0.0023856773
41	0xbca52e05	-0.020163545
42	0xbb2c33a0	-0.0026275888
43	0x3ad15680	0.0015971214
44	0xbbade349	-0.0053066355
45	0x3c1aa8c9	0.009439656
46	0xbc87980c	-0.016551994
47	0x3b8a5b3d	0.004222302
48	0xbc17f210	-0.009274021
49	0xbb7c3411	-0.0038483182
50	0x3bdfd620	0.0068309456
51	0xbb0560ae	-0.0020351815
52	0x3c1ed2d2	0.009693818
53	0xbc34c121	-0.011032374
54	0x3c975682	0.018473867
55	0x3ba761bb	0.005108086
56	0x3b7d77fc	0.0038676253
57	0x3bf00b39	0.0073255566
58	0xbc86a0b9	-0.01643406
59	0x3b667309	0.003516378
60	0xba8dc3bd	-0.0010815781
61	0x3c0ee90a	0.008722553
62	0xbc6b5ef6	-0.014365902
63	0x3b35d01f	0.0027742458
64	0xbc98d9ea	-0.018658597
65	0xbbbef8cb	-0.0058279983
66	0xbbad8fb2	-0.005296671
67	0x3b9b4471	0.0047383835
68	0xbc955b6b	-0.018232068
69	0x3b42fcf1	0.0029752816
70	0xba8c3cfe	-0.001069933
71	0xbc426036	-0.011863759
72	0xbcc598f3	-0.024120783
73	0xbc0fd731	-0.008779333
74	0xbc6f0bed	-0.014590246
75	0xbc31eaff	-0.01085925
76	0x3c0e1b9a	0.008673573
77	0xbc453de0	-0.012038678
78	0xbcf22514	-0.029558696
79	0xbb4b0f05	-0.0030984294
80	0xb8eb0b39	-0.000112077636
81	0xba95c51c	-0.0011426541
82	0x3af7a663	0.0018894192
83	0xbbec1a28	-0.0072052665
84	0xbb0d331b	-0.0021545354
85	0x3c8c6a5c	0.01714056
86	0x3c0e6a55	0.008692344
87	0xbb8b12e8	-0.004244197
88	0x3c361585	0.011113529
89	0x3cd8c838	0.02646266
90	0xbc81afca	-0.015830893
91	0x3a4e9815	0.00078809384
92	0xbb83a653	-0.00401763
93	0x3af7ee8f	0.00189157
94	0x3c986128	0.018601015
95	0xbbe3b283	-0.0069487705
96	0xbbdcc8a6	-0.0067377863
97	0xbb1e9cf9	-0.002420245
98	0xbca6cb4d	-0.020360613
99	0xba912b36	-0.00110755
100	0xbb1419cc	-0.0022598384
101	0xbad8953a	-0.0016523965
102	0x3c8ec6f9	0.017428862
103	0xbbb7d185	-0.0056096935
104	0xbb1a0a57	-0.0023504698
105	0xbae86ce4	-0.0017732647
106	0xbbe24d6c	-0.006906202
107	0x3bee6ee5	0.0072764033
108	0xbbdaa809	-0.0066728634
109	0xbb8f55b8	-0.004374232
110	0xbc734a1a	-0.01484921
111	0x3ae1b6d1	0.0017220621
112	0x3c48b4ab	0.012250106
113	0x3b43c555	0.0029872258
114	0xba8f1472	-0.0010916127
115	0x3c3e0167	0.011597014
116	0xbb554460	-0.0032541975
117	0x3bce2097	0.006290506
118	0x3b6b9c03	0.0035951145
119	0x3b0a3721	0.0021089988
120	0x3bcbceca	0.0062197195
121	0xbc3704b8	-0.011170559
122	0xbbcdcfc2	-0.00628087
123	0xbc569232	-0.013096379
124	0x3ca96f0c	0.020682834
125	0xbb1b5f80	-0.0023708045
126	0xbb998bee	-0.0046858704
127	0x3b6919bb	0.0035568315
128	0x3b8d1bc3	0.004306288
129	0x3c500617	0.012696764
130	0x3c2518d3	0.010076719
131	0x3c936fa1	0.017997565
132	0x3c9c85fd	0.01910686
133	0xbbf567bb	-0.0074891723
134	0x3ad41ef1	0.0016183538
135	0x3c02f7a4	0.007993612
136	0x3c2ceab5	0.010554005
137	0x3c85626f	0.016282288
138	0xbc366f82	-0.011134984
139	0xbc4fa1fe	-0.012672899
140	0xbc031076	-0.00799953
141	0xbc3de61c	-0.011590507
142	0x3b838527	0.0040136757
143	0x3c471ce9	0.012152889
144	0xbc95b3ec	-0.01827427
145	0x3b81aa22	0.003957049
146	0x3c08c96e	0.008348806
147	0xbc6615c4	-0.014043275
148	0x3bfe766e	0.0077655828
149	0x3c27a80b	0.010232936
150	0x3ca9d198	0.020729825
151	0x3c8adaae	0.016949978
152	0xbb605645	-0.0034231108
153	0xbbd90c12	-0.0066237533
154	0x3b0fb42d	0.0021927461
155	0x3c90cd37	0.017675979
156	0x3cc4ce77	0.024024231
157	0x3c425dd3	0.01186319
158	0xbc70e5e6	-0.01470325
159	0xbc6184d4	-0.013764579
160	0xbc143552	-0.009045916
161	0xbc37e15d	-0.011223164
162	0xbb5a8ac9	-0.0033346883
163	0x3a99530a	0.0011697721
164	0x3a8660f0	0.0010252278
165	0x3b9160d6	0.0044365926
166	0xbbfe0a4f	-0.0077526937
167	0x3b4c685e	0.0031190137
168	0xbbd3ebef	-0.0064673345
169	0x3c6aa138	0.014320664
170	0x3b1543c6	0.0022775992
171	0x3bbf0668	0.005829621
172	0xbc19cc8d	-0.009387148
173	0xbc528ea6	-0.012851393
174	0x3c1c16c7	0.009526915
175	0x3ca40206	0.020020496
176	0xbb3a3c68	-0.0028417353
177	0xbc0b7345	-0.008511369
178	0xbc3258ee	-0.01088546
179	0xbb83f2a7	-0.004026729
180	0x3b987709	0.004652862
181	0xba694f2e	-0.00089000433
182	0xbb9bfe35	-0.0047605284
183	0xbc01ff62	-0.007934423
184	0x3a4747cd	0.00076019467
185	0xbbec7a74	-0.007216746
186	0x3ae5fe3d	0.0017547082
187	0xbc37980e	-0.011205686
188	0xba94ab85	-0.0011342621
189	0x3b4dc5f1	0.00313985
190	0xbcd63277	-0.02614711
191	0xbb8bb524	-0.004263537
192	0x3c553d6b	0.0130151315
193	0xbb0df9d6	-0.0021663806
194	0x39f88853	0.00047403816
195	0x3bca8a37	0.0061810273
196	0xbb6f182d	-0.0036482916
197	0xbc787044	-0.015163485
198	0x3c04ddd2	0.008109527
199	0xbc014235	-0.00788932
200	0x3c1989b3	0.009371209
201	0x3bc303ec	0.0059513953
202	0xbb1993c7	-0.002343403
203	0xb87035b4	-5.7270474e-05
204	0x3a72491a	0.00092424604
205	0xbcade415	-0.021226922
206	0xbbf37340	-0.0074295104
207	0xbc2503d4	-0.0100717135
208	0xbaaf9bf3	-0.0013397917
209	0x3b9f0a2e	0.0048535084
210	0xbc32e56c	-0.010918956
211	0x3c391b65	0.011298035
212	0x3c2caf5a	0.010539854
213	0xbc67dace	-0.014151288
214	0x3c63dc99	0.013907575
215	0x3c136beb	0.008997898
216	0x3cc1da1f	0.023663579
217	0xbacdbf72	-0.0015697314
218	0x3b94ad4b	0.0045372597
219	0xbb92b6b0	-0.0044773445
220	0xbb0f056a	-0.0021823295
221	0xbb5d148c	-0.003373417
222	0xbbe139ec	-0.00687336
223	0x3ccd8b43	0.02509082
224	0xbc3a1d6d	-0.011359555
225	0xbc8676d0	-0.016414076
226	0x3c0eabd6	0.008707961
227	0xb8ae03dd	-8.297686e-05
228	0x3c35cc98	0.011096142
229	0x3c2954b6	0.010335138
230	0xbc05218d	-0.008125675
231	0x3c723900	0.014784098
232	0x3c26ed15	0.010188361
233	0x3c01f65d	0.007932273
234	0x3bbf2640	0.005833417
235	0x39cef002	0.00039470202
236	0x3c5911fb	0.013248916
237	0xbc99ee87	-0.018790497
238	0x3c26b8ac	0.010175865
239	0xbc768d7a	-0.015048379
240	0x3bcbf32e	0.0062240576
241	0x3b073d75	0.0020635996
242	0xbb9c2737	-0.004765417
243	0xbc8be26e	-0.017075744
244	0xba0deaf0	-0.00054137316
245	0xba46ca0e	-0.0007583209
246	0xbb7c741d	-0.0038521357
247	0xbb2aa145	-0.0026036066
248	0x3b6c585f	0.0036063415
249	0x3c3c21b9	0.0114826495
250	0xbaf37506	-0.0018574304
251	0xbc46b953	-0.012129146
252	0x3bc00566	0.0058600185
253	0xbc0f2ef5	-0.008739223
254	0x3c1a182f	0.00940518
255	0xba4bc60e	-0.0007773348

action_model._discrete_distribution.branches.3.bias f4 [2]
0	0xbb8a3200	-0.0042173862
1	0x3b8a3203	0.0042173876

action_model._discrete_distribution.branches.3.weight f4 [2, 256]
0	0xbb1b5db5	-0.0023706977
1	0x3c4b8ab1	0.012423203
2	0x3bc570f4	0.006025428
3	0x3ac76b2c	0.0015214435
4	0xbc42f1bd	-0.011898455
5	0x3b4624e4	0.003023439
6	0xb88fb004	-6.851557e-05
7	0x3c0cf306	0.008602863
8	0x3c4fb2f9	0.012676948
9	0x39683f59	0.00022148843
10	0x3be74af4	0.0070584957
11	0x3c3af676	0.0114113
12	0x3cf55cd2	0.029951487
13	0x3c193d39	0.0093529755
14	0x3c2da0a6	0.010597384
15	0x3b7a810f	0.0038223898
16	0x3bdac495	0.0066762664
17	0x3b575dd0	0.0032862313
18	0xbc76c6fb	-0.015062089
19	0xbc3425b8	-0.010995321
20	0xbcd14d4e	-0.025549557
21	0xbb0306cd	-0.0019993067
22	0xb7b84f03	-2.1971302e-05
23	0xbcd945cf	-0.026522545
24	0xbc3a0891	-0.011354581
25	0xb9b25720	-0.0003401572
26	0xbc3aa5e1	-0.011392088
27	0x3a0bd513	0.000533418
28	0xbc99ded1	-0.018783005
29	0xbcb9f66c	-0.02270051
30	0xbc893e31	-0.016753288
31	0xbcaef381	-0.021356346
32	0xbcad1c54	-0.021131672
33	0x3aab5392	0.001307117
34	0xbc7c86c8	-0.015412994
35	0x3aa1ec83	0.0012353811
36	0xbb4c08c0	-0.0031133145
37	0x3c866703	0.016406542
38	0x3cc0601b	0.023483327
39	0x3be7928c	0.0070670303
40	0xbafab6ca	-0.0019127962
41	0xbd0a6db0	-0.033796012
42	0xbc2bca0d	-0.010485184
43	0xba40e4dd	-0.0007358322
44	0xbbf380d9	-0.0074311313
45	0x391112e0	0.00013835309
46	0x3b1031e6	0.0022002398
47	0x3bf19c93	0.0073734014
48	0x3c0e686f	0.008691891
49	0xbc83bbeb	-0.016080817
50	0xbccb1e7a	-0.024794806
51	0xbc24fa66	-0.010069465
52	0xbc59179c	-0.013250258
53	0x3be475d3	0.0069720536
54	0x3b7bb713	0.0038408681
55	0x3c2a9a33	0.0104127405
56	0x3cb9d3f1	0.02268407
57	0xbb62f4b9	-0.003463073
58	0xbc577599	-0.013150596
59	0x3b99ab61	0.0046896194
60	0xbca00e00	-0.019537926
61	0xbc4774f8	-0.012173884
62	0x3ba2ba72	0.0049660737
63	0x3c8233bc	0.01589381
64	0xbc5362e3	-0.012901994
65	0xbcb6dd1b	-0.022322228
66	0xbb8be5b3	-0.0042693256
67	0x3c30d062	0.01079187
68	0x3b0353b4	0.0020038905
69	0xbca522dd	-0.020158226
70	0x3ce12523	0.027483528
71	0xbc97c581	-0.018526794
72	0xbabb8302	-0.0014306011
73	0xbc176c89	-0.009242185
74	0x3c3318fb	0.010931249
75	0xbbff61e9	-0.007793654
76	0xbc0eb74f	-0.008710696
77	0x3c10895a	0.00882181
78	0x3b9ab3f2	0.004721158
79	0xbb9e9fac	-0.0048408117
80	0xbbd4b24b	-0.0064909807
81	0x3c9e5c09	0.019330995
82	0xbbe9c5d8	-0.0071341805
83	0x3c4071e8	0.011745907
84	0x3b96422c	0.004585525
85	0xbb34fefb	-0.00276178
86	0xba9409d7	-0.0011294436
87	0x3b894f7e	0.0041903844
88	0xbc84254f	-0.016131071
89	0x3c031efc	0.008002993
90	0x3c31fd19	0.010863566
91	0x3bd67f93	0.0065459698
92	0x3bd7aafe	0.006581663
93	0x3ba2fb71	0.004973822
94	0x3c1946c1	0.009355248
95	0x3b39504c	0.002827662
96	0xbce5a11e	-0.028030928
97	0x3b35a664	0.0027717585
98	0xbca53dd6	-0.020171087
99	0xbc73b8bd	-0.014875588
100	0xbba47ac3	-0.005019517
101	0x3a49a0d8	0.0007691509
102	0xbb8fb7d7	-0.004385929
103	0xbaaaedf3	-0.0013040885
104	0x3c56e6d5	0.013116558
105	0x3bdeec5c	0.0068030786
106	0xbb83ef4f	-0.0040263305
107	0x3ac211a5	0.0014806284
108	0xbb2c4fd4	-0.0026292698
109	0xbc3abf66	-0.011398172
110	0x3c374f53	0.011188346
111	0xbc983857	-0.018581552
112	0xbbaadfd2	-0.0052146697
113	0xbd079f1c	-0.033110723
114	0xbbe85052	-0.007089653
115	0x3c09b1bc	0.008404192
116	0x3b71f478	0.0036919396
117	0xbba739a5	-0.0051033073
118	0x3b6ab911	0.0035815875
119	0xbc811af9	-0.015759932
120	0x3c4f3de6	0.012649035
121	0xbcd5d2b9	-0.026101457
122	0x3b47aa1c	0.0030466383
123	0xbafd6e60	-0.0019335262
124	0x373473cd	1.0755798e-05
125	0xbbfc5e2d	-0.0077016563
126	0x3bde2765	0.0067795985
127	0xbc702634	-0.014657546
128	0xbbe5d54c	-0.0070139524
129	0xbb8a4c76	-0.0042205406
130	0x3bfba4df	0.0076795663
131	0x3ca1a92e	0.019733991
132	0x3c146d27	0.009059227
133	0x3c3ba00e	0.011451734
134	0x3b285df8	0.0025690775
135	0xbba5d5a5	-0.005060869
136	0xbc31f5b0	-0.010861799
137	0xbb3294f9	-0.002724944
138	0xb88fe263	-6.860939e-05
139	0x3b7b0957	0.0038305128
140	0x3bf17a32	0.007369303
141	0xbb0dc96c	-0.002163495
142	0x3bdc2e6c	0.006719401
143	0xbc985262	-0.01859397
144	0x3bf563b4	0.007488692
145	0x3bf28e02	0.0074021826
146	0x3b531099	0.0032205938
147	0xbbd740bd	-0.0065689967
148	0x3c9433e3	0.018091148
149	0x3c19b627	0.009381807
150	0x3b7dfffa	0.003875731
151	0x3c2e4b56	0.010638079
152	0x3cc57903	0.024105554
153	0xbb2777b1	-0.002555352
154	0xbb1bbddd	-0.002376429
155	0x3c30647a	0.010766143
156	0x3c5d49eb	0.013506393
157	0xba8eb7f5	-0.0010888564
158	0xbb6422f9	-0.0034810884
159	0x3a87407c	0.00103189
160	0x3b7845a6	0.003788331
161	0xbccba8b3	-0.024860715
162	0x3cadd190	0.021218091
163	0xbbb38cf8	-0.0054794513
164	0xbbb9839e	-0.005661442
165	0x3c4089d8	0.0117516145
166	0xbbba4780	-0.005684793
167	0x3c537078	0.012905233
168	0xbb51246d	-0.003191258
169	0x3b1d79b6	0.0024028844
170	0x3bee601d	0.007274641
171	0xbc0692a2	-0.008213671
172	0xbc3f3508	-0.0116703585
173	0xbc5cf163	-0.013485285
174	0x3b53fcee	0.0032346803
175	0xbc17ef4e	-0.009273363
176	0x3c2ef857	0.010679326
177	0xbcf47ac7	-0.029843701
178	0xbc508e5e	-0.0127292555
179	0x3c2db022	0.010601075
180	0xbc066790	-0.008203402
181	0x3b526105	0.0032101285
182	0x3ab13594	0.0013519996
183	0xba22262e	-0.0006185499
184	0x3be89115	0.0070973733
185	0xbb0ca623	-0.002146133
186	0x3c69ae35	0.014262726
187	0xbd114f7c	-0.035476193
188	0x3a99f922	0.0011747221
189	0x3c69c5aa	0.014268318
190	0xbad317e5	-0.0016105144
191	0xbb0dc26a	-0.0021630772
192	0x3b342467	0.0027487518
193	0xbc0313cc	-0.008000325
194	0xbb906e66	-0.004407692
195	0x3b89e059	0.0042076525
196	0xbb36a5f5	-0.0027869914
197	0xbc5c9614	-0.013463516
198	0xbc046a39	-0.008081966
199	0x3c8e342e	0.017358866
200	0xbb85a83a	-0.004078892
201	0x3a95eb48	0.0011437917
202	0x3c5aaece	0.013347341
203	0x3b665a1e	0.003514893
204	0x3aa61317	0.0012670484
205	0xbcc830a8	-0.024437264
206	0x3c78c953	0.015184718
207	0xbb41cabc	-0.0029570302
208	0x3c719a69	0.014746287
209	0x3a82fb00	0.0009993017
210	0xbc1221f7	-0.008919231
211	0x3b2bc0e1	0.0026207494
212	0xbc30b8fc	-0.010786291
213	0xbc333175	-0.010937084
214	0x3c844a7c	0.016148798
215	0x3b20ffed	0.0024566606
216	0x3ca96051	0.02067581
217	0xbc6e263e	-0.014535485
218	0xbc2096cd	-0.009801579
219	0x3b4889c6	0.0030599697
220	0x3a4c29b8	0.0007788199
221	0x3c188ae6	0.00931046
222	0xbc91aa1c	-0.01778131
223	0x3c5f36f1	0.013623939
224	0xbbb9e448	-0.005672965
225	0xbc612caf	-0.013743564
226	0x3c0a3a6e	0.008436782
227	0x3c2a7fc8	0.010406442
228	0xbc25a792	-0.010110753
229	0x3ae23998	0.0017259596
230	0x3b14722f	0.0022651067
231	0x3cc6f637	0.024287326
232	0xbce3d002	-0.027809147
233	0x3ca30d14	0.019903697
234	0xbc5d83e4	-0.013520215
235	0xbc1bd73b	-0.009511764
236	0xbc487b13	-0.012236374
237	0xbd1504b6	-0.036381446
238	0x3ab9d691	0.0014178326
239	0xbb8e361f	-0.004339948
240	0x3ab1d732	0.0013568162
241	0xbcade828	-0.021228865
242	0xbca13939	-0.019680606
243	0x3c3de166	0.011589384
244	0x3bae49cb	0.0053188554
245	0xbbd20dc1	-0.006410331
246	0x3b40c8ba	0.0029416517
247	0xba9cbcda	-0.0011958138
248	0x3cbf780b	0.02337267
249	0xb91c8afb	-0.00014929094
250	0x3c2978d9	0.010343754
251	0x3bde6e18	0.0067880265
252	0x3c33c7d1	0.010972933
253	0x3bb4b309	0.0055145067
254	0xbc16bbdd	-0.0092000635
255	0xbd0d2aa3	-0.03446449

discrete_action_output_shape f4 [1, 4]
0	0x40400000	3.0
1	0x40400000	3.0
2	0x40400000	3.0
3	0x40000000	2.0

network_body._body_endoder.seq_layers.0.bias f4 [256]
0	0x3c9465ce	0.01811495
1	0x3bddb75e	0.006766244
2	0x3c826ba1	0.015920462
3	0xbbf72974	-0.0075427834
4	0x3b41788d	0.0029521317
5	0x3ba96023	0.005168931
6	0xbc30945d	-0.01077756
7	0xbc26630e	-0.010155452
8	0xbca96e33	-0.02068243
9	0xbafe3386	-0.0019394017
10	0x3d17c702	0.037055023
11	0x37ab0e12	2.039134e-05
12	0xbc5d2fe2	-0.013500186
13	0x3cb84110	0.022491962
14	0xbbe7a0c8	-0.007068727
15	0x3ceb94b2	0.028757427
16	0x3d0b0c3e	0.033947222
17	0x3cad99fe	0.021191593
18	0x3c2472dc	0.01003715
19	0x3c68a7e3	0.014200184
20	0x3c4c712c	0.012478154
21	0x3c1bbe6c	0.009505849
22	0x3b24c906	0.0025144233
23	0x3b5c2e59	0.0033596961
24	0x3d248ba5	0.040172238
25	0x3ae1bf22	0.00172231
26	0x3c23f75f	0.010007708
27	0x3c0f6910	0.008753076
28	0x3d3f6692	0.046728678
29	0xbb2fd1a7	-0.0026827843
30	0x3cb3218a	0.021866579
31	0xbba3d161	-0.004999325
32	0x3d075163	0.0330366
33	0x3c892e34	0.016745664
34	0x3b98c71f	0.004662409
35	0x3af8360d	0.0018937007
36	0x3b7cc3d7	0.0038568878
37	0x3bc0fa6a	0.0058892267
38	0x3b093b50	0.0020939894
39	0x3c18a365	0.0093163
40	0x3c5de34b	0.01354296
41	0xbb703858	-0.0036654677
42	0x3be34248	0.0069353916
43	0x3b2b6848	0.0026154686
44	0x3c08abca	0.008341739
45	0xba93a2a9	-0.0011263686
46	0x3c4efbed	0.012633306
47	0x3c69a2a4	0.014259968
48	0x3cdf4104	0.027252682
49	0x3b2059ae	0.0024467516
50	0x3c41c9ad	0.011827868
51	0x3c925c00	0.017866135
52	0x3cc97bdb	0.024595192
53	0x3bb9a66f	0.0056655924
54	0x3cd987cd	0.026554013
55	0xbcaa8add	-0.020818168
56	0x3c2cf36c	0.010556083
57	0x3cb7e692	0.022448812
58	0x3c6cba82	0.014448764
59	0xbba0f21a	-0.0049116733
60	0xbc1a9015	-0.009433766
61	0x3cdb3b9b	0.02676182
62	0x3bf7fb6a	0.0075678127
63	0x3d0d8fa7	0.034560826
64	0x3ced7b9d	0.028989607
65	0xbbc5d3d4	-0.006037215
66	0x3d0da932	0.034585185
67	0xbc07a786	-0.008279687
68	0xbc1e34b4	-0.00965612
69	0xbba4d366	-0.0050300835
70	0x3cadf6cc	0.021235846
71	0xbc532d5f	-0.012889235
72	0xbc636916	-0.013880035
73	0x3b4f9f45	0.0031680625
74	0x3c53ee7e	0.012935279
75	0x3c08e90a	0.008356342
76	0x3b3794f0	0.0028012358
77	0xbb06b805	-0.0020556462
78	0x3bccb1b4	0.00624677
79	0xbc9a6e28	-0.018851355
80	0xbb2628d3	-0.0025353923
81	0xbc4f3e1e	-0.012649087
82	0x3c3a0d1d	0.0113556655
83	0xbc195f29	-0.009361067
84	0x3c5c7bf6	0.013457289
85	0xbbd1d5c4	-0.0064036567
86	0xbbc7cc53	-0.0060973554
87	0xbbc93d9a	-0.0061413767
88	0x3b0663ed	0.0020506338
89	0x39c9acc7	0.00038466437
90	0x3d028fce	0.031875424
91	0xbc9fe0eb	-0.019516429
92	0x3cdf26fd	0.02724027
93	0x3cc7d8cf	0.024395375
94	0x3d01db08	0.031703025
95	0xbc58d596	-0.013234517
96	0xbaf34c5f	-0.0018562189
97	0x3c851feb	0.016250571
98	0xbca2bd27	-0.019865585
99	0x3bb9042e	0.00564625
100	0xbaa480a4	-0.0012550545
101	0xbbeddc5d	-0.0072589354
102	0x3b60eec3	0.0034322
103	0x39babdac	0.00035618
104	0x3cf080cd	0.029358292
105	0x3ce85e25	0.028365204
106	0x3ce236d0	0.027614027
107	0x3c4aa81b	0.012369181
108	0xbc0774f2	-0.008267628
109	0x3c579aca	0.013159463
110	0xbb9faa38	-0.0048725866
111	0x3caf82f1	0.021424742
112	0x3ba288ed	0.0049601705
113	0xbc55a6e9	-0.013040283
114	0xbbb9eb82	-0.0056738267
115	0x3b257840	0.0025248677
116	0x3c7def97	0.015499017
117	0xbb9951bf	-0.0046789343
118	0x3a6eb368	0.0009105713
119	0x3ca8d21d	0.020608002
120	0xbaaa4b35	-0.0012992384
121	0x3cf5e978	0.030018553
122	0xbbd04a86	-0.00635654
123	0xbc945898	-0.018108651
124	0xbc1b4089	-0.009475836
125	0x3ba5837a	0.0050510736
126	0x3c321b9b	0.0108708395
127	0x3bd965c1	0.0066344445
128	0xbb76f042	-0.0037679826
129	0x3cdc5c1d	0.026899392
130	0xbcb47b7d	-0.02203154
131	0x3c575ae8	0.013144232
132	0xbb439000	-0.002984047
133	0x3c4b4a86	0.0124079045
134	0x3ce56b8a	0.02800538
135	0x3c7f4527	0.015580452
136	0xbb8061d6	-0.003917913
137	0xbc0ca5a9	-0.008584418
138	0x3ca92edc	0.020652227
139	0x3cf82600	0.030291557
140	0x3c137958	0.009001099
141	0x3c0bd70e	0.00853516
142	0xbccb0f28	-0.0247875
143	0x3ac4c0db	0.0015011089
144	0x3cc1570a	0.023601074
145	0x3d2f1f2a	0.04275433
146	0x3cacc401	0.021089556
147	0x3c7dc1a8	0.015488066
148	0x3d05332a	0.032519497
149	0x3c94ac92	0.018148694
150	0x3c3a3bb7	0.011366776
151	0x3923cbc1	0.00015620796
152	0x3ccf41b7	0.02529989
153	0xbb45327f	-0.0030089912
154	0x3ce5441c	0.027986579
155	0x3aac1ae1	0.0013130569
156	0x3d0cd623	0.034383904
157	0x3c507565	0.012723302
158	0x3c786961	0.015161843
159	0x3c080ff3	0.008304584
160	0x3cf0f1f5	0.02941225
161	0xb98bf778	-0.00026696525
162	0x3c878096	0.016540807
163	0xbc26c8e2	-0.01017973
164	0x3ca281e5	0.01983733
165	0x3b0151ce	0.0019732597
166	0xbb0bd883	-0.0021338768
167	0x3c57100e	0.013126386
168	0x3bbebfe5	0.0058212155
169	0x3c070aa2	0.008242281
170	0x3d36e760	0.04465425
171	0x3cda7e82	0.026671652
172	0x3b67f999	0.0035396575
173	0xbc91247b	-0.01771759
174	0x3a899315	0.0010496104
175	0xbb841971	-0.004031353
176	0x3a330d21	0.00068302645
177	0xbc97a425	-0.018510887
178	0xbb4c5959	-0.0031181185
179	0x3c8405b3	0.016115999
180	0x3c5cd8e8	0.013479449
181	0x3baf22cb	0.005344724
182	0x3cbd06ce	0.023074534
183	0x3c093499	0.008374357
184	0x3bdba093	0.0067024915
185	0x3a94e385	0.001135931
186	0x3c353b47	0.011061496
187	0xbbc92618	-0.0061385743
188	0x397a9070	0.00023895665
189	0x3bcee395	0.006313751
190	0xbc9e2c18	-0.019308135
191	0x3c3c7f73	0.011504996
192	0xbc0a10cc	-0.008426856
193	0x3a9932d7	0.0011688125
194	0xbaf78f43	-0.00188873
195	0x3cc4bf64	0.024017043
196	0x3c452961	0.012033791
197	0x3cb58716	0.02215914
198	0xbbee7c56	-0.0072780056
199	0x3c3b7dd0	0.01144357
200	0x3bb61f0f	0.0055579017
201	0x3d00f203	0.0314808
202	0xbac7496f	-0.001520438
203	0x3afab5d2	0.0019127673
204	0x3c6c888a	0.01443685
205	0xbbba5dca	-0.00568745
206	0x3c91b189	0.01778485
207	0x3c6dbe43	0.014510694
208	0xbaca1972	-0.001541896
209	0x3cf208fc	0.0295453
210	0xbc1e3669	-0.009656527
211	0x3c3733a7	0.0111817485
212	0x3b46df47	0.0030345486
213	0x3ca39c3f	0.019971965
214	0x3cccc19d	0.024994666
215	0x3c54f92f	0.012998863
216	0x3bf04955	0.0073329606
217	0xbc13ae99	-0.009013795
218	0xbc6e496b	-0.014543871
219	0x3d0146c1	0.031561617
220	0x3ba27948	0.0049583055
221	0x3a3abeed	0.0007123787
222	0x3c195f7e	0.009361146
223	0x3c0dac37	0.008647016
224	0xbc74d06c	-0.01494227
225	0xbc040706	-0.008058315
226	0xbbbba8be	-0.0057269027
227	0xbcd9058c	-0.026491903
228	0x3c116b0e	0.0088756215
229	0xbc0e94bc	-0.008702453
230	0x3cbfd26e	0.02341577
231	0x3c3cec4f	0.01153095
232	0x3c8105d1	0.015749844
233	0x3cf13c6f	0.029447762
234	0x3c89f67b	0.016841164
235	0x3b2f48a3	0.0026746176
236	0x3aee51cf	0.001818234
237	0x3b2605c8	0.0025333036
238	0x3c9b8cbd	0.018988008
239	0x3d0c09b5	0.034188945
240	0x3c8665df	0.016405998
241	0x3b423464	0.0029633278
242	0xbabcdc75	-0.0014408963
243	0x3bf4bf28	0.0074690767
244	0x3c1619c1	0.009161414
245	0xbb09c9e9	-0.002102489
246	0xb9449176	-0.00018746205
247	0x3b8fec20	0.004392162
248	0x3bc9eb55	0.006162087
249	0x3b7ffff6	0.0039062477
250	0x3c4daa36	0.0125527885
251	0xbba64302	-0.005073906
252	0xba82a7db	-0.0009968238
253	0xbbcd04d8	-0.006256681
254	0xbac3c873	-0.0014937058
255	0x3c2048d7	0.009782991

network_body._body_endoder.seq_layers.0.weight f4 [256, 11]
0	0xbede85e4	-0.43461525
1	0x3e18b39d	0.14912267
2	0xbf157cf9	-0.5839382
3	0x3d9aca5f	0.075581305
4	0xbd6e7802	-0.058219917
5	0x3ececcad	0.4039053
6	0xbe3b52da	-0.18293324
7	0x3f0cd7bd	0.5501669
8	0xbd642662	-0.055700667
9	0xbdfd411b	-0.123659335
10	0xbf33e38d	-0.7026909
11	0x3f2a2568	0.6646333
12	0x3f119764	0.5687163
13	0xbe6dbed3	-0.23217325
14	0x3e143d05	0.14476402
15	0x3e6c6f70	0.23089385
16	0x3f2686ee	0.65049636
17	0x3f085b0e	0.5326394
18	0x3e8857d7	0.26629516
19	0xbe5eaad1	-0.21744849
20	0x3e37b163	0.17938761
21	0xbdba769c	-0.09104654
22	0x3eb65e09	0.35618618
23	0xbcc1f216	-0.023675006
24	0xbe60b2a6	-0.21943149
25	0xbde5fb12	-0.112295285
26	0x3ec172e5	0.3778297
27	0xbe9b0b20	-0.30281925
28	0x3b3e8370	0.0029070042
29	0xbee6b43a	-0.45059377
30	0x3e158f70	0.14605498
31	0x3e0f5ae4	0.13999516
32	0xbe7debef	-0.24797033
33	0x3f059664	0.521826
34	0xbe748e25	-0.23882349
35	0xbe44db85	-0.19224365
36	0x3d3c5c2f	0.04598635
37	0xbc941393	-0.01807574
38	0x3ee54b94	0.44784224
39	0x3d66ae96	0.056318842
40	0x3eade556	0.33964032
41	0x3e4bb46e	0.19893047
42	0xbc67527e	-0.014118789
43	0x3e12690c	0.14297885
44	0xbe97d4d0	-0.2965455
45	0x3e3fd65f	0.1873412
46	0xbea58321	-0.32326606
47	0x3da1a147	0.07892089
48	0x3ec88981	0.39167407
49	0xbf040c79	-0.5158153
50	0xbe711b51	-0.23545577
51	0xbe0189a0	-0.12650156
52	0xbe1a348f	-0.15059112
53	0xbe0e7419	-0.13911475
54	0x3e7b2bb5	0.24528392
55	0xbe473656	-0.19454321
56	0x3e00a80a	0.12564102
57	0xbcea8bdc	-0.028631143
58	0xbe87de40	-0.2653675
59	0xbc93b3cd	-0.018030072
60	0xbf37f023	-0.71850795
61	0xbefcdc4f	-0.49386832
62	0xbe7ff77d	-0.24996753
63	0xbefec7ff	-0.4976196
64	0x3e79e5f4	0.24404126
65	0x3e43ce91	0.19121768
66	0xbd8571b6	-0.06515829
67	0xbe22de8f	-0.15905212
68	0xbe2ff2af	-0.1718242
69	0xbe312087	-0.17297564
70	0xbdd12602	-0.102123275
71	0x3d9e0bb6	0.077170774
72	0xbf2d7b2f	-0.6776609
73	0x3f0838e4	0.5321181
74	0x3d1b712e	0.037949733
75	0x3de694a2	0.11258818
76	0x3e92f4ad	0.28702298
77	0x3e6c54ee	0.23079273
78	0x3eb4ca8d	0.35310784
79	0xbd7681dc	-0.060182437
80	0xbf07c1b0	-0.5302992
81	0x3e136a7b	0.14396088
82	0x3d900f5f	0.07034182
83	0xbda0e4fd	-0.07856176
84	0xbe285bd6	-0.16441283
85	0x3f42d60c	0.7610786
86	0x3d507002	0.05088807
87	0x3e3005a6	0.17189655
88	0x3f13ea82	0.57779706
89	0x3ebf0bd8	0.37313724
90	0xbe731cbb	-0.23741429
91	0x3e0e6562	0.13905862
92	0xbeb701ba	-0.35743505
93	0x3ef2f0bc	0.4744929
94	0xbdc370bd	-0.095429875
95	0xbeafd30e	-0.3434071
96	0x3f2b7af7	0.66984504
97	0x3d9e1d79	0.07720465
98	0xbc9a9a8b	-0.01887252
99	0xbe89b0da	-0.2689274
100	0x3d8b6829	0.06806976
101	0xbecbfbe3	-0.39840612
102	0xbe290ab0	-0.16507983
103	0xbe86acc6	-0.2630369
104	0x3e6c4a5d	0.23075242
105	0x3f070614	0.5274365
106	0x3ea49d89	0.3215144
107	0xbe16c099	-0.14721908
108	0x3f3db8ca	0.7411009
109	0xbcbddab6	-0.023175579
110	0xbecd32cb	-0.40077814
111	0x3d4d2acf	0.050089654
112	0x3e66222e	0.22473976
113	0xbe52754b	-0.20552556
114	0x3c99150e	0.018686797
115	0x3e9dd18d	0.30823937
116	0xbc510924	-0.012758527
117	0xbec11d3f	-0.37717625
118	0x3f0ee170	0.5581274
119	0x3e87688f	0.2644696
120	0xbe1a1c5a	-0.15049878
121	0x3f2ba637	0.670505
122	0x3d34bba7	0.04412427
123	0xbd217eb1	-0.039427463
124	0xbf01f2f1	-0.50761324
125	0xbd2fc030	-0.042907894
126	0xbece4ed3	-0.40294513
127	0xbdadf851	-0.08494628
128	0xbe3c00ab	-0.1835963
129	0x3eb695db	0.35661206
130	0xbe8c991f	-0.27460572
131	0x3ed80c13	0.42196712
132	0x3d3ba86b	0.045814913
133	0xbf3bb663	-0.73325175
134	0x3d96f16c	0.07370266
135	0xbea95c48	-0.33078218
136	0xbe5af6e6	-0.21383247
137	0x3e8deb4e	0.27718586
138	0x3e0a0f76	0.1348246
139	0xbe3b2613	-0.18276243
140	0x3f0c6dbd	0.5485495
141	0xbde6a320	-0.112615824
142	0xbe4f5891	-0.20248629
143	0x3e540fe1	0.20709182
144	0xbdcc0d7e	-0.09963511
145	0x3ef2d948	0.47431397
146	0x3dc63cd3	0.0967957
147	0xbec7af7b	-0.39001068
148	0x3e3115ea	0.17293516
149	0x3e5883eb	0.21144073
150	0x3dc1d1bd	0.094638325
151	0xbdca5582	-0.098795906
152	0x3ea23120	0.31678104
153	0x3dde0523	0.108408235
154	0xbee16308	-0.44020867
155	0xbcd2e060	-0.025741756
156	0x3e4fe072	0.20300463
157	0xbd4da57c	-0.050206646
158	0xbf098590	-0.53719425
159	0x3ecf3e6f	0.4047732
160	0xbcfa6e5c	-0.030570202
161	0x3ef32eef	0.47496745
162	0x3e6eea12	0.23331478
163	0x3efa2d2f	0.48862597
164	0x3f068b59	0.5255638
165	0x3cace1fb	0.02110385
166	0xbe2e351c	-0.17012447
167	0x3ee5c329	0.44875458
168	0x3e78e505	0.24306114
169	0x3e2de914	0.16983443
170	0xbee85e9f	-0.4538469
171	0x3eeae189	0.45875195
172	0xbe8c91c6	-0.27454966
173	0xbf52ba70	-0.8231573
174	0x3db2dae3	0.087331556
175	0xbd673f5a	-0.0564569
176	0xbf2b15ad	-0.6682995
177	0x3f06365f	0.52426714
178	0xbd327ebc	-0.043577895
179	0x3e814051	0.25244382
180	0xbced6f8b	-0.028983852
181	0xbd9001d9	-0.070316024
182	0x3d9d1455	0.07669894
183	0x3d94d982	0.07268049
184	0x3e0fe35e	0.14051577
185	0x3ec0ccaf	0.3765616
186	0xbe4a7487	-0.19771014
187	0xbe78d1a2	-0.24298719
188	0x3d90d7f9	0.070724435
189	0xbe12748e	-0.14302275
190	0x3e817c9c	0.25290382
191	0x3e9c2089	0.30493572
192	0x3ea3c3d2	0.31985337
193	0xbe012a62	-0.12613824
194	0xbe915bbc	-0.283903
195	0x3e468159	0.1938528
196	0xba15d1ff	-0.0005715191
197	0xbe0fefac	-0.14056271
198	0x3e3ba0ba	0.18323031
199	0x3f2a6f2e	0.66575897
200	0xbed792b3	-0.4210411
201	0xbf0c861b	-0.5489213
202	0xbf313039	-0.69214207
203	0xbc0c987f	-0.00858128
204	0xbcfadcc7	-0.030622853
205	0x3da992c5	0.08279947
206	0xbd8a369d	-0.06748698
207	0x3d256c10	0.04038626
208	0x3efd68c7	0.49494
209	0xbe71d8f2	-0.23617914
210	0x3ebf9cfd	0.3742446
211	0xbb258388	-0.00252554
212	0x3e1e869b	0.15481035
213	0x3eed70fa	0.46375257
214	0xbda67d67	-0.08129387
215	0xbe3eb4c6	-0.18623647
216	0x3cfcfc19	0.030881928
217	0x3e59004a	0.21191517
218	0x3d0e4203	0.034730922
219	0x3d5ae755	0.05344327
220	0xbf0bd297	-0.5461821
221	0xbd962896	-0.0733196
222	0xbed1f677	-0.4100835
223	0x3ea6aca5	0.32553592
224	0x3ee6a267	0.45045778
225	0xbce56ddc	-0.028006487
226	0x3cf02b24	0.029317446
227	0xbe4a787a	-0.1977252
228	0x3d4136f9	0.047171567
229	0xbcf3249e	-0.029680546
230	0xbd9bef63	-0.07614019
231	0xbec6a1dc	-0.38795364
232	0xbe4a774f	-0.19772075
233	0x3e81dee9	0.2536538
234	0x3df620d2	0.12017979
235	0x3e95e6f9	0.2927778
236	0xbe747f78	-0.2387675
237	0x3e971e6b	0.29515395
238	0xbe924e01	-0.28575137
239	0x3e8085e5	0.25102153
240	0xbda3c169	-0.079958744
241	0x3e1e3536	0.15449986
242	0x3f40f20f	0.7536935
243	0x3f065760	0.52477074
244	0xbf16ba28	-0.588778
245	0x3e155cfd	0.14586253
246	0x3e86bf07	0.26317617
247	0xbed13a3a	-0.40864736
248	0xbe90a536	-0.28251046
249	0x3f1b5c7e	0.60688007
250	0xbd2eba4c	-0.042658135
251	0xbe7a91c7	-0.24469672
252	0xbdd6000a	-0.10449226
253	0x3ce53633	0.027979946
254	0xbda189e4	-0.07887629
255	0xbeea982b	-0.4581922

network_body._body_endoder.seq_layers.2.bias f4 [256]
0	0xbbb534bf	-0.0055299695
1	0xb9925b12	-0.00027915143
2	0xbbadf4ae	-0.005308709
3	0x3c356b3e	0.011072932
4	0x3be43032	0.006963753
5	0xbc272ef4	-0.010204066
6	0xbb960059	-0.004577678
7	0xbc389a68	-0.011267282
8	0x3c4b2ae6	0.0124003645
9	0xbc264dc7	-0.0101503795
10	0x3c1daba1	0.009623439
11	0xbc872396	-0.01649646
12	0x3cbb36b6	0.022853237
13	0xbb834acb	-0.0040067188
14	0x3ca36d79	0.019949662
15	0x3bc67fd3	0.0060577183
16	0x3c8ff71a	0.017573882
17	0xbb9a8f20	-0.004716769
18	0x3b8517e3	0.0040616854
19	0x3cc8559b	0.024454882
20	0xbc1082ab	-0.008820216
21	0x3b009477	0.0019619742
22	0x3b37c54f	0.002804119
23	0x3cc75d63	0.024336522
24	0x3bc9bf08	0.006156806
25	0xbb3d671a	-0.0028900565
26	0xbbc041ea	-0.0058672326
27	0xbb5da6f8	-0.0033821445
28	0x3b267ef6	0.0025405264
29	0x3c51203a	0.012764031
30	0xbbecb4a1	-0.007223681
31	0x3c382dd8	0.011241399
32	0xbb1e27f5	-0.0024132703
33	0x3d0b977a	0.034080006
34	0x3ca93d43	0.020659095
35	0xbb0b8329	-0.0021287894
36	0xbb992e26	-0.004674691
37	0xbaf1a368	-0.001843554
38	0xbc1dbf96	-0.009628197
39	0xbbecbdcb	-0.0072247735
40	0xbbcc9757	-0.006243627
41	0x3c468bef	0.012118324
42	0x3c73cc04	0.014880184
43	0xbc172ab3	-0.009226489
44	0x3c56e524	0.013116155
45	0xbc0e6e8b	-0.008693348
46	0x3c68e863	0.014215562
47	0xbb37637b	-0.002798288
48	0xbc60148c	-0.013676774
49	0xbcb30450	-0.021852642
50	0x3c71984a	0.014745781
51	0x3cfaa608	0.030596748
52	0x3a6d8968	0.00090613076
53	0x3bafbe6a	0.0053632753
54	0xb9131c43	-0.00014029541
55	0xbc132f1e	-0.008983402
56	0xb9f13241	-0.00046004544
57	0xbbef8119	-0.007309091
58	0xbaf81595	-0.001892733
59	0x3b25d099	0.0025301336
60	0x3c2d96fc	0.0105950795
61	0x3ad3351d	0.0016113851
62	0xbc304955	-0.010759671
63	0xbbe518ea	-0.0069914954
64	0x3ce3a0d9	0.02778666
65	0x3d185f68	0.03720036
66	0xbb29b6e1	-0.0025896358
67	0x3bd5259e	0.0065047285
68	0x3c2f5525	0.010701452
69	0x3c94fb13	0.018186128
70	0xbbc5742a	-0.0060258107
71	0x3ba3df45	0.005000981
72	0xb9f515a2	-0.0004674616
73	0x3b07c488	0.0020716507
74	0x3c120994	0.008913416
75	0x392c1cae	0.00016413882
76	0x3bcb577a	0.0062054964
77	0x3c87f0f4	0.016594388
78	0x3cca207c	0.024673693
79	0x3bfea26a	0.007770826
80	0x3caca2d7	0.021073742
81	0xbc305678	-0.010762803
82	0x3867755e	5.5184e-05
83	0xbbfc76e1	-0.007704601
84	0xbc640455	-0.013917048
85	0xbc453961	-0.012037606
86	0x3b2f9639	0.002679242
87	0xbb27032e	-0.0025484073
88	0xbc455eb9	-0.012046509
89	0x3caf86d9	0.021426605
90	0x3b60b62d	0.0034288273
91	0xbc0ad7bd	-0.008474288
92	0xbc75c414	-0.015000362
93	0xbc4085a2	-0.011750611
94	0xbbe05b6b	-0.0068468354
95	0xbc929305	-0.01789237
96	0x3caa7d0b	0.020811578
97	0xbc94520b	-0.018105527
98	0x3d032e41	0.032026533
99	0xbc4903e5	-0.012268995
100	0xbb472b1d	-0.0030390688
101	0xbc115c5d	-0.008872119
102	0x3b186e19	0.0023258983
103	0x3b9d569d	0.004801585
104	0xbc655d70	-0.013999328
105	0x3ce72b73	0.02821896
106	0x3cd6330e	0.026147392
107	0x3c817073	0.01580069
108	0xbc43ab66	-0.01194272
109	0xbaa5af13	-0.0012640677
110	0x3a302e03	0.00067207235
111	0x3c0dd6d8	0.00865718
112	0xbc2b879c	-0.0104693435
113	0x3ca18692	0.019717488
114	0xbc559db9	-0.013038092
115	0xbcbe015d	-0.02319401
116	0xbb6bae9a	-0.0035962225
117	0xbbd43bed	-0.0064768703
118	0x3c3eb520	0.011639863
119	0x3a0025f8	0.000488847
120	0x3c204f8e	0.009784592
121	0x3b11261a	0.0022147954
122	0xbc92b52b	-0.017908653
123	0x3c2caee4	0.010539744
124	0x3caa942f	0.020822613
125	0x3bf5bb33	0.0074991225
126	0x3c9fce60	0.019507587
127	0x3b903a47	0.0044014785
128	0x3bc04d33	0.005868578
129	0x3c4b088d	0.012392175
130	0xbb938a62	-0.0045025805
131	0x3c6be515	0.014397879
132	0xbc0ccdea	-0.008594016
133	0xbc521ec5	-0.012824719
134	0x3b34400f	0.0027504002
135	0x3c63302f	0.013866468
136	0xbbafc43e	-0.00536397
137	0xbb85d20a	-0.0040838765
138	0x3b421592	0.0029614908
139	0xbccd482a	-0.025058825
140	0x3d0a5a1f	0.033777352
141	0x3c6e7295	0.014553686
142	0xbc644c32	-0.013934182
143	0xbc05df22	-0.008170875
144	0x3ca2f500	0.019892216
145	0x3c5a0048	0.013305731
146	0x3c6ba820	0.014383346
147	0x3b01eba7	0.0019824298
148	0xbb0c3060	-0.0021391138
149	0xbb814eb4	-0.0039461497
150	0xb9eedb7f	-0.00045558435
151	0x3af0fdc5	0.0018386176
152	0xbaa20da8	-0.0012363689
153	0x3bd10862	0.006379173
154	0x3c8e69e2	0.017384473
155	0x3c928039	0.017883407
156	0x3c0c180c	0.008550655
157	0x3ca6a874	0.020343997
158	0x3c1161bb	0.008873398
159	0x3ccf1020	0.025276244
160	0x3cbe3b9b	0.023221781
161	0xbb299dd3	-0.0025881424
162	0x3cb4d54d	0.022074366
163	0xbc2f9676	-0.010717025
164	0xbb26ae8e	-0.0025433633
165	0xbbce15e3	-0.00628923
166	0xbc46a363	-0.012123915
167	0x3b2655b2	0.0025380668
168	0x3af690f4	0.001881151
169	0x3a539573	0.0008071281
170	0x3bf622b8	0.007511463
171	0x3b409eb7	0.0029391476
172	0xbc0089c2	-0.007845344
173	0x3cba16e7	0.022715999
174	0x3bde346a	0.0067811506
175	0x3b80f99d	0.003936006
176	0x3c8804e6	0.016603898
177	0x3c936ecd	0.01799717
178	0x39a90bf6	0.00032243103
179	0xbbb8900a	-0.005632405
180	0x3c44601e	0.011985807
181	0xbc6d1069	-0.0144692445
182	0xbca7ad1b	-0.020468285
183	0x3c3d6704	0.011560205
184	0xbc649f7e	-0.0139540415
185	0xbc3056be	-0.010762868
186	0x3c903ebb	0.017608037
187	0x3b9cba24	0.004782932
188	0xbb28cc70	-0.002575662
189	0x3bb1810c	0.005416995
190	0xbc02e8c4	-0.007990066
191	0xbc327c39	-0.010893875
192	0xbc1b767a	-0.009488696
193	0x3c12bdc7	0.008956379
194	0xbb0e32ea	-0.0021697828
195	0xbbea4c17	-0.007150184
196	0x3c228339	0.009918981
197	0x3cea1512	0.0285745
198	0xbc3f7533	-0.011685657
199	0x3c99a2b8	0.018754348
200	0xbbac68c3	-0.005261512
201	0xbbfe842f	-0.0077672224
202	0x3b7f49c0	0.003895387
203	0xbc710367	-0.014710284
204	0xbb05f104	-0.0020437846
205	0x3c6cb06c	0.014446359
206	0xbc27ea1f	-0.01024869
207	0x3c42b047	0.011882848
208	0x3c25b5ca	0.010114143
209	0xbc62b564	-0.013837192
210	0x3bd6dcb9	0.006557074
211	0xbc2b61de	-0.010460345
212	0x3c1c421d	0.009537247
213	0x3bcd0c7e	0.0062575927
214	0x3c2bfcd4	0.010497291
215	0xbc48dc7d	-0.0122596
216	0x3c12d436	0.008961728
217	0xbc60bfb3	-0.01371758
218	0x3bbb35c6	0.0057131974
219	0x3b12ef3c	0.0022420427
220	0xbc12d0ef	-0.008960946
221	0x3bd1e810	0.006405838
222	0x3c9c773e	0.019099828
223	0xbbc66d75	-0.0060555288
224	0xbc84767c	-0.016169779
225	0x3d0119d2	0.031518765
226	0x3c98edf8	0.01866816
227	0x3bc11fd7	0.005893688
228	0x3cf67c0a	0.030088443
229	0xbc902a4a	-0.01759829
230	0x3d0eec79	0.034893487
231	0xbba5aa26	-0.0050556837
232	0x3b30e88d	0.002699408
233	0xbc6cd04c	-0.014453959
234	0x3b05f642	0.002044097
235	0x3cac330d	0.021020437
236	0xba17a576	-0.00057848485
237	0x3cd0b1a5	0.025475333
238	0xbc09fe60	-0.008422464
239	0x3d0d46ef	0.034491476
240	0xbb998758	-0.0046853237
241	0x3a4818f6	0.0007633114
242	0xbadb5334	-0.001673317
243	0x3cdf3580	0.02724719
244	0xbbad14fd	-0.005282043
245	0x3b8c76bc	0.004286615
246	0x3ca73bf5	0.020414332
247	0xbc092ce9	-0.008372524
248	0x3c23f525	0.0100071775
249	0x3c95a2b8	0.018266067
250	0xbc76b52d	-0.015057844
251	0x3cd4ff48	0.026000634
252	0x3a8a0fa7	0.0010533229
253	0x3aaba69c	0.0013095918
254	0xbc447fee	-0.011993391
255	0x3cc60f4a	0.024177212
