results/VB_1/Volleyball/Volleyball-1999994.onnx (onnx, 291913 bytes, 15 tensors)

97 f4 [11]
00000000: 505b 9f3e 663b 9b3e 26df b83e ca9c 1b3f
00000010: 5b08 c340 9867 2d40 3ea6 3d41 71ca 1640
00000020: 600b fc40 48db 8740 bc57 4a40
0.31124353 0.30318755 0.3610775 0.60786116 6.09477 2.7094479 11.853086 2.356106
7.8763885 4.2455177 3.161605

action_model._discrete_distribution.branches.0.bias f4 [3]
00000000: 4e8b c03b a995 0c3c 1ba0 74bc
0.0058759814 0.008580604 -0.01493075

action_model._discrete_distribution.branches.0.weight f4 [3, 256]
00000000: 2538 743b 4a6a 1cbb 3b81 d03c cd1e 773c
00000010: e9b8 61ba 2e60 98bc d48a 753c 1031 b0bc
00000020: 2528 143c 4237 ba3b ecbb 08bc abdc debc
00000030: 5e67 28bb e85e 71bc 66d8 d5bc 5f39 aabc
00000040: 6552 6dbc cb28 903c 2ea8 85bc b256 97bc
00000050: a758 823c 879b 073b 368f 043c 5cea c1ba
00000060: 76f2 c23a e097 2aba b0e0 1d3b bdd3 43bb
00000070: 285e afbc 1490 4b3b a06d 96bc 8351 863b
00000080: 80e0 cfbb 995d 013d abab e6bb c21c babb
00000090: a472 903c 7c02 0b3d 959f df3b eb0d d43b
000000a0: 71b0 723b 66a9 16bc 67b5 cf3c c1fc 573c
000000b0: 3d5c 5b3d a895 a6bc 05c0 81bb 1027 b43c
000000c0: 55b3 9a3b 279d 10bc 3b2e ea3c 547f 823c
000000d0: adf2 21bc 7907 e53c 9aac 4abc ea99 7abc
000000e0: 91d6 cd3b bbe5 2bbc 3267 7abc 1a4e 1bbb
000000f0: 0c8f 66bc 988b 873b 00d5 83bb 59f1 493c
00000100: 4f18 b2bc 689c 753b 8c0c 4abc 1027 c23b
00000110: 2da8 843c 3a91 f7bc 0401 06bb 6b26 8e3b
00000120: 913b debc 31de 893c 1a05 7dbc 99c7 ff3c
00000130: 8eb4 2ebc 9465 aa3c 880f b43c cb70 6f3c
00000140: 2984 653b d097 063c bd1b db3b 97e7 18bc
00000150: 95e5 37bc 6266 82bc cc7c 2dbc ff1b a3ba
00000160: b6dd 6ebc aba6 d2bb fa33 8d3b 73ad 2dbc
00000170: d828 683c 2ab6 67bb 9334 09bc 3e05 dd3b
00000180: 6e77 3cbc c6a4 1a3c 48e9 3e3d fe4d e8bb
00000190: 784c bb3b b796 933c c2b3 e6bb 2e31 0c3d
000001a0: 9d49 893a 9091 6d3a 8c82 d1ba 1971 113c
000001b0: 198e 433c e0c3 6ebc 9c45 a83c f4d2 3bbc
000001c0: 8031 10bb b339 7c3c 94f1 a23c f5b5 e13a
000001d0: 1de4 15bb 914b c73c dc18 783c c1b0 823c
000001e0: af3b 8f39 1997 8abb fded 88bc 2098 a83c
000001f0: 6dd8 cfbc 387b 4fbc e739 23bd 8b9b 11bd
00000200: ca9b 15bb 712a 823c 49b2 223c 71c3 ca3c
00000210: 672a cfbb 8124 8f3c c9c8 c93a f2b5 07bd
00000220: 7dbc 923b 88e1 2c3b cad2 993a f412 7cbc
00000230: ffaf f0bb 7c0f acba 39d9 55bc 6435 32bc
00000240: 18c0 033c c55c b73c a484 4e3c bff8 d7bb
00000250: 6abf abbc 4281 d3bb 6f46 71bc b6a8 863c
00000260: ddce 473c 6012 4cbc 82e9 9bba 9756 83bb
00000270: 7c1b 55bc 8277 2fbc 2c4b 0c3d 2ae6 a03c
00000280: 4d72 f2bc 4c49 8dbc 6c4e e5bb b43a 85bc
00000290: 52be 47bc 6da4 08bd b8d9 19bc cb67 b6bc
000002a0: 9404 1cbd 1b12 5d3c 3c4a 1dbc 562d b4bc
000002b0: 7c9b fcbc 6437 2f3d 4169 05bc b739 3abc
000002c0: f69a 8d3b c61f e7bb d949 dd3b 232a c33b
000002d0: d3e5 4bbc e87b 863b 6d15 493d 108a 773c
000002e0: d196 003c 078c 4a3c 23af c2bc e543 baba
000002f0: ad92 8ebc a3d5 803c abf8 1b3d a367 a8bb
00000300: 5eed 5dbc e088 be3c 1be3 013c d1fe 65bb
00000310: 6f70 573c 0f6e 683c ca37 8cbc d153 3c3c
00000320: 7d65 89bb 0336 003b bf2e 94bb 8176 6d3a
00000330: f1c3 d9bc 364a 36bc e69b 1e3d 2b85 9e3a
00000340: 3c65 6bbc 92a7 65bc f507 00bb 1169 d6bb
00000350: 5f5e 343c 7127 0e3c d2d7 953c b7a6 a63b
00000360: 09dd 47bc afa9 9fbc 9340 3a3c 4ae4 78bc
00000370: 7fe8 cf3b 39b4 25bd fb82 2c3b 6338 0ebc
00000380: b24d 21bc c027 c23c 81a0 203c c0a5 d23b
00000390: 307e ebbc ea5e 883c a3b8 bdbb 17bc 183c
000003a0: 6cac 033b f593 13bc 0f51 a6bc 0e26 de39
000003b0: 697a a4bc 5e16 b8bb e710 643b 7be6 093c
000003c0: be7d bc39 ddec b23b a776 643c 6f54 44bb
000003d0: 25a8 463c 1309 c33c 0d96 6bbc 8a45 debc
000003e0: 945c 17bc e4ab 733c da56 75bc 9d46 c23c
000003f0: 2a6a e7bb d91a cc3b ed38 64bc c40c 433a
0.003726491 -0.0023867064 0.025452247 0.015083027 -0.00086106226 -0.01860055 0.0149867125 -0.02150777
0.009042774 0.005682857 -0.008345585 -0.027204832 -0.0025696377 -0.0147321 -0.026104163 -0.02077931
-0.014484976 0.017597577 -0.016315546 -0.018473957 0.015911413 0.0020692067 0.008090785 -0.0014794576
0.0014873284 -0.00065076165 0.0024090223 -0.0029880845 -0.021407202 0.003106122 -0.01836282 0.0040990724
-0.006343901 0.031583402 -0.0070395074 -0.0056796977 0.01763279 0.033937916 0.0068244436 0.0064713857
0.0037031437 -0.009195661 0.025355054 0.01318282 0.053554762 -0.020335034 -0.003959658 0.021991283
0.004721085 -0.008826531 0.028586498 0.015929855 -0.009884519 0.027957665 -0.012370253 -0.015295485
0.006281682 -0.010491784 -0.015283393 -0.0023697675 -0.014072191 0.004136514 -0.0040231943 0.012325608
-0.021740107 0.0037477259 -0.012332093 0.005925067 0.016193474 -0.030220617 -0.0020447383 0.004338076
-0.027128013 0.016829582 -0.015443111 0.031223105 -0.010663165 0.02080039 0.021980062 0.014614294
0.00350214 0.008214906 0.0066866563 -0.009332559 -0.01122417 -0.01591796 -0.010588836 -0.0012444257
-0.014579227 -0.00642856 0.0043091746 -0.010600436 0.014169894 -0.003535638 -0.008374351 0.0067450097
-0.011503084 0.009438699 0.046609193 -0.0070893755 0.005715903 0.018016202 -0.007040472 0.03422659
0.0010474209 0.0009062523 -0.001598434 0.008877062 0.011935734 -0.014573067 0.020541005 -0.011463869
-0.002200216 0.015394616 0.019890584 0.0017220365 -0.0022871562 0.024328025 0.015142646 0.015953423
0.00027319553 -0.004229438 -0.016715044 0.020580351 -0.025371755 -0.012663655 -0.03985014 -0.035548728
-0.0022828453 0.015889378 0.009930202 0.024751397 -0.0063221934 0.017473461 0.0015394922 -0.0331325
0.004478036 0.0026379544 0.0011735794 -0.015385378 -0.007345199 -0.0013127173 -0.013052278 -0.010876987
0.008041404 0.022383103 0.012604866 -0.006590932 -0.020965297 -0.0064546177 -0.014726265 0.01643787
0.012195316 -0.012455553 -0.0011895152 -0.004008125 -0.013007041 -0.010709645 0.034251377 0.019641
-0.029595518 -0.017246865 -0.006997874 -0.016263343 -0.012191372 -0.033359934 -0.009390287 -0.02226629
-0.038090304 0.013493086 -0.009600218 -0.021994274 -0.03083586 0.042777434 -0.00814277 -0.011366299
0.0043214513 -0.0070533482 0.006753188 0.005955951 -0.012444931 0.0041041262 0.0490927 0.0151086
0.007848457 0.012362487 -0.023765152 -0.0014210908 -0.017403925 0.01572687 0.038078945 -0.0051393076
-0.013545362 0.023258626 0.007927681 -0.003509451 0.013149365 0.014186396 -0.017116446 0.011494593
-0.0041930065 0.0019563443 -0.004522174 0.0009058491 -0.02658269 -0.011126092 0.038722895 0.001209413
-0.014367398 -0.014017003 -0.0019535993 -0.0065432866 0.011008828 0.008676396 0.018291388 0.005085792
-0.012198695 -0.019490091 0.011367935 -0.015191147 0.0063448544 -0.040455077 0.0026323188 -0.008680436
-0.009845184 0.023700595 0.009803892 0.0064284503 -0.028746694 0.016646821 -0.0057898327 0.009322188
0.0020091785 -0.009007444 -0.020302324 0.00042371493 -0.020077901 -0.0056179008 0.0034800114 0.008416767
0.0003595184 0.005460365 0.013944305 -0.0029957553 0.01212505 0.023808038 -0.014379037 -0.027132768
-0.009238381 0.014872525 -0.01497432 0.023715312 -0.0070622163 0.0062287864 -0.013929588 0.0007440562

action_model._discrete_distribution.branches.1.bias f4 [3]
00000000: e568 363c 69e1 3ebd 42b0 043d
0.011133407 -0.046601687 0.032394655

action_model._discrete_distribution.branches.1.weight f4 [3, 256]
00000000: 7aaa a53b 3e4c 7fbc e1df c13b 8da5 9bbc
00000010: 9900 34bc a840 f3ba c517 4fbc ee3a e8bc
00000020: 66b1 adbc 6b92 1c3c 8f06 19bc 98cd 07bc
00000030: a172 34bc 9ce9 0e3c b5a3 ddbb 8db8 ee3c
00000040: 6cb8 da3a 9415 243c a3fa e2ba 4b6b dfbb
00000050: 4472 1e3d 597d eabc c8f2 1f3c dfbf 7e3c
00000060: 7a56 d2bc 7b71 8dba 0f56 703c 21db 02bc
00000070: a13b 173d 9f67 d73b b82f e73a 36ac bc3c
00000080: 4baa 5fbb ee90 88bc 2959 9a3c e449 cc3c
00000090: ba16 adbc 97e3 8fbb c570 a8bc c5fc 893c
000000a0: 1dd7 29bb 5322 8b3c 75d3 d33c 54e3 4d3b
000000b0: 132b db3c 258a c13c 0ed8 e9bb d4d2 993c
000000c0: 47cd 783a 55d8 973c 0317 94bb 0d7c 473b
000000d0: e59b 96bc cf5d 26bc 0538 69bc c422 ee3b
000000e0: 5fb5 a1bc 0617 c9bc 7e80 24ba 196e 09bc
000000f0: 2d91 a33c 43eb a33c 13b8 d2bb 3138 adba
00000100: 77a2 043d 47c4 1b3d e5d5 9fbc e47b 9d3c
00000110: f487 03bb 0a20 cc3b 7b37 3ebc 4826 9f3c
00000120: 979f 133b aac8 cf3c 9091 bf3b 129f 7dbb
00000130: 9cee d13c a878 e13a 8dd1 d0ba 1139 ef3b
00000140: 69ae 143c 492a 6dbc 1d64 72bc 54cb 47bb
00000150: af47 b3bc a3ec fe3a bca8 49bc b4bb 7fbb
00000160: 1063 f63a 871f b03b a1fc 09bc 3fdd 5d3b
00000170: b836 d2bc 9442 523b c843 40bc d750 ed3b
00000180: f9fe b0bc f5cb c9bc a76b 783c 8310 08bc
00000190: 140d b9bc 4592 9fbc b127 9e3a cf5f 983c
000001a0: d1fe 8a3c 0103 6f3b c26f 9c3c 7c60 74bb
000001b0: 80a8 0bbd a8d5 9c3c 29cd 1dbd cb9e 053c
000001c0: aff4 23b9 59c8 91bc 3013 dabc a27c 3fbc
000001d0: 219e b3bb b875 9b3a 844e 943c cbc5 9538
000001e0: 2359 323b 8d48 2e3c 8e1b 793c 7101 f73b
000001f0: 9572 3abc 297d 8abc c7f1 04b9 52fb a83a
00000200: e4f0 443c 944d 31bc dc95 a73c eee2 cbbc
00000210: 8615 123c ee8c 0e3c 9f23 2e3c 7030 1c3a
00000220: e65b bc3c 8d69 d5bc 139c dd3c c768 22bd
00000230: 1231 5fbc a246 aa3c 111c 2ebc a8cf a83b
00000240: 889c 33bc 8937 1fbc c433 993b 0bd1 9f3c
00000250: b31b df3c 14e9 1c3c e8db 8abc f610 553c
00000260: 81f1 d93c 58e6 f33b bd61 01bc d59a 313b
00000270: 9a9d 7fbb 3681 6bbc 6e36 d43c 0b57 1a3c
00000280: 6e44 d93c fa6b 583c f203 4d3c c7b3 6f3c
00000290: 8279 f53b bb57 38bc 8236 51bc 6ca3 f0bc
000002a0: 0a18 f43c 5a21 fabc 8f7b aa3b 8ecf ffb9
000002b0: a559 cfbc 9296 053d 8f21 13bb 5177 2bbc
000002c0: a7e1 0abc 1669 6cbc e52b 783c d64f f83b
000002d0: e61e 97bb 6260 7fbc ec6d b73c d37f 9ebc
000002e0: 52fc 89bb f1b1 373c 8fd4 a5bb 7ea9 ed3c
000002f0: 929c c7bb c190 ee3b 03b5 99bc b4b9 1f3c
00000300: f11a d6b9 f183 e93b 00a4 d2bc dfe1 103d
00000310: bc0e 1fbd 675e 8e3b 705d e4bb 0e4b 00bd
00000320: 4bee b23c 795b 2abb 2bed 913a 8b65 92bc
00000330: a78f 55bc 8f71 273d e647 e0bc cc38 043d
00000340: 3b4a 033b cc9d c13c 1daf 07ba d546 9e3b
00000350: 9456 10bb 701b 9e3c 2661 dcbc f8f1 823c
00000360: bced 5d3a 230e c8ba 26b5 a7bc f7d2 cabc
00000370: e25a 91ba beb0 1d3c 02c3 2c3d 84a8 c3bc
00000380: 20bf d1bc 5370 a83b be12 253d 0c3c 833b
00000390: f2ee 0a3d d523 013c af69 de3b ca4d ffbb
000003a0: c23a b13b 8d27 223c faa1 e7bb acc3 1f3c
000003b0: e1b9 5e3b 5ba3 d93c 42d1 46bc ab9a af3c
000003c0: b53d b1bc 90a0 b3bc 38ba 063d 485c b0bc
000003d0: b1b0 39ba 747d a23c a284 143c a57f cb3a
000003e0: cb9f 9b3c 9200 d5ba 5bd3 6abb fd16 0ebc
000003f0: 8883 093d d2fe 843b d150 3bbb e41d 75bc
0.005055723 -0.015582142 0.005916581 -0.01899984 -0.010986471 -0.0018558698 -0.012639944 -0.028348412
-0.021202754 0.009556393 -0.009339943 -0.008288763 -0.011013658 0.008722689 -0.0067639 0.029140735
0.0016687042 0.01001491 -0.0017317127 -0.0068182102 0.03868319 -0.028624224 0.009762473 0.015548675
-0.025676 -0.0010791266 0.0146689555 -0.007986815 0.0369221 0.006573632 0.0017638123 0.023031335
-0.0034128602 -0.01667067 0.018841343 0.024937578 -0.021129001 -0.0043911445 -0.020561585 0.016844163
-0.002591557 0.01698414 0.025857667 0.0031416016 0.026753938 0.023625443 -0.0071363514 0.018777288
0.0009491038 0.018535772 -0.004519345 0.003043893 -0.018384883 -0.010154202 -0.0142345475 0.007267328
-0.019739805 -0.024547111 -0.00062752503 -0.008388066 0.019966686 0.020009642 -0.0064306348 -0.0013215599
0.0323815 0.03802898 -0.019511173 0.019224115 -0.0020070048 0.0062294053 -0.011609907 0.019427434
0.0022525543 0.025364239 0.00584621 -0.003869955 0.025626473 0.0017202096 -0.0015931592 0.007300504
0.009074786 -0.014475414 -0.014794377 -0.0030486183 -0.021884767 0.0019449185 -0.012308296 -0.0039021792
0.0018797833 0.005374852 -0.008422048 0.0033853797 -0.025660858 0.003208314 -0.01173491 0.007242303
-0.021605955 -0.024633387 0.015162385 -0.008304718 -0.022589244 -0.019478926 0.0012066272 0.018600373
0.016967209 0.0036470296 0.019096259 -0.0037288954 -0.03409624 0.019144848 -0.038525734 0.008155535
-0.00015636043 -0.017795729 -0.026620477 -0.01168743 -0.005481497 0.0011860644 0.018103845 7.1417155e-05
0.0027213774 0.010637415 0.015204323 0.0075380136 -0.011379858 -0.016905384 -0.0001267857 0.0012892282
0.012020323 -0.010821719 0.0204572 -0.024888482 0.008916264 0.008700592 0.01062861 0.00059581455
0.02299304 -0.026051307 0.027051961 -0.039650705 -0.013622539 0.020785633 -0.010626809 0.0051517077
-0.010962613 -0.00971783 0.0046753604 0.01950886 0.027234888 0.0095770545 -0.016950563 0.013004532
0.026604416 0.0074432306 -0.007896838 0.0027100344 -0.003900385 -0.014374068 0.02590486 0.009420167
0.026521888 0.013209337 0.012513148 0.014630265 0.0074912915 -0.011251385 -0.012769343 -0.0293748
0.029796619 -0.030533481 0.0052027176 -0.0004879203 -0.0253113 0.0326143 -0.0022450422 -0.010465459
-0.008476651 -0.014429351 0.015147184 0.0075778766 -0.0046118377 -0.015586944 0.022391282 -0.01934806
-0.004210987 0.011211858 -0.0050607393 0.029011484 -0.0060916627 0.0072804396 -0.01876307 0.009748865
-0.00040837334 0.0071263243 -0.025712967 0.035371657 -0.03883241 0.0043447497 -0.0069691464 -0.031321578
0.021842143 -0.0025994463 0.0011133304 -0.017870685 -0.013034738 0.040879782 -0.027378034 0.03228073
0.0020033258 0.023634814 -0.0005175935 0.004830221 -0.002202426 0.019300193 -0.026901793 0.01598452
0.0008465906 -0.0015263002 -0.02047212 -0.024758799 -0.0011089707 0.009624658 0.04217816 -0.023884065
-0.02560383 0.005140343 0.040301077 0.004004961 0.033919282 0.007882078 0.006787501 -0.0077912556
0.005408616 0.009897125 -0.0070688697 0.009751242 0.0033985304 0.026567152 -0.012134852 0.021436056
-0.02163587 -0.021927148 0.032892436 -0.021528378 -0.0007083519 0.019835211 0.009064825 0.0015525712
0.018997094 -0.001625078 -0.0035831544 -0.008672473 0.033572704 0.0040586973 -0.0028582106 -0.01496074

action_model._discrete_distribution.branches.2.bias f4 [3]
00000000: 8228 323d 225c 14bc 714e 29bd
0.043495663 -0.009055169 -0.041334573

action_model._discrete_distribution.branches.2.weight f4 [3, 256]
00000000: 36e0 463c 6ff9 5e3c 4f47 2b3c 5881 273d
00000010: d377 f33c 6feb 973b 8a4f 0c3a 57b5 6bbd
00000020: 8cb8 25bc 88db c03c 3fc9 6d3c 3859 64bb
00000030: eb96 7dbc 189e 01bd 4aab 213d 6ea3 33bc
00000040: 2f97 a53b 6b12 213c 2d4a 363a 2c78 613c
00000050: a8ec 2f3c 51fc 3c3c c148 5b3d 3726 36bc
00000060: 3d50 f73b ba18 91bc a965 bf3c 0fac 5e3c
00000070: 4dda 5c3c 2c55 ab38 664c 493d e527 06bd
00000080: a600 333b a296 8cbb 861c dc3b bfed c53c
00000090: 1584 a5ba 9665 8ebb fdfb 5abc 9443 a9bc
000000a0: 0b5e cc3b b9c5 3dba 4f7c f0bb af00 023c
000000b0: 3d09 03b8 43f0 dc3c a7ac ddbc b6ea 503c
000000c0: b810 19bb b468 9b3d e2a8 1e3c bff5 fe3b
000000d0: 9722 8b3c 5f5f 0d3b 575f ce3c cff1 ccba
000000e0: e382 823b e34a 983c c8f3 f5bb 17e7 d6bb
000000f0: 85f7 ca3b 883b 723c b3b7 80bc 9abc 643c
00000100: 7906 2a3c 3399 6cba 0135 533c 9d3c 0e3c
00000110: 41a6 39bd 0794 b53c 67f2 e63b 9a7e a23c
00000120: 0a21 dfbc 602b a63c f128 d93b 893f 4fbb
00000130: 7a10 dd3c b46d 7cbc ebe2 0bbd 58b4 373a
00000140: 8da4 a23c d07d 03bd d3a3 053c b0c4 89bc
00000150: b9d4 54bc 8dd1 1b3d 7150 c53c e7d6 1e3c
00000160: 34ff 193d c4f8 0f3d 6f29 6dbc 8b9f 9d3c
00000170: 8cc3 093b 5168 953c a07e 6a3c ddeb d9bc
00000180: 746b a83b 1793 343a f66f aabc 6e2d c43b
00000190: 7c33 3cbd 0f46 433c e292 3e3d 6785 c9bc
000001a0: 973f 15bc fd9e cb3c 1835 7fbb 91e2 ce3c
000001b0: 206c adbb aa24 3b3c 363f 83bd 5a78 503c
000001c0: fb7c bc3c 4d8f 99b9 9dec 7a3c 2067 033d
000001d0: 98e5 073c 969b 8c3c 5df7 1d3c b577 e03c
000001e0: 1314 143d 9675 f5bb c66d 483c 6e86 c2bb
000001f0: 6714 193d 08a9 353c 5016 a73c 3e39 273c
00000200: 7c7a 1b3c f366 983c 7136 7e3c 86ac 1d3b
00000210: 4fe7 e83c 4a59 053a 7992 c93b 926b b23c
00000220: 3357 3a3d 5173 953c d46c 9abc 604f 1fbd
00000230: 73b9 393c 96cc 1bbc 998b a23c ab90 053d
00000240: 3d45 8fbc 69cf d03c 0ea3 283d d7d0 37bc
00000250: f703 fe3c 1b60 9fbb 21ad 003d ddab 833c
00000260: bc2e 15bd 67bb cdbb cae2 453c ed6b 8d3c
00000270: fd5f 973b 3888 933c 5ce9 a2bc ef79 62bc
00000280: df3d 4d3b 24f9 6bbc 9d69 9f3b 3fc5 b03b
00000290: 0f28 db3c 81d3 5d3c 8e3d 8ebc 10ca b6bc
000002a0: 7e4e 313d afa8 0cbd 879d 753c 4cb4 8e3c
000002b0: d156 643b 41d1 49bc afe8 38bb 7ada 1e3d
000002c0: 8eaf efbc 0016 94bb da9f 4ebb a937 d03a
000002d0: 5d07 973c dde9 d43c ad7a d7bc 8aa1 ba3a
000002e0: 7f8c 1ebc 1721 01bb 5bc3 453d 2f3a 6fbb
000002f0: 605b f83c 9495 b23c e425 84bd be28 b73c
00000300: 869e 0d3d e033 86bc b12b 81bc b317 fb3c
00000310: 9704 213d 398a a3bc 1ba3 413d 9bce abbc
00000320: 6d56 163d 3eaf c73c e6bc 8a39 d019 213b
00000330: b705 1d3c 8f90 b33b b8f8 25bc e90d dfbc
00000340: fb9c 1a3d 683b e03c 9d31 d3bb 03dd 043d
00000350: 106a 293c 3be4 ef38 9836 c23b f3e3 933c
00000360: d83b 313d 2f32 f63b 4a25 033c a590 8abc
00000370: f696 383c 3b0a 0d3b ee71 a63b 0485 053d
00000380: 9600 3dbd 146e a9bc b070 353d 5271 a13b
00000390: 9ad5 483d e115 c63c d3eb 0c3d 351f c33c
000003a0: b659 f73c dd78 b13c 88bf dc3c 473f c4bb
000003b0: 6f9c fd3c e511 15bc e518 e03c 690c e2bb
000003c0: 33d7 7c3b b39b 1abc 200b 0b3c 1726 2cbd
000003d0: 6a1d b4bb 2df8 543c c45e cf3c 8785 a93c
000003e0: c601 983b b938 893c 1778 47bd ce1b b239
000003f0: 1ac7 8d3c 0f8e 20bc 5d4e 033c 18a3 283b
0.012138417 0.013609274 0.010454013 0.040894836 0.029720223 0.00463622 0.00053524284 -0.057545986
-0.0101148 0.02354218 0.014513313 -0.0034843218 -0.015477876 -0.03164491 0.039469995 -0.010964258
0.005053423 0.009831051 0.0006953802 0.013761561 0.010737576 0.011534766 0.05353618 -0.01111751
0.007547407 -0.017711986 0.023363905 0.013590827 0.013479781 8.16978e-05 0.049145125 -0.03275289
0.002731362 -0.004290418 0.0067172674 0.024161218 -0.0012627864 -0.004345606 -0.013365743 -0.020662107
0.0062367967 -0.0007239241 -0.0073390375 0.007934733 -3.1241438e-05 0.026970034 -0.027059866 0.012751272
-0.0023355912 0.0758833 0.0096838195 0.00778076 0.016984267 0.0021571738 0.025191946 -0.001563603
0.003982888 0.018590396 -0.0075058676 -0.00655831 0.0061940574 0.014784701 -0.015712595 0.013960982
0.01037752 -0.0009025514 0.012891055 0.0086814435 -0.045324568 0.022165312 0.0070479396 0.019835759
-0.027237434 0.020284355 0.006627195 -0.0031623563 0.026985396 -0.015407015 -0.034151953 0.00070077693
0.019853855 -0.032102406 0.0081567345 -0.01681742 -0.01299017 0.03804164 0.024086209 0.009694791
0.037596896 0.03514935 -0.014475211 0.019241115 0.0021021096 0.018238219 0.014312416 -0.026601726
0.0051397625 0.0006888373 -0.02080534 0.005986861 -0.045947537 0.011918559 0.046526797 -0.024599744
-0.009109399 0.024856085 -0.0038941558 0.02525452 -0.0052924305 0.011422316 -0.06408541 0.012724007
0.023008814 -0.00029289201 0.015315202 0.03208077 0.0082944855 0.017164033 0.0096414955 0.02740083
0.036151957 -0.007490824 0.012233203 -0.0059364354 0.037372973 0.0110876635 0.020396382 0.010206519
0.009489652 0.018603778 0.0155159095 0.002405913 0.028430609 0.00050868525 0.006151494 0.02177981
0.045493316 0.018243464 -0.018850721 -0.038894057 0.011335718 -0.009509226 0.019841956 0.03260867
-0.01748907 0.025489526 0.041171126 -0.011219225 0.03100775 -0.0048637516 0.03141511 0.016073162
-0.036421522 -0.0062784436 0.0120779965 0.017263377 0.004619597 0.01800929 -0.019886665 -0.013823017
0.0031317396 -0.0144026615 0.004864885 0.0053946073 0.0267525 0.013539196 -0.017363336 -0.022313148
0.043287747 -0.034340557 0.014991171 0.017419957 0.0034841786 -0.012317956 -0.0028214862 0.038782574
-0.029258516 -0.004519224 -0.0031528384 0.0015885729 0.018436128 0.025990421 -0.026303614 0.0014238816
-0.009677052 -0.001970356 0.04828201 -0.0036503186 0.030317008 0.02179984 -0.064525396 0.022358295
0.034575008 -0.016382158 -0.015767904 0.03065095 0.039311018 -0.01996337 0.04727469 -0.02097254
0.036703516 0.024375554 0.0002646215 0.0024582036 0.009583882 0.005479879 -0.0101301 -0.027228313
0.037747364 0.027372077 -0.0064451233 0.032437336 0.010340229 0.00011438919 0.0059269182 0.01805303
0.043269962 0.0075133066 0.008004496 -0.016914675 0.011266461 0.002152099 0.0050794994 0.032597557
-0.046143137 -0.020682372 0.04429692 0.004926839 0.04903183 0.024180355 0.034404587 0.023818592
0.030194145 0.021664077 0.026946798 -0.0059889886 0.030958382 -0.009098505 0.02735562 -0.006898452
0.0038580417 -0.009436536 0.008486539 -0.042028513 -0.0054966705 0.012998623 0.025313742 0.020693554
0.0046388833 0.01675068 -0.04869851 0.00033971522 0.017306853 -0.009799494 0.008014289 0.0025731977

action_model._discrete_distribution.branches.3.bias f4 [2]
00000000: 2e7d 53bc 3a7d 533c
-0.012908263 0.012908274

action_model._discrete_distribution.branches.3.weight f4 [2, 256]
00000000: a106 fab9 f953 dd3b 6b7a 773c f206 603c
00000010: 5ca5 a1bc 2a4c 7b3b c14f f73a ad0c 25bc
00000020: 49b2 c93c 99dc 59bb ea96 163a 1b03 fb3c
00000030: c263 d13c 6a58 d63b 0766 763c 3289 363c
00000040: c9cc 1ebb e185 86b9 3a35 81bc 4fbe 87bc
00000050: 2b58 2bbd 177e 5fbb 7627 2c3b 384a fdbc
00000060: 83ee 2abc b232 923b 6a66 91bb e62c 8b3a
00000070: f247 8abc 77ac 96bc 0748 fbbb 771f 6bbd
00000080: 386a 86bc d335 c639 9474 acbc 25e3 01bb
00000090: 876c ab3a bc97 f73c 1c24 b5bb 59c3 8c3c
000000a0: 1abf f5ba 0aff bebc f62e b8bc 9061 833b
000000b0: 3aa6 4abc 3a7e 883a 2553 c73b fb05 563c
000000c0: 0cd5 693c 1088 5ebb 791e 05bd 2889 55bb
000000d0: f2b2 2cbc 68ea d93c 53a5 d2bb 7b81 ab3b
000000e0: 1b50 f33c fefa 0f3b c666 56bc f888 e73b
000000f0: 6d30 2fbd 2ffd 8cbc bbb4 aa3c d607 bf3c
00000100: 6245 8abc cdc0 0fbd 0b1b d63a b7b0 a63b
00000110: 4a48 64ba 1757 eebc d210 fb3c 9b4b 7abc
00000120: 8b6a 323c 7e91 b5bc 5fed 133c d4af 01bc
00000130: ef78 acbc 4962 183c d1b0 61ba 7d7e 3abc
00000140: f250 abbc cc91 e03c b62e 28bc 8994 373c
00000150: fae9 4d3c 2092 47bb 078b 67bb 4255 773b
00000160: 421a 3fbc 7076 63ba b87a 833c 6de5 293c
00000170: b600 973b c53c 213c b950 e63b 3512 513c
00000180: 76ce e3bc 575a 29bc 7611 12bd 8d5b 8abc
00000190: a17a 51bc c6a5 fe3b 3abf 9fbb 70b8 17bc
000001a0: 1693 963c 3234 123c 9282 f1bb 4093 b93b
000001b0: 50b4 69bc 618a afbc e607 493b fb4d 23bd
000001c0: 5b5c 15bc d8b9 15bd 8feb e2bb 8560 273c
000001d0: ed9b 2c3c ace4 023c fb2f c63b cffa 92bc
000001e0: 8598 533c 63bf aebc 8f4c 233c 5889 50bc
000001f0: c43d 1dbc 8aed 0dbc 56cf b1bb b5dd 41bc
00000200: da66 b7bb 0943 3aba c1a3 d93a f4a4 b73c
00000210: 7d46 723b 1d9f da3c 6ad4 66bb 840f c8bb
00000220: a123 f1bc 7bf2 043c bf8e c2bc b5c1 433b
00000230: 5c30 da3b eb44 b3b9 89b1 d53a 1b04 ccbc
00000240: d479 993b f9d2 393b a560 5f3c 8a3c 48bc
00000250: f66f 6b3c 78cd 9c3b 716d c53b 2ba7 b73c
00000260: 8624 843c c268 dfbb cbd5 ab3b d2a9 123c
00000270: 8901 3f3c efdd 06bc d835 79bb 897a 5cbb
00000280: ff39 dbbb 6f25 20bd c573 863c 670d 9abc
00000290: fca7 56bc a90c a13c c1f8 48bb 1359 113d
000002a0: b08f c33a b3d5 d63b d67e 543c 9f12 62bc
000002b0: 34ce 35bc b434 c0bc 69fa 1ebc a570 a6bc
000002c0: f298 8c39 feaf 21bd a13c bebc c554 b63b
000002d0: 0456 7cbc 0800 10bc b805 a73b 4a4e 25ba
000002e0: 2ab2 463c a6dc 1fbc 8d72 7a3c aaf3 64bd
000002f0: 003d 253c f798 813c dd96 873b 7d8e 863b
00000300: 01e9 1fbc 9100 94bc 6312 35b9 5c5a 86bb
00000310: 4866 fa3b 3f67 1abc 9842 7f3b 0a77 283d
00000320: 793c 48bc f07a 42bc ee62 8a3b 2f9c 083c
00000330: d173 54bb 7798 2dbd d03d c03c 32bf 89bc
00000340: da32 463c a287 61bc 58ac 08bc 2a2a c1bb
00000350: 190a 79bc 0c5f a8bc b5fc c33c cc9d 173b
00000360: 21ed cb3c e4ce e9bc 56f5 97bb 62b5 4a3c
00000370: 7b05 82ba ae39 503c 93a3 04bd e725 973c
00000380: 46e3 89bb 3969 53bc 7b5d 913c 973b 233c
00000390: 3cca 83bc 209c 0cbb aacf 39bc 4692 f83c
000003a0: 50fa 3dbd db19 063c 8912 55bc 8dd1 cfbc
000003b0: b745 19bc 59b3 39bd d3c1 aebc 7161 12bc
000003c0: 656c 06bb f6aa 68bc c4de 47bd 7f48 baba
000003d0: 6219 213c 821c e339 b0a5 183c 2612 813c
000003e0: 58bf aa3c 74d6 17bb bbc3 aa3b 2240 c0bb
000003f0: c272 433c 1ae9 da3b ec99 23bc 6b42 63bd
-0.00047688655 0.006754395 0.01510487 0.013673531 -0.01973217 0.0038344958 0.0018868373 -0.010073823
0.024621146 -0.0033243059 0.0005744534 0.03064113 0.025560264 0.0065413015 0.015038974 0.011141108
-0.0024230948 -0.0002565822 -0.01577245 -0.016570238 -0.04183213 -0.0034102255 0.0026268638 -0.03091918
-0.010432842 0.0044616098 -0.0044372575 0.0010618239 -0.01688001 -0.018392785 -0.0076684984 -0.057403054
-0.01640807 0.00037805605 -0.021051683 -0.0019819227 0.0013078608 0.03022372 -0.005527986 0.017182993
-0.0018748969 -0.023314971 -0.02248333 0.004009433 -0.012368733 0.0010413595 0.0060829096 0.013062949
0.014271986 -0.0033955611 -0.032499764 -0.0032582972 -0.010540711 0.026601031 -0.0064283996 0.005233941
0.029701283 0.0021969671 -0.013086027 0.0070658885 -0.04277079 -0.017210571 0.020838132 0.023319166
-0.016878787 -0.03509598 0.0016334964 0.005086984 -0.00087082817 -0.029094262 0.030647669 -0.015276815
0.01088966 -0.022164103 0.009028762 -0.007915456 -0.02105376 0.009300777 -0.00086094165 -0.011382696
-0.020912621 0.027413271 -0.010265043 0.011204847 0.012567991 -0.0030452088 -0.003533067 0.0037740027
-0.011663975 -0.00086770114 0.016049728 0.010369641 0.004608239 0.009841149 0.007028666 0.012760689
-0.02780841 -0.01033648 -0.035661183 -0.016889358 -0.012785585 0.0077712266 -0.004875091 -0.009260282
0.018380683 0.008923577 -0.0073703015 0.0056633055 -0.014264181 -0.021428289 0.0030674874 -0.03986929
-0.009116258 -0.036554188 -0.0069250534 0.010215883 0.0105352225 0.00798909 0.0060482 -0.01794186
0.012914781 -0.021331495 0.009966983 -0.012728058 -0.009597246 -0.008662591 -0.0054263277 -0.011832644
-0.0055969777 -0.0007105326 0.0016604589 0.022417523 0.0036968284 0.0266872 -0.0035221823 -0.006105365
-0.029435934 0.0081144525 -0.023749707 0.0029870097 0.006658597 -0.00034192888 0.001630352 -0.024904301
0.0046837125 0.002835451 0.013633882 -0.012221465 0.014369955 0.004785236 0.0060250093 0.02241858
0.016130697 -0.006817908 0.005243992 0.008951621 0.011658081 -0.008231624 -0.0038026478 -0.0033642373
-0.0066902633 -0.0390982 0.016412625 -0.018805219 -0.013101574 0.019659357 -0.0030665847 0.03548534
0.0014920142 0.0065562367 0.012969693 -0.013798385 -0.011096526 -0.02346263 -0.009703257 -0.020317385
0.00026816834 -0.03947448 -0.02322227 0.0055643045 -0.015401367 -0.00878907 0.0050971173 -0.00063059165
0.012127439 -0.0097571965 0.0152861 -0.05589644 0.010085344 0.01582001 0.0041378574 0.0041063414
-0.009760142 -0.018066676 -0.00017268355 -0.004100127 0.0076415874 -0.00942403 0.0038949605 0.04112915
-0.012221449 -0.011870131 0.004223219 0.008338018 -0.0032417665 -0.04238173 0.023466974 -0.016814802
0.012097085 -0.013765248 -0.008341871 -0.005894919 -0.015200161 -0.020553134 0.023924211 0.0023134826
0.024893345 -0.028541036 -0.0046374006 0.012372347 -0.0009919846 0.012709064 -0.03238256 0.01845069
-0.0042080013 -0.012903505 0.01774477 0.009962938 -0.016087644 -0.0021455362 -0.011341015 0.030343186
-0.046381295 0.008184875 -0.013004907 -0.025368476 -0.009355 -0.045337055 -0.021332657 -0.008934365
-0.0020511386 -0.0142009165 -0.04879643 -0.0014212279 0.009832712 0.00043318054 0.009316847 0.015755724
0.020843193 -0.0023168596 0.005211321 -0.00586702 0.011929216 0.00668062 -0.009985428 -0.055483263

discrete_action_output_shape f4 [1, 4]
00000000: 0000 4040 0000 4040 0000 4040 0000 0040
3.0 3.0 3.0 2.0

network_body._body_endoder.seq_layers.0.bias f4 [256]
00000000: e980 103c 2b42 a13c 5f4b f83b 9f62 0aba
00000010: a7c9 fb3c 9d91 61bc 0952 8fbb 1d89 02bc
00000020: 596e 83bb 70b2 ca3a 3ed1 433d 1e7b c13c
00000030: 0b8b 153d 9765 853d 9e7f ef3c 0dd6 793d
00000040: 94e7 9b3d 5234 303d e457 ca3c 6a13 fa3c
00000050: 66e4 5d3d 81c0 2b3d b682 143d 597f 343d
00000060: aee4 823d 0239 21b9 8bc5 583d fcde 363d
00000070: bf66 af3d dce3 073d 4d63 d93c 2212 20bc
00000080: 50a9 553d dc2e 043d 69ed 0f3d c72e 8f3d
00000090: 4b0a c73c 78b4 973b 5c68 1b3d 565e 723d
000000a0: d846 1b3d 1a43 323c 6765 083c 7ee6 aa3c
000000b0: c766 b13c 69b8 923c 13b5 7e3d 6d40 5b3d
000000c0: 9ac9 633d 80ce 983c 6a5f 6d3d e02a f13c
000000d0: 4ec1 003d 7fc3 f73c d144 a23d bcdc 9ebb
000000e0: 6f67 a33c 82f0 0d3d e626 063c bc75 b03c
000000f0: b208 c13c c747 4d3d 8a01 273d 5fc4 133d
00000100: 629d 973d 85eb 083d 17a1 d23d 6590 4dbc
00000110: 7272 733c cdf8 173d f832 e63c d77f 923b
00000120: 8372 163d b3cd 233c c338 5ab9 2425 cc3c
00000130: 2a8f 9eb9 d3b9 6a3d 8e82 033d ecec b13c
00000140: 6ef8 82bb b6ab c5bc 1091 323d 7423 51bb
00000150: a14c 473d 3d8b 023e b1fc 3ebc 5b68 2d3c
00000160: 84b9 993c 52d5 46b9 8e86 513d 7676 153d
00000170: 53e8 8a3d ed7a 3e3d bf09 de3c 9903 b0ba
00000180: 0c83 3e3d bb1f 743d b22b b0bc 870c 873d
00000190: 79b2 e83c fdf4 a03c 4d45 99bc 6a7c 553d
000001a0: 0acb 503d 1374 233d 1e15 923d 228d e23c
000001b0: ddcf 9439 9ebb ce3c b857 de3c a13f 6d3d
000001c0: 6462 333d db88 383d 7d3b 213d b2f8 013c
000001d0: 1d8e bb3c ccb2 213d ab53 6d3c 5a10 f73c
000001e0: b414 313d 1ea2 a33d 089c 6c3c 2158 8dba
000001f0: 50c4 6d3c 8745 0e3d af0a 623d 36ec 243c
00000200: 52b2 863d 7de0 503d c22f 9fba 5c87 543d
00000210: 9ee8 1d3b 0d85 5b3c 183b 2c3d b9ce 833d
00000220: e622 963c 0ef3 c33c 249d a03c 4cde 7a3d
00000230: f0c5 413d a705 483d 6ca2 a0bc 201a eb3c
00000240: ce0d 1b3d cba8 973d ab6f b83d 304f 8e3d
00000250: 5eb5 663d d899 903d 7087 c23c cfc5 893c
00000260: e030 ce3c a775 423d 415f 143d 2c53 bf3c
00000270: 7ee8 7a3d d8f3 b73c 4699 023d d60a 3dbb
00000280: 7e02 333d ed49 003d 53b2 c13d 198b 81bc
00000290: 7d8c 553c 9b25 743d fd1e cf3c d9cc e63c
000002a0: e2df 0b3d 57e4 a73a 60f6 9a3d 0c37 bb3d
000002b0: cd36 033c c936 953c 5798 b63c 45b1 0bba
000002c0: 4149 f7ba 137c 04bc 9336 f53c 6c5f 043d
000002d0: 17b1 533d 9786 173d 1f15 383d a888 1f3d
000002e0: 1341 d83c 80ac 813c f9f2 80bc 7ec2 743d
000002f0: 1e70 8f3d 3f5e abbb 1c83 e6bc a787 733d
00000300: cbd4 5f3c f602 623c 9cba d83c 42fb 183d
00000310: f9e7 9b3c 69d8 413d 5669 fcbb f2ca 453d
00000320: 32da 113d 64cd 213d b39d 403b a10d 643a
00000330: a45a 213d d7f3 19bc 52f1 2f3d 3a76 833d
00000340: cb62 5b3d 3558 f93c 12a4 5b3d fba3 183c
00000350: 5b63 043d 94a2 043d 202e de3c 475c 053d
00000360: 9eb1 b9b6 1265 413d 1b9f 153d a404 533d
00000370: 5c59 383d 1c01 c33c 4c64 fe3b a495 963d
00000380: 4a66 60b9 cb95 8bbc 581e 19bb d238 963b
00000390: f638 b13c 19de d13c 389d aa3c 5a5a 523d
000003a0: 60a9 8e3c 06bd 913d 33c3 b33c bcaf 553c
000003b0: d95c 663b 2e2d cb3c d88e 6f3d 137b 8d3d
000003c0: 8994 093d 0499 d03a 7889 033d f8db e63b
000003d0: 167c 903d 2d33 5cbc fd05 513d 565e 633d
000003e0: 4e3a 3b3c c9f5 ab3c d31c b73c 512b 573c
000003f0: f384 a33c ee28 79bc d7f0 9bbc 6856 b63a
0.008819797 0.019684872 0.0075773443 -0.0005278978 0.030735804 -0.013767627 -0.004373793 -0.007967261
-0.004010957 0.0015464555 0.04780697 0.023618277 0.036509555 0.06513517 0.029235657 0.06099515
0.076125294 0.043018647 0.024700113 0.030526835 0.054172896 0.041931633 0.03625747 0.04406676
0.063912734 -0.00015375394 0.052922767 0.04464625 0.08564519 0.033176288 0.026536608 -0.009769948
0.052163422 0.03227125 0.03513852 0.06991344 0.0242969 0.004629668 0.03794132 0.059171997
0.03790936 0.010880256 0.008324957 0.02086186 0.021655453 0.0179102 0.062184405 0.053528238
0.055612184 0.018653154 0.057952322 0.02943939 0.03143435 0.030244587 0.07923282 -0.004848091
0.019946782 0.034653194 0.008187985 0.021540515 0.023563717 0.05011728 0.040772952 0.036075946
0.07403065 0.033427734 0.10284632 -0.012546633 0.014858829 0.03710251 0.028100476 0.004470806
0.0367303 0.009997773 -0.00020811245 0.024920054 -0.00030242774 0.057306122 0.03210693 0.021719418
-0.0039969003 -0.02412973 0.043595374 -0.0031912 0.048657063 0.12748428 -0.011656926 0.010583962
0.018765219 -0.0001896222 0.051153712 0.036489926 0.067825936 0.04650395 0.027104257 -0.0013428807
0.046511695 0.059600573 -0.02150521 0.06594186 0.028405415 0.01964807 -0.018709803 0.052120604
0.050974883 0.03990562 0.07132934 0.027655188 0.0002838363 0.025235947 0.027141437 0.05792201
0.043795004 0.04505239 0.039363373 0.007932829 0.022894913 0.039477155 0.01448528 0.030159164
0.043232635 0.07989906 0.014441498 -0.0010783711 0.014512137 0.034734275 0.05518597 0.010066083
0.06576981 0.05099534 -0.001214497 0.0518869 0.002409495 0.013398421 0.042048544 0.064359136
0.018327188 0.023919608 0.01960618 0.061247155 0.04730791 0.048833515 -0.019608699 0.02869898
0.037854962 0.074052416 0.09005674 0.069486976 0.05632531 0.07060593 0.023746222 0.016817955
0.02516979 0.047475483 0.036223654 0.02335509 0.061256878 0.022455141 0.031884454 -0.002884557
0.04370355 0.0313205 0.09457841 -0.015813397 0.013033983 0.059606176 0.025283331 0.02817385
0.03414906 0.001280914 0.075665236 0.09141359 0.008008671 0.0182146 0.022289438 -0.00053288444
-0.0018866436 -0.008086222 0.02993325 0.032317564 0.051682558 0.03699359 0.044942018 0.038948685
0.026398217 0.015829325 -0.015740858 0.059755795 0.070038065 -0.005229741 -0.02813869 0.05945554
0.013661574 0.013794651 0.02645617 0.037348993 0.019031512 0.047325525 -0.0077029867 0.048289247
0.035608478 0.039502516 0.002939087 0.00086995406 0.039393082 -0.009396515 0.04295475 0.06419034
0.053561013 0.030437568 0.053623267 0.00931644 0.032321315 0.03238161 0.027121603 0.032558706
-5.534107e-06 0.04721553 0.036528688 0.051518098 0.045007095 0.02380424 0.007763421 0.073527604
-0.0002140041 -0.0170392 -0.0023364034 0.00458441 0.021633606 0.0256186 0.02082692 0.051355697
0.017414749 0.071161315 0.021943664 0.013042387 0.0035150556 0.024801817 0.058485836 0.0690824
0.03358892 0.0015914743 0.032113522 0.0070452653 0.070549175 -0.013439936 0.0510311 0.055509888
0.011427475 0.020991223 0.022352612 0.013132886 0.019960856 -0.015207512 -0.01903574 0.0013911249

network_body._body_endoder.seq_layers.0.weight f4 [256, 11]
00000000: 3dcc e2be 1e4f 0f3e 1eef 20bf d7b4 7e3d
00000010: d600 80bd 21d7 cc3e 63d5 48be ea44 0d3f
00000020: 2e47 72bd 13f4 f9bd 7f41 36bf 6763 2a3f
00000030: a949 173f a728 55be 26fe 4e3e ea9c 463e
00000040: 7a15 2d3f 0520 083f ad19 7b3e 1e86 80be
00000050: c311 343e bd67 d4bd a773 ba3e 8667 f7bc
00000060: 06da 7ebe 39e5 debd 9918 d33e d0ca a3be
00000070: 00f8 803a b8c4 eebe 2fd6 2c3e 4b81 233e
00000080: 9031 7ebe f15d 043f dd0a 8abe 1a04 53be
00000090: ee13 813d 2f15 dbb9 62b6 f13e 2cb7 8a3d
000000a0: 48b2 aa3e d5af 4c3e a538 81bc 38e5 053e
000000b0: 3493 acbe 7c0c 563e 7fb1 c1be 3026 283d
000000c0: fe5b e43e 54b1 04bf be65 6abe 7177 f0bd
000000d0: 9894 1cbe c52f 09be ae28 913e 1e6a 34be
000000e0: 1ddf 0c3e 60c9 f1bc 6d26 84be ab9f f7bb
000000f0: d3fe 32bf 663c 02bf 9fc3 82be 8393 09bf
00000100: 13b3 6f3e 05c3 4a3e e776 9cbd ea27 18be
00000110: 7331 40be 71fb 5bbe e982 86bd 0094 5f3d
00000120: e556 2bbf 9846 103f 0238 7e3d 8ec2 023e
00000130: acc4 a13e cfc6 6b3e 0a73 bd3e 3eb9 bfbd
00000140: ff8d 07bf bfaf 1c3e fc2e 2a3d 35d3 6fbd
00000150: 411d 39be 531c 443f e04c 6f3d 237a 373e
00000160: 512f 1a3f e0b4 d53e 2dca 62be e668 413e
00000170: 6a33 bdbe 7022 eb3e bf6e d2bd 206f afbe
00000180: c169 2e3f 09d5 a03d 7801 c8bc b7a4 97be
00000190: de1d 703d 5e3c cebe c49a 13be 1323 8abe
000001a0: b10d 823e 4d72 073f 06ee ac3e a62e 1abe
000001b0: c2a0 403f e7e2 06bd 4013 ddbe 013f 9b3d
000001c0: b21d 8b3e 2532 71be 1650 7fbc 0d8f 8d3e
000001d0: b449 c9bc 1be6 c0be 849f 0b3f c8a1 8f3e
000001e0: a1c5 18be ae22 333f d7b7 713d bd70 203d
000001f0: 88e3 24bf 2ebc b8bd 1cfd c4be 2871 cabd
00000200: d0f8 2abe 8fe9 aa3e d13d 84be 6bc8 dc3e
00000210: edc9 2d3d 2ece 56bf 1f35 163e e73e dabe
00000220: 9d95 8cbe 5df9 8f3e 913a 253e 14ea 2fbe
00000230: 2b3d 0a3f 07b6 eebd 2cb3 49be 1e2f 533e
00000240: 5ec2 b8bd 6447 0a3f 6142 4c3e a83d eabe
00000250: 1154 3d3e e6f0 633e 435d da3d 5f87 f9bd
00000260: 1296 a33e d5d7 e83d 0de9 f7be e83d 7dbd
00000270: a7e6 863e 566a dfbc 11c2 16bf 85c9 d33e
00000280: 507a b2bc 826c e93e 7ccc 5e3e aed8 fb3e
00000290: 62d7 033f 6fbe e43c 04dc 54be 0df4 f63e
000002a0: 320d c63e 38d4 ed3d fae9 debe 945d ee3e
000002b0: b17c 95be 67e9 56bf 8d53 d13d 3e7c f9bc
000002c0: 084f 36bf 8879 143f 1112 c23c c502 a13e
000002d0: 56bf d8bd 8415 52bd 93ca ab3d b9c0 a63d
000002e0: 72bc f53d 9353 bd3e 3225 4ebe a40b 8bbe
000002f0: 8c65 5c3d 5fe0 0bbe 5c8d 8a3e 1ce9 8c3e
00000300: 42d1 9f3e 856b 0fbe 20e4 8ebe f020 623e
00000310: c6af 5ebb 232d 2bbe b12c 4a3e 2cc1 3b3f
00000320: 910f b5be c654 28bf f422 39bf e0c5 0abc
00000330: 47e7 65bd 09ad 983d 53d6 abbd d171 133d
00000340: 4786 fc3e 3e84 7bbe 1549 cb3e 1452 69bd
00000350: b6d0 313e 00bb 073f efcf adbd b57c 63be
00000360: 08be 123d b039 6d3e 200b 373d c018 7c3d
00000370: 8163 0abf 8459 f5bd 6229 04bf fedf d23e
00000380: 936b 023f 220c febc 199c 683c f2db 55be
00000390: 0ac3 823d 0dbc 003c fc71 c2bd e9bc cabe
000003a0: 5a2c 80be af13 953e 7e25 043e 7975 8e3e
000003b0: c44a 84be a8df 953e d165 96be 20c4 883e
000003c0: 281a 8ebd dba3 283e feda 493f 13b1 173f
000003d0: 0581 1cbf 00b1 663e 2ce4 8e3e 0d73 d0be
000003e0: 8e75 89be bc07 173f 1ec0 11bd fcd2 66be
000003f0: 2adf bcbd 8422 a03c a16b 0ebe 58e2 debe
-0.44296446 0.13995025 -0.62864864 0.06218418 -0.062501594 0.4000788 -0.1961265 0.5518328
-0.059149913 -0.122047566 -0.7119369 0.66557926 0.5909677 -0.20816289 0.20214137 0.19395795
0.67610896 0.5317386 0.24521513 -0.25102323 0.175849 -0.10371349 0.3641636 -0.030200731
-0.24887857 -0.108835645 0.41229704 -0.3199067 0.0009839535 -0.4663446 0.1687858 0.1596729
-0.24823594 0.51705843 -0.26961413 -0.20607033 0.063026294 -0.00041786718 0.4720946 0.067732185
0.33339143 0.1998895 -0.01577408 0.13075721 -0.33706057 0.209032 -0.3783073 0.041052043
0.44601434 -0.5183308 -0.22890374 -0.11741532 -0.15291059 -0.13397129 0.2835135 -0.17618605
0.13756986 -0.029514968 -0.25810567 -0.0075568757 -0.6992008 -0.5087341 -0.25539872 -0.5374071
0.23408155 0.19800957 -0.07639866 -0.14858976 -0.18768863 -0.21482636 -0.06567938 0.054584503
-0.66929466 0.5635772 0.062065132 0.12769529 0.3159536 0.23025058 0.3700183 -0.09361504
-0.52951044 0.15301417 0.041548714 -0.058551032 -0.18077566 0.7660572 0.058422923 0.17917685
0.6022845 0.4173956 -0.22147436 0.18887672 -0.36953288 0.4592471 -0.102750294 -0.3426447
0.6813012 0.07853133 -0.024414763 -0.29617855 0.058622234 -0.40280432 -0.14414507 -0.26979885
0.2540107 0.52908784 0.33775347 -0.15056857 0.75245297 -0.032931235 -0.4317875 0.075803764
0.27171093 -0.23554285 -0.015583059 0.27648202 -0.024571277 -0.37675557 0.54540277 0.28053117
-0.1491914 0.6997479 0.059013214 0.039170016 -0.64409685 -0.090202674 -0.38474357 -0.09884864
-0.16696477 0.33381316 -0.25828412 0.43121657 0.0424289 -0.83908355 0.14668702 -0.42626116
-0.27457896 0.28119937 0.16135623 -0.17179137 0.53999585 -0.11655813 -0.19697255 0.20623443
-0.090214476 0.54015183 0.19947197 -0.45750165 0.184891 0.22259864 0.106623195 -0.12184023
0.31950432 0.11369292 -0.4841999 -0.061826617 0.2634785 -0.027272385 -0.5888987 0.41364685
-0.021786839 0.45590597 0.21757692 0.4918875 0.51500523 0.027922837 -0.20787054 0.4823307
0.38681942 0.11612743 -0.43537885 0.4655577 -0.29196694 -0.83949894 0.10221014 -0.030454751
-0.7121434 0.5799794 0.023690255 0.31447425 -0.105833694 -0.05129005 0.08388247 0.08142228
0.11998834 0.36977825 -0.20131376 -0.2715732 0.05380778 -0.1365981 0.27060974 0.27521598
0.3121434 -0.14005859 -0.2790842 0.22082877 -0.003397928 -0.16716437 0.19743611 0.7334163
-0.3536344 -0.65754354 -0.7231896 -0.008470029 -0.056128766 0.07454879 -0.083904885 0.035997216
0.49321195 -0.24562165 0.39704195 -0.05696304 0.17364773 0.53019714 -0.08486926 -0.2221554
0.03582576 0.23166537 0.044688344 0.06154704 -0.5405808 -0.119799644 -0.51625645 0.41186517
0.50945395 -0.031011645 0.014197373 -0.20884684 0.06384857 0.007857335 -0.09494397 -0.39597252
-0.25033838 0.2911658 0.12904927 0.27824 -0.25838292 0.292722 -0.29374555 0.26712132
-0.06938583 0.16468756 0.7884978 0.5925457 -0.6113437 0.22528458 0.27908456 -0.40712777
-0.268475 0.58996177 -0.035583608 -0.22541422 -0.09222253 0.019547708 -0.13908245 -0.43532062

network_body._body_endoder.seq_layers.2.bias f4 [256]
00000000: 2ff4 273b 5dc4 dc3a 03ef 183a abd4 e73c
00000010: 347b ee3b caec ac3b 17ab 1fbb 8c17 0bbd
00000020: 2c2e e43b e0cd 16bc 2575 8c3b 9d6b 56bc
00000030: 7095 703c 2edd d9bb 1e21 8e3d 6105 163c
00000040: b1b4 033b 3cf6 67bc 4c0b 63bc 3857 503d
00000050: 8007 043c 50a5 4e3c c758 193d d799 3c3d
00000060: 301f d13b b8e6 953c 7e8a b53b 806e c93c
00000070: 832b 96b8 a3db 9f3b bbfc 383d e456 cf3b
00000080: d2b6 773c c452 a33c 5382 b93c c453 69bb
00000090: f803 21bb d8dd 7cbc 7e01 17bd 75f4 41bc
000000a0: eae5 26bc 9505 043d 686a d03c 965d f5bc
000000b0: 8bc6 4a3c 973e ed3c 24da 09bc 393e a73c
000000c0: 5494 ddbc de53 e03c 4264 c83c 047c da3c
000000d0: 9218 20bc 15b9 cc3b 20d6 8f3c aa02 89bc
000000e0: d6d1 9e3b 60fb 7f3b 6979 03bb 5e3f 73bc
000000f0: 6181 303c 43ef 273c b447 8b3c 7b7c f8bb
00000100: e21d 093d 7a70 1b3d ddea debb 4f52 ae3c
00000110: 2eb5 bdbc 2987 b23c 8d32 a2bc 6f26 363d
00000120: 0045 85bb b00e c33c d16f 9fbc 366e c43b
00000130: 4508 0c3d 38ed b3bb 5257 f03c 7d13 03bb
00000140: a5ae 1d3c 7c04 53bd 1828 8d3c baeb fbbc
00000150: b4d7 26bd 9683 dd38 6400 643c 7aeb 8a3c
00000160: 30db a53c b043 423d 84d0 c3bb 60ec 00bb
00000170: ad3b a1ba 5773 05b9 f008 efbb bd57 48bd
00000180: bf7f 493d 7cdd ddbc 399a 8d3c bed4 943c
00000190: d53b 76bc 31e3 19bc adcd 223d 805a 36bb
000001a0: 94f2 afbc cb36 7c3d 3df8 493a ebdd 293d
000001b0: 77d4 b9bb 2483 ba3c 5a35 16bd 6a37 c53c
000001c0: f934 cc3b b69d 313d f82d 19bc 1874 99bc
000001d0: 215c bd39 6ea4 e0ba 9dbb 263c 7141 983c
000001e0: 81e3 9e3c 14ba 883c 3953 aaba b8d2 233c
000001f0: 4a15 ce3c 8d9c d63c 9344 063d 79f7 d73c
00000200: c226 d03c 6303 223d 7812 1c39 8c13 423c
00000210: 18e0 773b 348b a0bc 4ad5 9f3b ddb2 0a3d
00000220: e8cf a13c 8b64 43b9 fa2c bb3b f1dd c5bc
00000230: b091 ac3c e267 383c 6faa 83bc 8410 a23b
00000240: dce7 a13c 5a55 223d bb94 9b3a 16cd 383a
00000250: a906 043c a2e4 e0bc 8326 4c3c 67c1 0a3c
00000260: 88d7 3ebb d609 593c 7160 6f3d db92 a53c
00000270: e62c de3b e1a0 443d 395d 633b c2df f33c
00000280: 912e 9f3b 8093 0b3c 913e 7d3c 47d9 bebb
00000290: 2c7d 13bb f820 4abc 97b0 efbb 617c 57bc
000002a0: b27c 7f3d 7428 d4bc fece d13c 0360 c33c
000002b0: 8ab3 80bc d96f 033c efd1 613c 03c7 b93c
000002c0: 8e4c 1c3d 2635 9d3c 7e36 df3a bc8d 9cbc
000002d0: f0f0 1c3c 644d f03a b361 8dbc 570d 0c3b
000002e0: cf0b a0bc 515b 483c 6173 873d a640 603c
000002f0: 95e6 e73c b8cf e93c e90a b0bc 5cde 733c
00000300: e3cf 583b 0e3e 65bb 1860 94bc 76f3 df3b
00000310: ccb6 073d 3349 f13c 0c63 2a3d b794 f3ba
00000320: 446f 2c3d 8dd6 8a3b 7651 993b 0a50 edbc
00000330: 15ba bd3b 051d 073d 7819 1dbc 2fca 99bb
00000340: e30d 8d3c 71e4 e33b b281 8e3c 84df 323b
00000350: ab78 b93b a725 f6bb 5b02 1e3c 4d9e e03b
00000360: 7551 1e3d 3e2b 33bc 798a d33c 7b40 3bbc
00000370: 6a4f 89bc de9e a83c 39b2 3c3d 618f 74bb
00000380: 7dba 1bbd 5554 de3b 0733 533c 48a0 813b
00000390: 74f5 4d3d 737a aeba 6fd7 953d 1540 893b
000003a0: 7a88 8f3c a8c2 43bc 44d6 083d 06dd b83c
000003b0: 4fe7 ad3c 7f7c 1d3d ffce a1bb 50e2 263c
000003c0: ec03 a0bc 09e0 e23b 28b8 663c 7dbb 1f3a
000003d0: 95d3 153c de12 c63c d147 c53c 27e7 e7bc
000003e0: 8d18 033a be47 173d c8a8 1ebd 2324 403d
000003f0: 744c 713c f78e 3abc e0e5 2bbc 792c dc3c
0.0025627722 0.0016843189 0.00058339554 0.02829965 0.0072778706 0.005277251 -0.0024363452 -0.033958003
0.006963512 -0.009204358 0.0042864257 -0.01308718 0.014684066 -0.006648681 0.0693991 0.009156556
0.0020096714 -0.014157828 -0.013857674 0.05086443 0.008058429 0.012612656 0.03743818 0.04604515
0.0063818917 0.018298492 0.005540191 0.024588823 -7.160662e-05 0.0048784777 0.045162898 0.006327497
0.015119271 0.019936927 0.022645151 -0.0035602907 -0.0024569016 -0.015433751 -0.036866657 -0.011838068
-0.010186652 0.032231886 0.025441363 -0.029951852 0.012376438 0.02896051 -0.008413825 0.020415412
-0.027048267 0.027383741 0.02446187 0.026670463 -0.009771483 0.0062476494 0.017558157 -0.016724903
0.0048467917 0.0039059743 -0.002006138 -0.014846651 0.010773034 0.0102499155 0.017001964 -0.0075831986
0.033475764 0.037949063 -0.0068029 0.021279482 -0.023157682 0.021792965 -0.019799495 0.044470247
-0.0040670633 0.023810714 -0.019462498 0.0059945835 0.034187574 -0.005490925 0.029338513 -0.002000063
0.009624158 -0.05151795 0.017231032 -0.030752052 -0.040733054 0.00010562611 0.013916109 0.016957987
0.020246118 0.047427833 -0.0059757847 -0.001967214 -0.001230111 -0.00012726836 -0.0072947666 -0.0489118
0.049194094 -0.027083151 0.017285453 0.01816785 -0.0150289135 -0.009392546 0.03974693 -0.0027824938
-0.021477975 0.061575692 0.0007704532 0.041471403 -0.0056710797 0.02276761 -0.036671974 0.024074275
0.006231901 0.043363295 -0.009349339 -0.018732116 0.0003611753 -0.0017138848 0.010176566 0.018585892
0.019395592 0.016690291 -0.0012994773 0.00999897 0.025156636 0.026197696 0.03278024 0.026363121
0.025409106 0.03955401 0.000148842 0.011845481 0.003782278 -0.019597627 0.004877721 0.033861984
0.019752458 -0.00018634104 0.0057121487 -0.024153681 0.021065563 0.011255236 -0.01607248 0.0049458165
0.01976388 0.03963218 0.0011869887 0.0007049603 0.0080582285 -0.02745277 0.012460354 0.008468962
-0.0029120166 0.013246974 0.058441583 0.020211628 0.0067802547 0.04800499 0.0034693016 0.029769782
0.004857846 0.008519053 0.0154568115 -0.0058242413 -0.0022505028 -0.012336962 -0.0073147523 -0.013152213
0.062374778 -0.025898196 0.025611397 0.023849493 -0.01571061 0.008022272 0.013782962 0.022677904
0.038158946 0.019190382 0.001702979 -0.019110553 0.009578928 0.0018333611 -0.0172585 0.0021370256
-0.01953688 0.012228803 0.06613804 0.013687288 0.028308192 0.02854143 -0.021489577 0.014884558
0.0033082895 -0.0034979614 -0.018112227 0.0068344427 0.033133313 0.02945385 0.041598365 -0.0018583749
0.0420983 0.004237002 0.0046789004 -0.02896883 0.005790005 0.03298666 -0.009588592 -0.0046932916
0.017218536 0.0069547226 0.017395828 0.002729387 0.0056601367 -0.0075118127 0.009644116 0.0068548084
0.038651902 -0.010935603 0.025822865 -0.011428948 -0.0167615 0.020583566 0.046068404 -0.0037316906
-0.038019646 0.0067849555 0.012890584 0.0039558746 0.05028291 -0.0013311639 0.07316481 0.0041885474
0.017521132 -0.011948265 0.033407465 0.02256633 0.02122846 0.038448807 -0.004938006 0.010185793
-0.01953312 0.0069236797 0.014081992 0.00060933066 0.009144683 0.024178918 0.024082096 -0.028308464
0.0005000912 0.036933653 -0.03873518 0.046909463 0.0147277005 -0.011386625 -0.010491818 0.026876675
