results/VB_1/Volleyball/Volleyball-2251430.onnx (onnx, 291913 bytes, 15 tensors)

97 f4 [11]
00000000: 7bf6 9d3e 3c45 9a3e cac7 b83e 51d5 193f
00000010: ef76 c240 f50f 2e40 94eb 3d41 a70e 1940
00000020: c060 0141 1c8e 8d40 fbdd 4d40
0.30852112 0.30130947 0.36089927 0.6009112 6.0770183 2.719724 11.870014 2.3915193
8.086121 4.4235973 3.2166736

action_model._discrete_distribution.branches.0.bias f4 [3]
00000000: 783d 993b 7ba3 4e3c 2d0e 91bc
0.004676517 0.012612219 -0.017706955

action_model._discrete_distribution.branches.0.weight f4 [3, 256]
00000000: e0a4 89bb acbb 05bb 9b50 c33c 99c5 753c
00000010: 833f 14bb 4003 83bc 9190 6d3c 59bb 30bc
00000020: 6a31 073c 7b07 bd3b 0283 8dbb 3ce2 efbc
00000030: d628 bdbb dc14 c5bc e5b1 8dbc fee0 d8bc
00000040: 684c 23bc 9efe 703c 4694 aebc 7568 6abc
00000050: f7e6 6a3c 26f8 163c 3d44 cb3b cf9e ce3a
00000060: d5a0 293b 8902 243b eaf8 84ba a7ab c93a
00000070: 30d8 8dbc b7a2 de3b 7ada 50bc df86 a03b
00000080: 4835 c7bb 7b31 073d 8d59 15bc 1f97 24bb
00000090: 6191 b43c 0dbc 103d f94d 833c d5e1 c33b
000000a0: de6f 603b e43b 08bc ba75 f13c 54fa 483c
000000b0: 5be5 413d a202 78bc 7b7e e8bb af2b a83c
000000c0: 6d8f 8d3b 8de0 3bbc a8f7 023d 965c 9f3c
000000d0: e68a c0bb 0591 c93c d361 21bc d883 d7bb
000000e0: 9bd8 d33b 9dc4 99bb 6f67 4abc d6c0 91bb
000000f0: 902c 8abc 7e95 2d3b 8e71 4bba bb68 fc3b
00000100: b263 bfbc 3a55 5fba 49d1 4dbc 34a0 893b
00000110: 228a 313c 5f75 ffbc 6005 2abc 56bb ef38
00000120: 681b fcbc 32f3 3f3c cbb5 8abc c8da 103d
00000130: a586 54bc a297 9a3c 9aa6 ed3c adeb 583c
00000140: f664 27b9 95a1 033c d55c 203c 173c ffbb
00000150: a5f5 17bc 63f0 56bc 73f3 56bc a493 8c3a
00000160: 4708 15bc c3fe 59bb ecb2 dfb9 e5bc b5bb
00000170: de5e 6e3c 7961 85ba 3eef 06bc 8b8a fa3a
00000180: 71ec a5bb b276 3c3c 0081 333d e732 d2bb
00000190: 7d64 cd3b 9f94 343c 4366 55bc 6558 013d
000001a0: b387 9ebb 0794 c13b 6b9f 6cbb 4b71 713c
000001b0: e99d 3b3c 372c 7ebc df26 983c 623a 59bc
000001c0: 7ef5 dcba 4666 893c 6c0f e33c 5301 0f3b
000001d0: a329 e8ba cd0e ad3c bc0f 8e3b 5888 6f3c
000001e0: 2a3c 523b a9ef cfba 154a bebc 21fe bb3c
000001f0: c650 d5bc d9b1 0fbc 5f50 13bd bc07 e5bc
00000200: dd7e dcbb e14d 833c 2a5a 203c c4e5 dd3c
00000210: 7d4c 32bc 6869 0f3c 65f9 963b 4704 dabc
00000220: 120b a739 84af 023c 0a72 2e3a 4854 ffbb
00000230: 39d5 eebb ebdc f83a 53ce 38bc be49 09bc
00000240: c62d 553c 968e 043d 5db5 523c 0b57 85bb
00000250: d0a7 c0bc 4bcf 28bc 2fa3 6cbc bd4a 2c3c
00000260: b144 be3b 1e57 1ebc c612 e03a e471 8cba
00000270: 1b38 fdbb 0702 10bc 79dc 0c3d b599 b63c
00000280: a30c ebbc 327b abbc 45a0 8ebb 5c02 f6bb
00000290: 72de 75bc 7cb1 febc 13bc 5abb 27e9 9cbc
000002a0: 4e01 10bd 1c01 333c 243b e3bb 19d8 7cbc
000002b0: b52d eebc ba59 1f3d 7673 eebb a269 bebb
000002c0: f564 033c 6063 c4bb 0c92 033c 416e 093c
000002d0: 71b5 5ebc 32fd 653b 88d9 443d 3e87 9f3c
000002e0: be74 1f3c 8ada 753c 45f7 cfbc 16f8 a6bb
000002f0: a49a 86bc 4c6a 7b3c f9ab 1c3d 202a 62bb
00000300: deff 7cbc d40f ad3c 5048 213c a3bc 05bc
00000310: 9c34 a13c 15b5 903c 0ca9 44bc c08c 563c
00000320: b190 2ebb e320 9c3b 38ed dbba 628c c53b
00000330: 001d 9bbc 0b94 51bc 86be 3c3d 7e91 5dbb
00000340: 8d24 95bc 53c1 78bc ac53 453b 571e b6bb
00000350: bb64 6c3c a014 ea3b 205a bb3c 4ffe fd38
00000360: d8af 26bc 67ac 9cbc ae48 5a3c 4935 4cbc
00000370: b9b9 653b 21df 07bd 8254 e13a 43ce 45bb
00000380: 6924 64bb 5010 cc3c 0026 5f3c 4f3e 853b
00000390: a16d 01bd e4a4 a13c f08d 8939 4a96 0f3c
000003a0: c9da dbb9 3beb 01bc 970d 7abc b38d 18ba
000003b0: fc24 7dbc 96a9 9ebb 5e86 a53b a8f9 d43b
000003c0: 7eaf f93b 728b aa3b 7481 1b3c f5c1 67ba
000003d0: 889c 0c3c 7f31 a13c a2d0 86bc 127c e6bc
000003e0: ea8b 87bc 8670 873c 179b 76bc 2126 e83c
000003f0: bb15 67bc d329 fe39 f825 e5bb 89b4 d139
-0.004200563 -0.002040605 0.023842147 0.015000724 -0.0022620864 -0.01599276 0.014499799 -0.010786855
0.008251527 0.005768714 -0.004318596 -0.029282682 -0.0057726903 -0.024057798 -0.01729674 -0.026474472
-0.009966947 0.014709143 -0.021310937 -0.014307131 0.014337293 0.009214437 0.006203203 0.0015763881
0.0025883217 0.0025025925 -0.0010144983 0.0015386239 -0.017315 0.0067942995 -0.012747401 0.0048988904
-0.0060793497 0.033006173 -0.009115589 -0.002511449 0.022041978 0.03533559 0.016028391 0.005977849
0.0034246366 -0.00831506 0.029475082 0.012266714 0.04733787 -0.015137346 -0.007095156 0.020528642
0.004320076 -0.011467111 0.031974465 0.019453328 -0.005875933 0.024605284 -0.009849983 -0.0065769963
0.0064650304 -0.0046926276 -0.012353762 -0.0044480367 -0.016866952 0.002648681 -0.00077607564 0.0077029145
-0.023362968 -0.00085194746 -0.0125621045 0.004200006 0.010836156 -0.031183897 -0.010377258 0.00011431302
-0.030774787 0.011715697 -0.016932389 0.035364896 -0.012971555 0.018871132 0.029010106 0.013239783
-0.00015963972 0.00803413 0.009787758 -0.0077891457 -0.009274875 -0.013118836 -0.013119566 0.0010725153
-0.009096212 -0.0033263422 -0.00042667182 -0.0055461996 0.014548985 -0.0010176144 -0.008235751 0.0019114775
-0.0050635864 0.011502909 0.043824196 -0.0064147594 0.0062680827 0.011021762 -0.013024869 0.03157844
-0.004837954 0.005907539 -0.0036105763 0.014736484 0.011451223 -0.015513471 0.018573223 -0.013258548
-0.001685783 0.0167724 0.027717315 0.0021820858 -0.0017712604 0.021125222 0.004335372 0.014619909
0.0032079318 -0.0015864271 -0.023228684 0.022948327 -0.026039492 -0.0087704295 -0.03596532 -0.02795779
-0.0067289905 0.016028346 0.009787122 0.0270871 -0.010882494 0.008753158 0.004607367 -0.026613368
0.0003186097 0.0079764165 0.00066545664 -0.0077920295 -0.0072886017 0.0018986737 -0.01127966 -0.008379398
0.0130114015 0.032362543 0.012860623 -0.004069214 -0.02351752 -0.010303329 -0.014443203 0.010515866
0.0058065285 -0.009664325 0.0017095439 -0.0010715094 -0.0077276356 -0.008789546 0.034389947 0.02229009
-0.02869255 -0.020932768 -0.0043526017 -0.0075076055 -0.015006648 -0.03109049 -0.003337626 -0.019154144
-0.035157494 0.010925557 -0.0069345403 -0.015432381 -0.02907453 0.03890393 -0.0072769476 -0.0058109323
0.0080196755 -0.0059932917 0.008030426 0.008388103 -0.013593064 0.0035093543 0.048059016 0.019473668
0.009732423 0.015005717 -0.025386462 -0.005095492 -0.01643116 0.015345167 0.038249943 -0.0034509972
-0.015441863 0.021125712 0.009843901 -0.00816265 0.019678406 0.017664472 -0.012003195 0.013095081
-0.0026636536 0.0047646626 -0.0016779071 0.006028698 -0.018934727 -0.012791644 0.046080135 -0.0033808644
-0.018205905 -0.015182811 0.0030109687 -0.005557816 0.014428313 0.007143572 0.022870123 0.00012111349
-0.01017376 -0.019125177 0.013322992 -0.012463876 0.0035053326 -0.033171777 0.0017191323 -0.0030182756
-0.0034811741 0.024910122 0.0136199 0.0040662657 -0.03159869 0.019731946 0.00026236428 0.008763859
-0.00041933943 -0.0079296185 -0.015262029 -0.00058194547 -0.015450712 -0.0048419936 0.005051418 0.006499488
0.0076197973 0.0052046115 0.009491313 -0.00088408525 0.008582242 0.019676922 -0.016456906 -0.028135333
-0.016546208 0.016533148 -0.015051625 0.028338494 -0.014104302 0.00048477817 -0.0069930516 0.00039998096

action_model._discrete_distribution.branches.1.bias f4 [3]
00000000: b6ab 013c e77f 34bd 5fa5 093d
0.007914474 -0.04406729 0.033604976

action_model._discrete_distribution.branches.1.weight f4 [3, 256]
00000000: 76cd 7c3b f4ab 43bc 0f31 6a3b 4f40 a0bc
00000010: a5d2 1dbc ffc2 20bb 2e89 8bbc bc77 04bd
00000020: a54c 56bc e209 a53b 1df3 15bc b853 d6bb
00000030: 7194 a6bb 2a74 533c 0c02 f8bb d40e 003d
00000040: 71cc 0f3b 0bde 1a3c 09f2 88ba ee17 31bc
00000050: 50ee 263d 082b 09bd 4001 2e3c 248c 113c
00000060: 668b 85bc 8771 8e3a 8199 983c 7246 02bc
00000070: 8e86 2f3d 6b68 1e3c 5241 98ba 0991 a13c
00000080: 51c6 e5bb fcdc 9abc 22e3 b83c 71c3 f53c
00000090: 9e64 e6bc 07d2 bebb 1c4e f5bc d72b 853c
000000a0: 25b0 02bb a86f 273c bc14 cb3c 2e4d b33b
000000b0: 5461 f43c 7491 b43c 8e2f 82bb e4ab 483c
000000c0: c11d ddbb d453 643c 72e7 f7bb 5d1c 663b
000000d0: da75 d4bc 0115 eebb 56bd 79bc c568 913b
000000e0: 9c4b 98bc 1ec6 bcbc 82ba 943b 52bc ccba
000000f0: 0b2c a63c ae79 953c c9af 44bc 38df 8339
00000100: 37c7 0d3d fee1 2f3d 5565 73bc f414 a53c
00000110: b253 ca39 9906 1f3c 6a98 09bc 8567 8c3c
00000120: 18b2 ac3b d6c5 c83c 0209 0c3c 5e0f a6bb
00000130: db33 bb3c 729a d23a 6916 c1bb ce36 eb3b
00000140: 1cf7 393c 6f0b 3bbc beed 55bc 380c 733b
00000150: 35bc b4bc bdc9 ae3b 3812 f1bb d2c6 8dbb
00000160: e196 ba3b 8dbb a73b 9255 d2bb 9095 b939
00000170: 7810 f6bc 074e 983b a1b2 9ebb 9167 323c
00000180: 60d5 bdbc dadb 03bd 4c6c 853c e384 62bc
00000190: 376b 9ebc 7684 a6bc 7915 98b9 4f54 a83c
000001a0: 2b12 a83c ae1c 4b3b d9a1 a83c 24de 57bb
000001b0: 92ad 25bd f956 8b3c 1699 08bd 452c 283c
000001c0: 6813 033a eaaa bfbc 3f41 c6bc ea52 4ebc
000001d0: 7287 b7ba 5dfd 44ba 0e57 a03c c5e7 cd3a
000001e0: 6490 9f3b 7894 9b3b a3a6 313c 5421 b03b
000001f0: 35aa dfbb 0573 7abc 5c42 993a 846f 553b
00000200: 0a5f 803c 4682 cebb 402a 8a3c 8293 00bd
00000210: 99aa 2e3c f8a1 0d3c 825d 363c 1631 523a
00000220: 9ab5 943c bb4e e3bc 81b0 c73c ba93 08bd
00000230: d064 87bc b9a7 dc3c 69dc cabb 96ce b23b
00000240: 90d0 3dbc 7fbb 86bc b251 163c 4a4c 823c
00000250: 5f72 e83c c1b0 7e3c d519 82bc 5b9a 413c
00000260: 22cb c13c b02b c93b fce1 44bc 9e94 483b
00000270: a253 2fbb be90 5abc 0747 d13c e65b a03b
00000280: 2067 e13c f003 843c 6132 2a3c 9fc2 593c
00000290: 7019 283c 4bec 8fbc 51fe 3cbc 5935 c2bc
000002a0: 7719 de3c 8ee2 b9bc e577 2c3c 4254 e3ba
000002b0: 2ff4 ccbc ca7c 0b3d 938a 11bb 0897 44bc
000002c0: 498e 84bc 18a4 21bc 4071 523c 133e 133c
000002d0: fc0f 30b9 ebc7 afbc f797 003d 5f29 aebc
000002e0: abee f039 ad18 2c3b a1c8 2cbc 600e 033d
000002f0: 3381 d8bb 5103 d33b 0f4d cabb 9d6a 533c
00000300: fcb3 46ba df63 c73b 200e c7bc e18b 0f3d
00000310: ac68 23bd 906b cd3b b2df 0fbc df2a 03bd
00000320: cd4b 6f3c 0ad0 7aba 8e22 833b 24d3 06bc
00000330: dc4c 3abc b4be 1d3d 4a11 12bd ca37 153d
00000340: d03f aa3b 19c1 c03c 7fee 82ba a9d6 ce3b
00000350: 2949 94bb 9763 ac3c e5c2 01bd e39b 9e3c
00000360: f6d5 e5bb bc29 95ba 6b5c a3bc 60fa 08bd
00000370: e66c 38bb 3e36 143c 175b 183d 4ac1 edbc
00000380: 6482 a3bc 8b2b 5b3b 0978 313d 8fe9 c23b
00000390: 2876 0c3d 931f ba3b 12c2 043c d8cd 24bc
000003a0: fff0 ce3b ca9b 583c 6ac3 dfbb ed0a 1f3c
000003b0: b998 a53b 0936 c63c b2b3 38bc 4869 c43c
000003c0: e910 f3bc a044 c1bc 24b6 0e3d e777 4ebc
000003d0: dd35 39bb 8a25 523c f30f 483c 88f6 173b
000003e0: d400 c13c 43ad 9b3b f7f4 613a 7756 0bbc
000003f0: 4ce5 133d a626 b93b a6e8 fbb9 21b9 3dbc
0.0038574613 -0.011942852 0.0035734808 -0.019561915 -0.009632741 -0.002453029 -0.017033186 -0.03234075
-0.013079797 0.0050365785 -0.009152201 -0.006540742 -0.0050836136 0.012906114 -0.0075686034 0.03126414
0.0021941925 0.009452353 -0.0010448109 -0.010808928 0.040754616 -0.033488303 0.010620415 0.00888351
-0.016301822 0.0010867574 0.018627884 -0.007951366 0.04285293 0.00966845 -0.0011616147 0.019722478
-0.0070121665 -0.018904202 0.022569243 0.03000042 -0.02812415 -0.005823377 -0.029944472 0.016256256
-0.0019941416 0.010219492 0.02479016 0.005471847 0.029831566 0.022042014 -0.003972954 0.012248013
-0.0067479317 0.013936002 -0.007565432 0.003511212 -0.025935102 -0.0072656875 -0.015242895 0.0044375383
-0.01859074 -0.023043688 0.004538835 -0.0015620089 0.020284673 0.018246498 -0.012004801 0.00025152578
0.034613814 0.042940132 -0.014855702 0.020151593 0.000385908 0.009706163 -0.008398155 0.017139206
0.005270254 0.024508398 0.0085470695 -0.00506775 0.022851875 0.0016067757 -0.005892564 0.007178164
0.011350419 -0.0114163 -0.01305717 0.003708614 -0.0220624 0.0053341077 -0.007356908 -0.0043266797
0.0056942557 0.0051187933 -0.006418892 0.00035397382 -0.03003715 0.0046479735 -0.0048430716 0.01088895
-0.023173034 -0.03219209 0.016286992 -0.013825628 -0.019338233 -0.020326834 -0.00029007698 0.020548014
0.020516476 0.0030992436 0.020584987 -0.0032938803 -0.040448733 0.017009245 -0.03334912 0.010264461
0.0005000145 -0.023396928 -0.024201034 -0.01259301 -0.0014002158 -0.0007514561 0.01957276 0.0015709331
0.0048695076 0.0047479235 0.010842952 0.005375067 -0.00682571 -0.015286212 0.001169275 0.003256769
0.015670318 -0.006302151 0.01686585 -0.031390674 0.010660791 0.008644573 0.011130692 0.00080181786
0.018153 -0.027747503 0.024376156 -0.033344008 -0.016527563 0.026935445 -0.0061908257 0.005456756
-0.01158537 -0.016446827 0.009174751 0.015905518 0.028374849 0.015545071 -0.015881458 0.011816586
0.023656432 0.006139241 -0.0120167695 0.003060616 -0.002675273 -0.013340173 0.025546564 0.0048937676
0.027514994 0.016115159 0.010387988 0.01329103 0.010259971 -0.017568728 -0.011535243 -0.023707079
0.027111752 -0.022691038 0.010526632 -0.0017343836 -0.02501878 0.034054555 -0.002220784 -0.011998899
-0.016181128 -0.009865783 0.012844384 0.008986968 -0.00016790623 -0.021457633 0.031394925 -0.021259962
0.0004595419 0.0026259825 -0.0105458805 0.03199613 -0.0066071986 0.0064396043 -0.006173737 0.012903837
-0.00075799203 0.0060849036 -0.024298728 0.03504551 -0.039894745 0.006268926 -0.00878136 -0.032023307
0.014605475 -0.00095677434 0.004001922 -0.008229051 -0.011370864 0.038511947 -0.03566102 0.036430158
0.0051955953 0.023529576 -0.000998929 0.0063122106 -0.004525323 0.021043582 -0.031680007 0.019361442
-0.0070140315 -0.0011380236 -0.01994153 -0.0334419 -0.002814108 0.0090461355 0.037196245 -0.029022831
-0.019959636 0.0033442702 0.043327365 0.0059482525 0.03429237 0.0056800335 0.008102911 -0.010058843
0.00631535 0.013220737 -0.006828715 0.009707195 0.0050536063 0.024195688 -0.011273311 0.023975983
-0.02967115 -0.023592293 0.03484167 -0.012601829 -0.0028260865 0.012826333 0.012210834 0.0023187716
0.023559965 0.004750879 0.00086195715 -0.008504502 0.036107346 0.005650359 -0.00048047787 -0.011579783

action_model._discrete_distribution.branches.2.bias f4 [3]
00000000: 30d1 393d 1f29 25bc 3db5 2ebd
0.045365512 -0.010080605 -0.04265331

action_model._discrete_distribution.branches.2.weight f4 [3, 256]
00000000: 9346 453c bb2b 8b3c 4bf0 263c 57d6 3e3d
00000010: a22f 093d b389 df3a 84e3 823a 72e6 5ebd
00000020: 14b0 aebc 75bb ee3c 7448 8c3c 825c 713b
00000030: 9049 a1bc a320 07bd 1edd 363d 2ba0 97bc
00000040: 760c cb3b 806c 633c f7aa d63a 0152 2e3c
00000050: 0e04 223c b5b0 2b3c c35d 6c3d 2b0a 78bc
00000060: cfe3 293c 5420 90bc 1d72 dc3c 098e 523c
00000070: a776 a53c 96ce bebb 8dbc 533d ff87 10bd
00000080: 0788 873a 4db8 c1bb 0abf 563b 6565 053d
00000090: fc02 42ba 9dc6 9cba 1454 22bc 68c3 b4bc
000000a0: 6832 703b ebd7 94ba c072 02bc 2bdc e13b
000000b0: e969 edba cb38 ca3c bf44 02bd fc03 233c
000000c0: 2fcb 143b cb30 a53d de67 2d3c 4017 f43b
000000d0: de3f 8c3c a45c 963b 7e87 c93c 3080 763b
000000e0: e78c c03b ab31 9d3c 17da bcbb 5725 b5bb
000000f0: a55e a93b 3979 833c a35d 8abc dde1 4a3c
00000100: d17b f13b 8b02 8ebb a069 973c 932e 1b3c
00000110: 61e0 41bd f7a4 b63c 8a79 193c ca69 9f3c
00000120: f5a2 b1bc ab35 a63c 45b2 d73b 06b3 41bb
00000130: 2b94 db3c 6ca9 91bc 9c5f 1ebd ae5b bd39
00000140: 448c ac3c aa54 01bd 7283 1a3c 5f4c 8cbc
00000150: 1aa3 5ebc b6b6 243d a36a fe3c b6ac 0f3c
00000160: 4580 183d 3ac3 0f3d c1f5 98bc 9563 bd3c
00000170: afb0 9d3b ff1c a03c 9e04 933c 8acc c8bc
00000180: 163a e837 70c3 8a3a 3093 ccbc 5e86 d73b
00000190: 2636 35bd 5730 6d3c f0b5 4a3d 63a4 c5bc
000001a0: 4aa7 babb d2dc e33c 0b29 84bb 9f8e f43c
000001b0: 6e2e d4bb adc4 293c c30b 87bd ae36 353c
000001c0: 24d1 c33c 5828 d8bb a3ef 883c 9778 fb3c
000001d0: 3adf 2f3c 2a74 633c 8509 ed3b 42d5 c43c
000001e0: 042f 1a3d 91cc 1abc 26fc 7b3c 8a62 03bc
000001f0: 8556 263d 035f 4d3c 1b9e ab3c 56f1 083c
00000200: d25f 083c 6d4d 713c cfaf 7a3c c4ed 553b
00000210: c57b 093d db5d 013b 5101 703b a491 9a3c
00000220: 7e6c 4d3d 482a cb3c f531 aabc 8a0d 14bd
00000230: b7e4 2b3c 2577 06bc d95b b43c 4cd7 093d
00000240: 4bde 8fbc 0ccb c93c f491 543d d524 4bbc
00000250: 71f8 043d ed4b 12bb 9d16 093d 7cb8 793c
00000260: 364f 2bbd 3372 30bc d921 1a3c 1cc5 8b3c
00000270: cdcc e73b a4da ac3c 2b1b acbc c832 96bc
00000280: 1703 743b 355a 90bc 5ed1 8c3b eea4 b63a
00000290: 1fe9 dd3c 5fdf 8d3c e353 adbc fb14 63bc
000002a0: b944 383d 2f27 1fbd bbd5 623c 0bc3 813c
000002b0: 3b1d a53b 71dc 59bc 3057 b0bb 2ec9 1f3d
000002c0: 1bdf 0cbd 45be 18bc da07 9cbb b758 c13b
000002d0: 2b4b 9f3c a999 c63c 6ac6 9abc 0303 1b3b
000002e0: 679c 2abc 5b16 96bb 798d 523d 51db cbbb
000002f0: 2837 063d 59a9 ac3c cec5 84bd 9abd 9f3c
00000300: 93c5 1b3d 12fa 92bc 646b 80bc 136f 123d
00000310: 85b2 223d 8ce9 b7bc ed2d 503d 1a20 bebc
00000320: 7f35 103d 9bd2 e83c a77d 653b 19fa 543b
00000330: 4762 063c 5e9a 9c3b fdf2 67bc 3c7f 09bd
00000340: 5884 2b3d ca51 b53c 1464 d9bb 6a6e 063d
00000350: 3796 263c 062c a9b9 2589 fb3b 3955 a13c
00000360: abf1 373d 2268 043c 4ba7 ac3b 874d 88bc
00000370: 7798 643c c314 343b a8c2 8c3b e525 213d
00000380: d5f9 32bd e7e4 b0bc 8a3e 5b3d f177 9eba
00000390: 7aae 423d eaa4 cf3c 280c 133d b130 b73c
000003a0: 3286 fe3c 8a32 b03c e6a5 dc3c a81e 52bc
000003b0: 8de4 e53c e5e6 24bc c555 0b3d 16dc 21bc
000003c0: 0591 043c bac4 76bc 2eaf b43b 3e45 22bd
000003d0: 82b1 11bb 78fe 1d3c 5f8c d93c 61ff e73c
000003e0: 21c6 9c3b b7a5 8b3c 381f 65bd 7f95 173b
000003f0: c41b 693c 077b 8abb a820 0b3c aa32 06ba
0.012040752 0.016988626 0.010189126 0.04659113 0.03349269 0.0017054587 0.0009986018 -0.05441899
-0.021324195 0.02914212 0.017124392 0.003682882 -0.019688398 -0.03299011 0.044644468 -0.018508991
0.006196554 0.013880849 0.0016377856 0.010639668 0.009888662 0.010479142 0.057706606 -0.015139143
0.010369255 -0.01759354 0.026909882 0.012851247 0.02019818 -0.005822967 0.051693488 -0.035285946
0.0010340222 -0.005911863 0.0032767677 0.0325674 -0.00074009574 -0.0011961047 -0.009907741 -0.022065833
0.0036651138 -0.0011355852 -0.007961929 0.006892701 -0.0018113229 0.024685284 -0.031803843 0.00994968
0.0022704115 0.08065947 0.010583846 0.0074490607 0.017120298 0.0045886803 0.02460074 0.0037613027
0.005876172 0.019188723 -0.005763303 -0.005528133 0.005168753 0.016049014 -0.016890353 0.012382952
0.0073694964 -0.0043337992 0.018482983 0.009471553 -0.047333125 0.022295458 0.009367356 0.019459624
-0.02168415 0.020289263 0.0065825307 -0.002955617 0.02680405 -0.017780982 -0.0386654 0.00036117196
0.021062978 -0.031574883 0.009430753 -0.01712626 -0.013588691 0.04021331 0.031056708 0.008769205
0.037231702 0.035098292 -0.018671872 0.023118773 0.004812322 0.019545076 0.017946538 -0.024511594
2.7683604e-05 0.0010586809 -0.024972528 0.006577297 -0.044241093 0.014476857 0.049489915 -0.024126237
-0.005696212 0.027815256 -0.004033213 0.029853163 -0.0064752614 0.010361833 -0.0659404 0.0110604
0.023903437 -0.006596606 0.01671583 0.03069715 0.010734374 0.013882676 0.007233801 0.02402747
0.037642494 -0.0094481865 0.015379941 -0.008019099 0.040609855 0.01253486 0.020949414 0.00835832
0.008323627 0.014727932 0.015300705 0.003264294 0.0335653 0.001973978 0.0036621878 0.018868275
0.050152294 0.024800435 -0.020775774 -0.036145724 0.010491542 -0.008207117 0.022016453 0.03365259
-0.017562052 0.024632953 0.051897004 -0.012398918 0.032463495 -0.0022323087 0.03346883 0.015241738
-0.04182359 -0.010769415 0.009407484 0.017061763 0.0070739747 0.02110035 -0.021009048 -0.018334761
0.0037233287 -0.017621139 0.0042974195 0.0013934651 0.0270887 0.017318426 -0.021158164 -0.013859983
0.044987414 -0.038855728 0.013844903 0.015840074 0.005038885 -0.013297186 -0.0053814873 0.03901022
-0.034392457 -0.009322708 -0.004761678 0.005900468 0.019445023 0.024243193 -0.01889344 0.0023652918
-0.010413266 -0.0045803017 0.05140445 -0.006221213 0.032767445 0.021076845 -0.06483041 0.019499589
0.03803022 -0.017941508 -0.015676208 0.03575046 0.03972103 -0.022450231 0.05082505 -0.023208667
0.035207268 0.028420737 0.0035017522 0.0032497703 0.008202142 0.004779144 -0.014157054 -0.033568606
0.04187426 0.022133727 -0.0066342447 0.032820143 0.01016765 -0.00032266992 0.007676261 0.019693958
0.044908207 0.008081468 0.0052689663 -0.01663853 0.013952366 0.0027478195 0.004295666 0.03934278
-0.04369529 -0.021593524 0.05352644 -0.0012090189 0.047529675 0.025347192 0.035900265 0.022362085
0.031069849 0.021508474 0.026934575 -0.012824692 0.028063083 -0.010064815 0.034017343 -0.009879133
0.008091216 -0.015061552 0.005514047 -0.039616816 -0.0022231047 0.00964319 0.026556192 0.028320016
0.004784361 0.017046792 -0.055937976 0.0023129878 0.014227811 -0.004226092 0.008491673 -0.0005119244

action_model._discrete_distribution.branches.3.bias f4 [2]
00000000: c887 97bc cc87 973c
-0.018497363 0.01849737

action_model._discrete_distribution.branches.3.weight f4 [2, 256]
00000000: e6c2 b03a 4e79 073c 0c51 5a3c 7f9a 5e3c
00000010: 2f75 97bc 593e 433b 7a8f c5ba 538a 89bc
00000020: f64e fc3c f2e3 3dba 2848 183b 2620 143d
00000030: de40 d83c 6c63 1d3c 8fca a63c 0515 903c
00000040: 016c deba 4f97 cfbb 7ebc 8abc 1910 a4bc
00000050: eb4f 36bd 080c 98bb f93d 2f3a 15b0 ffbc
00000060: 4b93 4bbc c5c9 2a3a 6d19 b4bb cbb9 ae3b
00000070: 5358 41bc 0a97 97bc 7f63 84bb f9c8 85bd
00000080: 2097 93bc 734d f53a 1902 99bc 36f3 8f3b
00000090: 4bcb 2339 6685 eb3c 4c85 a2bb 31c1 323c
000000a0: 6781 83bb 869e bfbc bcd1 d4bc c41a db3b
000000b0: 0ce3 4abc 296d ab3a 3dbd a63b 8bb8 5d3c
000000c0: 7f1e a83c 6c05 f13a 2d2c 13bd 03db 92ba
000000d0: 7aca 6abc 7500 cf3c 84d3 9dbb 0343 dd3b
000000e0: f53f e83c 01ea cf3b d69b 67bc 73a4 1b3c
000000f0: f308 36bd 12d6 aabc d4e9 ac3c 2b25 d33c
00000100: 8522 83bc 8f66 02bd 1d4c b238 2273 c53b
00000110: 7594 29ba 8da2 d5bc cff1 0a3d e6d7 42bc
00000120: 04de e93a f7c9 afbc 8500 373c e1ae 24bc
00000130: 11b0 ccbc 75a7 1a3c 5be5 28bb 0d52 7ebc
00000140: e39a adbc 609f f83c 6192 1dbc 75ca 3d3c
00000150: 23af 333c 6741 95bb 23b9 27bc 592f 0b3b
00000160: 80d4 20bc 1b22 01bb b458 853c 4d89 9f3c
00000170: acc2 0db9 8e15 353c 0ecf cf3b 084f 963c
00000180: 3ff1 d7bc b198 0cbc 74fc 0ebd 520f 8ebc
00000190: 4fdb 99bc da94 0d3c c3da a3bb 8281 e4bb
000001a0: 0269 853c b7a2 453c d778 d6bb 5dce 273c
000001b0: 87f9 90bc 2fe7 bcbc c938 ad3a ef4e 27bd
000001c0: 8553 26bc 3a47 17bd 2522 4bbc 728f 053c
000001d0: 8655 4b3c 2630 ee3b ac02 053c 3b8c 87bc
000001e0: 6342 8b3c 3b31 b8bc d91c 323c 7869 5dbc
000001f0: 9362 f3bb c3a9 17bc 5f16 98bb c033 35bc
00000200: 9414 7ebb 207a f03b 7712 d0ba a1ec bf3c
00000210: 8dff 723b 7645 dd3c c030 a5bb f43d cbbb
00000220: 94be f8bc 2a73 113c c149 f2bc fe7a 2a3b
00000230: 0d8b 1d3c 1b29 81bb efca 33bb b3d1 dabc
00000240: 7f16 a13b fe68 e23b 8a35 763c c850 95bc
00000250: b582 ab3c c039 1f3c 5dc9 a33b abb1 9d3c
00000260: 3684 183c 3348 25bc dcb0 973b 88a3 533c
00000270: 6fd0 ba3c 5229 27bb 4983 b7bb bc06 fabb
00000280: a367 abbb ebb3 26bd f0bb aa3c 4aca 8dbc
00000290: 4e22 3fbc 99e7 7b3c 8327 ffba 63ac 113d
000002a0: eff2 ce3b 89ff a03b daf5 803c 3d3c 63bc
000002b0: ab78 48bc 3b20 ccbc a823 5fbc a929 91bc
000002c0: 1e38 c2ba 048a 30bd 8c93 f8bc 45ec a33b
000002d0: fe28 69bc c555 d6bb 0f34 87ba 0946 18bb
000002e0: 5448 ca3b 6e92 52bc 130f a43c d2dd 4bbd
000002f0: 5a0d 743c fea5 a23c 654f 833a e518 c43b
00000300: ca28 10bc b773 68bc 7408 14ba 0552 e2bb
00000310: a36d f33b ef6a b3bb 37df 293c 1320 1c3d
00000320: aa1a 53bc 829e 56bc ef35 e03b 8426 df3b
00000330: fac7 91bb c41c 35bd efec d23c 97dc 52bc
00000340: 73c3 8a3c b7bd 3dbc 689f dcbb 7d59 c8bb
00000350: 0d66 94bc a817 a5bc 7180 d73c 64c1 483b
00000360: 982f ed3c 4420 08bd d2ba c5bb a152 b13b
00000370: 5f11 8cbb 1605 e23b 45c3 17bd c4ae 523c
00000380: 7737 55bb 0f22 47bc c1a0 c23c 8584 2c3c
00000390: d3dc 76bc 5a5a 91bb 095c 40bc 723a 163d
000003a0: 108d 36bd df3e 0d3c b840 73bc 96f9 e6bc
000003b0: a293 00bc 3f92 47bd 4cf8 a1bc 1be5 ddbb
000003c0: ff45 03bc 0633 a2bc 07d9 3cbd 46df d4bb
000003d0: f932 6b3c 61e4 30bb b48f 663c 16d5 983c
000003e0: de8f b43c 5990 8bbb 924c 283c 0534 96bb
000003f0: 889d 993c ec56 553c 5d76 32bc 48dd 77bd
0.0013485819 0.008268667 0.013324987 0.013586639 -0.018488495 0.00297918 -0.0015072667 -0.016789591
0.03079937 -0.00072437443 0.0023236368 0.03616347 0.026398119 0.009606224 0.02036026 0.017588148
-0.0016969444 -0.006335176 -0.016935583 -0.020027207 -0.04450981 -0.004640106 0.0006684955 -0.031211892
-0.012425254 0.00065150514 -0.005496195 0.005332207 -0.011800843 -0.018504638 -0.004040181 -0.06532473
-0.018016398 0.0018715098 -0.018677758 0.0043930067 0.00015620624 0.028750133 -0.004959738 0.010910318
-0.0040132287 -0.02339102 -0.025978915 0.0066865403 -0.012383234 0.0013078797 0.005088477 0.013532768
0.020522354 0.0018388457 -0.0359308 -0.0011204187 -0.014330501 0.025268773 -0.0048164744 0.006752373
0.02835081 0.006345034 -0.014136275 0.009499657 -0.04444213 -0.02085403 0.021107592 0.025774559
-0.016007671 -0.03183609 8.5018786e-05 0.006025688 -0.000646896 -0.026078487 0.033922013 -0.0118922945
0.0017842655 -0.021458609 0.011169557 -0.01005146 -0.024986299 0.009439339 -0.0025771472 -0.015522492
-0.02119202 0.030349433 -0.009617419 0.011583914 0.010967049 -0.0045549157 -0.010237011 0.0021237938
-0.009816289 -0.0019704166 0.016277649 0.01947465 -0.00013519329 0.011052502 0.0063418215 0.018348232
-0.026360152 -0.008581326 -0.034908727 -0.01734129 -0.018781332 0.008641446 -0.0050004437 -0.0069734463
0.016285423 0.01206272 -0.006545167 0.010242072 -0.017697109 -0.023059456 0.0013215776 -0.04084676
-0.010151749 -0.03693316 -0.012398277 0.008151876 0.012410527 0.0072689233 0.008118313 -0.01654636
0.01699943 -0.022484412 0.010871136 -0.013513915 -0.0074275224 -0.009256783 -0.0046413387 -0.011059701
-0.003876959 0.007338777 -0.0015874644 0.023428263 0.003707859 0.02701066 -0.005041212 -0.0062024537
-0.030364312 0.008877555 -0.029576184 0.002601325 0.009615672 -0.0039416677 -0.002743419 -0.02671132
0.004916012 0.0069094887 0.015027413 -0.018226996 0.02093635 0.0097183585 0.0049983696 0.019249758
0.009308865 -0.010088014 0.0046292376 0.012917407 0.022804467 -0.0025506807 -0.005600367 -0.0076301973
-0.0052308603 -0.040698927 0.020841569 -0.017308373 -0.011665894 0.015375041 -0.0019466731 0.03556479
0.006315581 0.0049132747 0.015742231 -0.013869342 -0.012235801 -0.024917712 -0.013619341 -0.01772006
-0.001481775 -0.043100372 -0.030343793 0.0050025308 -0.014230965 -0.0065409862 -0.0010315197 -0.0023235104
0.006173173 -0.012852294 0.02002672 -0.04977209 0.014895761 0.019854542 0.0010018168 0.005984413
-0.008798787 -0.014187745 -0.00056470116 -0.00690675 0.007428841 -0.005475394 0.01036816 0.038116526
-0.012884775 -0.013099315 0.006842367 0.0068100113 -0.004448888 -0.044216886 0.025747744 -0.0128699755
0.0169389 -0.011580876 -0.00673287 -0.0061141835 -0.018115068 -0.020152882 0.026306363 0.0030632848
0.028953359 -0.033233896 -0.0060342336 0.0054114615 -0.0042745317 0.006897579 -0.037051458 0.01285905
-0.003253428 -0.012154116 0.023758294 0.010529642 -0.015067297 -0.0044358196 -0.011740693 0.03667683
-0.04456812 0.008620947 -0.014846973 -0.028195184 -0.007847698 -0.048723456 -0.019771717 -0.0067716963
-0.008012294 -0.01979972 -0.04610541 -0.006496343 0.014355415 -0.0026991593 0.014072347 0.018656295
0.022041257 -0.004259151 0.010272162 -0.004583838 0.018751875 0.013021212 -0.010892478 -0.060513765

discrete_action_output_shape f4 [1, 4]
00000000: 0000 4040 0000 4040 0000 4040 0000 0040
3.0 3.0 3.0 2.0

network_body._body_endoder.seq_layers.0.bias f4 [256]
00000000: 5f8d 363c 0b2e c53c d637 1a3b 1f54 b43b
00000010: 1ac0 113d be4d 9abc ea54 96bb 9f1c 81bc
00000020: 6bf9 3fba a9b9 843b 1af4 3d3d 05da bc3c
00000030: aade 293d d71a 913d a16c 0c3d 7680 863d
00000040: f40b ad3d 0d10 543d 315e c93c de1b de3c
00000050: bfac 733d f3ce 3d3d 96e8 2c3d b6a2 523d
00000060: 22f0 843d 71e1 e9ba bd88 593d ddca 403d
00000070: d277 b73d b6c5 053d f298 f33c 2759 45bc
00000080: 3ea7 5d3d 4d8b 123d ede6 303d 2045 bc3d
00000090: 316f a73c 1850 153b c6ab 313d 08f4 7f3d
000000a0: a086 1d3d 95c9 553c 40b5 193b e925 ca3c
000000b0: a73d e23c 8961 a73c 6e92 923d 89ef 6a3d
000000c0: 96e8 6d3d 7022 c93c a9b1 853d 8d15 e23c
000000d0: 058d 033d 29a5 0e3d 730e b03d 2ab5 5839
000000e0: 42cb 7b3c 59ab fc3c 2cd9 d13b 0dd4 943c
000000f0: 873f c43c 8537 473d 5b5e 313d 88c3 093d
00000100: fe9d a33d 0484 213d ad4d db3d 6f43 18bc
00000110: c531 703c 8024 273d 1c38 e43c d73f 2a3c
00000120: 1a10 1f3d f38d 163c 3b34 003b b224 b33c
00000130: d896 493b 61bc 5d3d 10cb 293d a42d e33c
00000140: c6b5 bebb 8ead bfbc 45f8 4c3d 12b6 92bb
00000150: 0f4f 723d 63cd 183e 8adc 91bb ced5 963c
00000160: 7ea4 a63c 0a40 4b3b 1f7b 3d3d 739c 303d
00000170: 5dd1 933d c515 473d d8e1 ca3c 673e f7ba
00000180: 6a42 4d3d 8422 833d a163 92bc aad8 933d
00000190: 8774 013d 0b33 063d f788 9cbc ddb3 813d
000001a0: 2513 5b3d 4ab8 1c3d 6838 a53d 5be5 0b3d
000001b0: b8c6 373b b708 f73c 965e d73c ca54 6d3d
000001c0: edd2 3e3d 05d9 733d 1aed 333d d10a 8b3b
000001d0: d6ec 873c a2c5 233d 1bb9 833c 2032 103d
000001e0: 43d5 433d 13f8 b03d 3a20 883c bc9f 30bb
000001f0: f8ed 973c 7c40 053d b690 693d 0bf3 103c
00000200: 82ae 9a3d 4d1e 513d 99a1 8eba ee43 7e3d
00000210: 2de5 803b 4649 f93b 4b64 1c3d ca14 8c3d
00000220: 217e a73c ab5a d33c 03f6 933c ebfa 8c3d
00000230: 598b 4f3d 3910 5e3d eecd 6bbc 6190 e73c
00000240: de83 2c3d 1540 943d 5b42 c33d 8f89 973d
00000250: ac73 623d a460 903d 1938 b03c b896 983c
00000260: f026 b03c 332d 593d c2f0 1c3d c350 dd3c
00000270: 16e1 813d 9cb4 9b3c 9a72 1b3d 4725 12bb
00000280: 10c7 2e3d f45b 093d 094a cc3d 29bc 8abc
00000290: 7fa3 183c 1f7f 913d bf8d dc3c 3645 e43c
000002a0: e528 013d abf1 ac3a 0e9e 9e3d 37b5 c43d
000002b0: 3253 fd3b f350 983c 309f d33c f4dd b23b
000002c0: efc9 9dbb 5fea 82bb 25e4 133d e232 1b3d
000002d0: 7c5d 583d 1210 163d 4580 403d 072e 303d
000002e0: c598 fb3c 6b27 a53c 16a9 95bc ef10 843d
000002f0: e63c 9e3d a7d7 1bbb f94c bdbc 368e 803d
00000300: 1982 7b3c b24e 4c3c 99e4 103d f3d1 0b3d
00000310: ede3 b33c 4375 493d ad87 d9bb 37c9 4d3d
00000320: 1e65 313d 28a5 303d 652f 42bb 4ee8 79b9
00000330: 75bd 283d e8de b4bb 733b 363d ec95 903d
00000340: 27c4 683d b307 0d3d 69dd 853d a2f6 033c
00000350: 18e4 1e3d ac16 1c3d e0fe ea3c 3f2c 133d
00000360: 3f34 783b 238d 763d 3a83 363d e299 5c3d
00000370: 7e62 293d 8aaf d83c 173e 403c 1c9a b53d
00000380: 3a1d 993b f341 96bc d400 d8ba cb6c fd3b
00000390: c0bd d53c 177c 0a3d 727f aa3c b2cc 633d
000003a0: f7ac 693c 69fd 953d 2487 fa3c bc5b 483c
000003b0: dc88 063c 77d5 c23c a0e7 803d 8c8b 903d
000003c0: 6968 fe3c 5179 0fbb 5a60 283d 48d5 b63a
000003d0: 8e7b 983d eb03 45bc 2b7b 603d 080d 8b3d
000003e0: cd25 f43b 3f5f bc3c 0439 e53c f993 603c
000003f0: 5d50 cd3c 4f62 87bc f386 ddbc e17b 8a3b
0.011142104 0.024069807 0.0023531816 0.005503192 0.035583593 -0.018835898 -0.0045877593 -0.015760718
-0.0007323238 0.0040504527 0.04637537 0.023053179 0.041472115 0.070851974 0.034283284 0.06567471
0.084495455 0.05177312 0.024581047 0.027112897 0.059490915 0.04633994 0.042214 0.051424704
0.06491114 -0.0017843676 0.05310892 0.047068466 0.08958401 0.032659255 0.029736016 -0.012045181
0.054114573 0.03577738 0.043188978 0.09192872 0.020438762 0.0022783335 0.043376707 0.062488586
0.038458467 0.013048549 0.002345398 0.02467628 0.027617289 0.02043225 0.071568355 0.057357345
0.05808314 0.024552554 0.065280266 0.027598167 0.03211691 0.034825478 0.08596506 0.00020666854
0.015368285 0.030843424 0.0064040627 0.01816752 0.023956073 0.048636932 0.043302875 0.03363374
0.07989119 0.03943254 0.10708175 -0.009293421 0.0146603035 0.040806293 0.027858786 0.010391197
0.038833715 0.009189117 0.0019562382 0.021868084 0.0030760076 0.05413473 0.04145342 0.027731724
-0.005820009 -0.023398187 0.050041456 -0.004477271 0.059157427 0.14922099 -0.004451339 0.018412497
0.020342108 0.0031013512 0.046259996 0.04311795 0.07217667 0.048604745 0.024765894 -0.0018863202
0.050112166 0.06403068 -0.017869772 0.0721906 0.03160527 0.032763522 -0.019108279 0.06333134
0.053485055 0.03826169 0.08067399 0.034154277 0.002804203 0.030155523 0.02629022 0.05794219
0.046587873 0.059533138 0.04392729 0.004243233 0.016592424 0.0399834 0.016079476 0.035204053
0.047810804 0.086410664 0.01661693 -0.0026950678 0.01854609 0.0325322 0.057022773 0.008847008
0.07552816 0.051054288 -0.00108819 0.0620765 0.00393357 0.007607612 0.038181584 0.06839903
0.020445885 0.02580007 0.018061643 0.06883796 0.05067 0.05421469 -0.014392359 0.028267087
0.042117946 0.07238785 0.09534141 0.07399284 0.055286095 0.07049683 0.021511124 0.018626556
0.021502942 0.05302162 0.038315542 0.02701605 0.0634176 0.01900702 0.03795109 -0.002230005
0.04267031 0.03353496 0.099750586 -0.016935425 0.009316324 0.071043245 0.026923059 0.027865034
0.03153314 0.0013194581 0.0774499 0.096048765 0.007730865 0.018593287 0.025832742 0.005458588
-0.004815332 -0.0039952244 0.036106247 0.037890323 0.05282353 0.03663642 0.046997327 0.043012645
0.030712495 0.020160398 -0.018269103 0.06448542 0.07726459 -0.0023779662 -0.023107992 0.062771246
0.015350842 0.012469934 0.035374258 0.03413577 0.02195927 0.049184095 -0.0066384883 0.05024072
0.043309323 0.043126255 -0.00296303 -0.0002383303 0.041196305 -0.0055197366 0.04449029 0.07059845
0.05682769 0.03443117 0.06536371 0.008054407 0.038791746 0.03810756 0.028685987 0.03593087
0.0037872938 0.060193192 0.04455874 0.05385769 0.041353695 0.026450891 0.011733553 0.08867285
0.0046726735 -0.018341994 -0.0016479739 0.0077339164 0.026091456 0.033809748 0.020812724 0.055615135
0.014262429 0.07323725 0.030582018 0.012228902 0.008211341 0.023783429 0.06294179 0.070578665
0.031055646 -0.0021892379 0.041107513 0.0013949061 0.07445441 -0.01202486 0.054804962 0.06789595
0.0074507953 0.022994636 0.027981289 0.013707154 0.025062734 -0.01652637 -0.027041888 0.0042261933

network_body._body_endoder.seq_layers.0.weight f4 [256, 11]
00000000: 1707 e1be f93c 113e 3053 21bf bbff 5b3d
00000010: fa2e 77bd 861c cb3e 6653 41be 24a7 0e3f
00000020: e252 8dbd fbd5 f3bd 078e 34bf 5d14 2b3f
00000030: 918f 1b3f 4ce9 50be 63fb 563e 5340 4d3e
00000040: 1453 2c3f 5db4 093f 9e96 7a3e 02c3 7fbe
00000050: e797 353e 5d82 c7bd 8d38 b93e 53ad 08bd
00000060: 7b9c 84be 68d1 d8bd df85 d53e 7a39 a6be
00000070: ee27 88bb 827d eebe 1c2a 303e 9f11 233e
00000080: f0a9 7cbe e4d5 063f 741b 8bbe 15e3 4abe
00000090: 96bd 703d 9a48 1c3c 0f4a f13e c45f 993d
000000a0: 7390 aa3e 6913 573e 4702 64bc 2d6b f93d
000000b0: a9e8 acbe 218b 543e a5c0 c6be 847d 293d
000000c0: f014 e53e a11e 04bf fe49 68be 89a8 fabd
000000d0: 9d89 17be 29b2 13be 1e9b 903e b7e4 41be
000000e0: 324c 0c3e 78f1 04bd 9165 7dbe 653c f2ba
000000f0: d14a 34bf 8177 02bf 696e 81be b37c 09bf
00000100: a448 683e caf0 433e b8af 9cbd d861 1bbe
00000110: 3990 42be f469 6abe adc0 83bd 0206 753d
00000120: 5713 2abf 553a 0e3f 8edc 803d b5f1 fb3d
00000130: d7e2 a33e dd95 633e 8e42 bc3e 8749 d0bd
00000140: 4901 08bf a9d6 153e 5e5a 103d 9489 57bd
00000150: 0988 37be cc84 443f 220f 733d e4ce 3c3e
00000160: 8f36 1b3f 8b69 dd3e 0342 5abe 707f 423e
00000170: cc12 bebe 3f41 ec3e 4d94 c2bd 71c8 acbe
00000180: a99c 303f 406a 9d3d 21e7 91bc 94e0 96be
00000190: e0f6 6d3d 39d2 cfbe 16a6 10be 2a52 8bbe
000001a0: 60cc 813e 659b 063f 5b26 a93e f2db 1ebe
000001b0: 964b 413f 7950 10bd e516 e0be f1bf 8b3d
000001c0: c3d8 893e 5d87 72be 34f3 96bc 1180 893e
000001d0: bc2d c3bc e1e7 c2be 7dbe 093f aab8 913e
000001e0: c949 19be 3b80 333f 5d8e 7e3d 5562 2d3d
000001f0: cb02 2abf 889b c5bd 9912 c1be 1424 d1bd
00000200: 399e 2dbe 5443 ac3e 093f 86be 57a0 e33e
00000210: b775 0d3d 6d42 58bf 7a33 1f3e fd17 e4be
00000220: b7e1 90be e90b 933e 19f7 253e b407 32be
00000230: c99d 093f 6485 ebbd dae3 3bbe 6f3b 573e
00000240: b601 b6bd 24d6 0b3f 6399 4e3e b52d e9be
00000250: a3f1 3c3e d8c2 623e 4518 d73d 1dc6 fdbd
00000260: 01a5 a33e 2b61 e93d 6faf fabe 6c47 86bd
00000270: 3880 883e 343c 09bd 9233 17bf 2378 d43e
00000280: 3db5 d1bc 4ff2 e63e 320c 5d3e 7901 fb3e
00000290: af5c 023f 52d9 f53c e586 52be 8e60 fa3e
000002a0: 89a8 cc3e 5a47 f63d b149 e3be e3ba f13e
000002b0: 6c4f 93be b372 57bf 6795 d53d 7435 c4bc
000002c0: 1106 38bf 03f4 153f 7619 f33c 7d16 a83e
000002d0: 2d04 e8bd 9c41 5ebd cc6c a83d 45cb 9a3d
000002e0: 128d e53d 75ba be3e 5e94 53be e8c9 8cbe
000002f0: 62a3 443d 989c 0cbe ace7 923e d937 923e
00000300: 6344 a03e 6c97 1bbe 4288 90be 78fd 663e
00000310: 0244 c53b 4404 32be 1173 443e a5ae 3c3f
00000320: c6c5 b3be 6247 2bbf 484f 3abf 5639 f5ba
00000330: 2e66 7bbd 5bf2 8e3d 5162 bcbd c836 f13c
00000340: eb32 fb3e 3b74 80be 41d9 c83e b6f3 90bd
00000350: d8df 363e fa51 093f 295e a9bd 1e1c 67be
00000360: 7cb3 0a3d 7799 733e 0fc8 213d 0593 643d
00000370: f7a6 0abf 7e49 e6bd 0d7d 09bf a21e dc3e
00000380: 2f05 083f 7b1d 1dbd bc0c 0a3c bcf6 62be
00000390: a943 733d 8b71 cb3b 3b7c bcbd beed cfbe
000003a0: 85f2 85be c63f 983e c352 023e 0209 8e3e
000003b0: dab8 84be 956e 963e 1266 96be 78fe 873e
000003c0: c64d 85bd 040b 273e 5059 4b3f eb09 1a3f
000003d0: 3d71 1bbf ca06 663e 96bb 8d3e df7b d6be
000003e0: 1382 88be 019b 163f c3ed 05bd 70af 69be
000003f0: 76cd b5bd 19f1 743c cf15 0dbe 72f1 dcbe
-0.43950722 0.14183415 -0.6301756 0.05371068 -0.060347535 0.396702 -0.1887947 0.55723786
-0.06900574 -0.11906048 -0.70529217 0.66827947 0.6076594 -0.20401496 0.20994334 0.20044069
0.6731427 0.5379084 0.24471518 -0.24976733 0.17733727 -0.09741662 0.36175957 -0.03336842
-0.25900635 -0.10586816 0.41703698 -0.32465726 -0.0041551506 -0.4658013 0.17203563 0.1592469
-0.24674201 0.5267012 -0.27169383 -0.19813187 0.058774553 0.009538794 0.47126815 0.07488969
0.3331333 0.21003498 -0.013916559 0.12178645 -0.33771256 0.20756198 -0.3881885 0.041379467
0.44742537 -0.51609236 -0.22684476 -0.12239177 -0.14798589 -0.14423431 0.28243345 -0.18934904
0.13700941 -0.032456845 -0.24745776 -0.0018481134 -0.7042666 -0.509636 -0.2527955 -0.537059
0.2268396 0.19134822 -0.07650703 -0.15174043 -0.19000329 -0.2289198 -0.06433234 0.059820183
-0.6643576 0.5555776 0.062920675 0.12301961 0.32009003 0.22225137 0.36769527 -0.10170274
-0.5312696 0.14632668 0.03524243 -0.05262144 -0.17922987 0.7676513 0.059340604 0.18438298
0.60630125 0.43244585 -0.21314244 0.18993926 -0.37123716 0.4614353 -0.095009424 -0.33746675
0.68989044 0.07686281 -0.017810406 -0.29468215 0.058096766 -0.40590075 -0.14125857 -0.27211124
0.25351238 0.52580863 0.33037075 -0.1551359 0.7550596 -0.035232995 -0.43767467 0.06823719
0.2692319 -0.2368445 -0.018426515 0.2685552 -0.023825519 -0.38067535 0.5380629 0.284612
-0.14969553 0.7011754 0.062147487 0.042330105 -0.6641051 -0.09648806 -0.377095 -0.102119595
-0.16954888 0.33645117 -0.26219967 0.44458267 0.03453609 -0.8447636 0.1554698 -0.44549552
-0.28297207 0.28720024 0.16207542 -0.17385751 0.53756386 -0.115000516 -0.18348637 0.21018766
-0.08887045 0.5462363 0.201757 -0.45542684 0.18451552 0.2214464 0.10502676 -0.12391303
0.31961825 0.113954864 -0.4896197 -0.065565914 0.26660323 -0.03350468 -0.59063065 0.41497907
-0.025599116 0.45106742 0.21586683 0.4902456 0.50922674 0.030010853 -0.2055927 0.4890179
0.39972332 0.12025328 -0.4439216 0.47212896 -0.28771532 -0.8415939 0.10428887 -0.02395127
-0.71884257 0.5857546 0.029675227 0.32829657 -0.113289215 -0.05426179 0.08223876 0.07558302
0.11208548 0.3725163 -0.20662066 -0.27497792 0.048007376 -0.13731611 0.28692377 0.28558233
0.31302175 -0.15194482 -0.28228956 0.22557628 0.00602007 -0.1738444 0.1918452 0.73703986
-0.35111827 -0.66905797 -0.72777224 -0.0018709104 -0.061376743 0.069798194 -0.0919844 0.029445067
0.49062285 -0.25088677 0.39228252 -0.07077734 0.17858827 0.5364071 -0.08269913 -0.2256932
0.033862576 0.23789011 0.03949743 0.05580427 -0.5416102 -0.11244486 -0.5370644 0.4299212
0.5313291 -0.038358193 0.008425888 -0.22164434 0.059390698 0.0062086037 -0.092033826 -0.4061107
-0.2616159 0.29736155 0.12726884 0.27741247 -0.2592228 0.29381242 -0.29374748 0.26561332
-0.06508975 0.16312796 0.79433155 0.60171384 -0.6071966 0.22463527 0.2768218 -0.4189138
-0.2666174 0.5883027 -0.03269745 -0.2282083 -0.08877079 0.01495006 -0.1377785 -0.43152958

network_body._body_endoder.seq_layers.2.bias f4 [256]
00000000: 8004 aa3a 13b1 8f3a 19de 91bb 4dcc c93c
00000010: 14cd 923b 5341 193c 95d4 283b 531c 08bd
00000020: 909b 383c 947c 15bc b5e5 0fbb b83d 66bc
00000030: fdeb 943c 8d15 38bb 8397 953d a4e7 883c
00000040: abab 89bb 092e 96bc 6211 29bc 6ec6 6c3d
00000050: 5092 c53b aa99 ac3c 8dab 183d 81ff 3f3d
00000060: ddf7 043c c0bf 913c 7258 b13b 3b46 f03c
00000070: c574 76bb 2a78 e83b 4745 4b3d 30b5 a73b
00000080: 075f a03c 7113 653c 21c3 d03c 8510 5ebb
00000090: 70bd 7b3b 3035 89bc a317 11bd 5b0c 8ebc
000000a0: 9a85 30bc 9ba5 043d 86c4 c63c 415a e8bc
000000b0: b728 c63b 6758 013d 5705 ccbb 8d58 8b3c
000000c0: 550d cbbc 53a7 e93c d98b bd3c 367a bf3c
000000d0: 07ad 23bc b47f 6f3b afe6 c83c 9786 9cbc
000000e0: 065c 853b 2224 fe3b 19f1 e9bb c755 a2bc
000000f0: 1524 183c c528 e73b eed5 c53c f6d9 16bc
00000100: 4bba 1f3d b37c 1e3d 7039 ccbb 9457 9d3c
00000110: 9af2 d3bc f1fe cb3c 6fbc a5bc 4e52 373d
00000120: 1397 22bb ce31 b23c 3b75 c4bc e357 873b
00000130: 0553 163d 649f 2bbc c466 fc3c 6103 00bc
00000140: 2712 133c 48c1 6ebd 2544 853c 8921 14bd
00000150: 2e93 2ebd 600a 263b e029 903c e46e c83c
00000160: 1699 c93c fb87 4a3d 7058 39bc 5ba3 4c3a
00000170: b407 343b 3a76 183b a813 c5bb f4ca 74bd
00000180: d5f1 673d e257 90bc ff26 743c a3af bc3c
00000190: 21d8 56bc b121 2fbc 06be 253d e36b e5bb
000001a0: 2fe9 99bc dd18 793d 0e5c e1ba 7ff3 273d
000001b0: 3fbf 6dbb 6052 ce3c 122d 20bd 7678 d43c
000001c0: f97f d93b c8ec 4a3d d45f 2bbc 1208 94bc
000001d0: 4c8b dc39 a1d4 75bb 7e57 bc3a c065 973c
000001e0: eae2 753c 0575 8a3c c136 8639 f28c ed3b
000001f0: 1044 d73c 882c d83c e449 113d 7ca9 d13c
00000200: 34f5 ab3c d1fa 323d 2bdd c3bb 549a 733c
00000210: 251d c13b b502 d9bc ccfe 013c b513 223d
00000220: d9dc 903c 1964 0cbb a883 8e3b a82c c0bc
00000230: 91c6 5b3c 1b8c 0e3c 8142 84bc 30f5 d93b
00000240: 3b37 653c f9f1 2c3d 4e5e b4bb 1275 1bbb
00000250: d728 153c a26f fdbc a1f4 6a3c 831a 1a3a
00000260: ca9a 33bb 835d 933c 0a48 813d e71d aa3c
00000270: 409c f83b 31c9 573d 288f 5f39 4bb0 f73c
00000280: 6c6c 8a3b 940f 833c 7cf5 463c 8e80 cebb
00000290: 98f9 61bb d47b 3ebc 81b2 dcba 9155 9fbc
000002a0: 4593 823d 4560 02bd 62f5 023d 8e51 e73c
000002b0: ae6a 68bc db8a 003b 628a 813c b48b d23c
000002c0: 3782 2a3d 4078 c53c fb23 cb3a 45a7 a4bc
000002d0: a890 2d3c 2c72 d23b d534 b5bc c51a e2ba
000002e0: c5e1 a9bc 6a55 643c f15c 8f3d 04d6 3c3c
000002f0: 35e3 023d 381f ce3c 9d7d e4bc d696 ae3c
00000300: 6cfc b63b 96c5 eabb b1fb aabc 4746 9a3b
00000310: a877 ed3c 0c1a f13c 0af9 3d3d 1d24 e8bb
00000320: 49e4 2d3d f264 f83b d773 893b 6039 05bd
00000330: f215 b23b bb6c 063d 5a23 84bb e89f a1b9
00000340: 6186 843c 4201 e23b 4990 8e3c dd2f 153b
00000350: e302 1eba d1ec 59bc f921 773c 44bb fd3b
00000360: b1e1 173d 6809 b6bb 81c6 dd3c 3682 0cbb
00000370: 7cda 9abc 7f80 dd3c 6579 453d 3d86 b0bb
00000380: b45a 1ebd 24e8 d83a e551 ef3b e157 243b
00000390: 8211 593d b697 a7ba a23a 983d e70b ce3b
000003a0: 27ee 993c 331d 42bc 8619 1c3d 2e07 cf3c
000003b0: a4ab d73c 1b0b 253d d7d5 273a 983c e13b
000003c0: e53a a2bc 9591 8d3c 8446 5d3c c1c9 91bb
000003d0: 11c1 1e3c a4e9 a63c 1c77 a43c db35 10bd
000003e0: cfc0 023b 6631 1d3d 7a78 07bd da22 393d
000003f0: 018f 793c 2762 56bc 38b8 f6bb b2e1 023d
0.0012971312 0.0010962806 -0.004451525 0.024633551 0.0044800136 0.009353953 0.0025761474 -0.033230137
0.011267558 -0.00912394 -0.0021956984 -0.014052801 0.018178934 -0.0028089017 0.07304289 0.016712017
-0.0042013726 -0.018332498 -0.010319086 0.057806425 0.0060294047 0.021069366 0.03727298 0.046874527
0.008115736 0.017791629 0.005412155 0.029330363 -0.003760622 0.007094403 0.049626615 0.005118035
0.019576563 0.013981686 0.02548367 -0.0033884358 0.0038412474 -0.016748995 -0.035422932 -0.017339876
-0.010774041 0.032384496 0.024263632 -0.028363349 0.006047334 0.031578448 -0.0062262225 0.017009998
-0.02478663 0.02852217 0.023137974 0.023373704 -0.009989983 0.0036544623 0.024524061 -0.019107146
0.004069808 0.007755772 -0.007139337 -0.019816292 0.009285946 0.0070544207 0.024149861 -0.009207239
0.038996022 0.03869314 -0.006232433 0.0192068 -0.025872517 0.024901839 -0.020231454 0.044756226
-0.0024809286 0.021752264 -0.023981681 0.00413035 0.036700267 -0.010475013 0.030810721 -0.007813306
0.008976496 -0.058289796 0.016267845 -0.036164794 -0.04262083 0.0025335774 0.017598093 0.02446694
0.02460913 0.049446087 -0.011312589 0.0007806324 0.0027470412 0.0023263828 -0.006014306 -0.059763864
0.056627113 -0.01762003 0.0149018755 0.023032969 -0.013113053 -0.010689185 0.040464424 -0.0070013865
-0.018787948 0.060814727 -0.0017193572 0.0410037 -0.0036277322 0.025185764 -0.039105482 0.025936347
0.00663757 0.04954222 -0.010459859 -0.018070254 0.00042065454 -0.003751077 0.0014369336 0.018481135
0.015007714 0.016901502 0.00025599267 0.007249468 0.026277572 0.026388422 0.03547086 0.025593512
0.020990945 0.04369623 -0.005977293 0.014868338 0.005893367 -0.026490549 0.007934283 0.039569575
0.017683433 -0.0021421968 0.0043491907 -0.023458794 0.013414041 0.008700396 -0.016144993 0.006651543
0.013990219 0.04222295 -0.005504406 -0.0023720902 0.009103975 -0.03093702 0.014340551 0.00058785843
-0.0027405494 0.017988926 0.063125685 0.020766212 0.007586986 0.052682105 0.00021320267 0.03023543
0.0042243507 0.01599864 0.012143489 -0.006301946 -0.0034481045 -0.011626203 -0.0016837866 -0.01944998
0.06375746 -0.03183009 0.031972297 0.02823713 -0.014185591 0.0019614014 0.015813056 0.025701381
0.04162809 0.024105191 0.0015498394 -0.020099292 0.010593571 0.0064223018 -0.022119919 -0.001725041
-0.020737538 0.01393638 0.07000149 0.011525635 0.031954963 0.02516137 -0.027891928 0.021312159
0.0055842903 -0.0071646674 -0.020871969 0.0047080847 0.02898772 0.029431365 0.04638008 -0.007084383
0.042454038 0.007580393 0.0041947174 -0.03252542 0.005434745 0.032818537 -0.0040325345 -0.00030827452
0.016177358 0.0068971226 0.017402785 0.0022764124 -0.0006027652 -0.01330109 0.015083783 0.007743271
0.03708047 -0.0055553205 0.027072193 -0.0021439916 -0.01890301 0.02703881 0.048211474 -0.005387096
-0.03866072 0.0016548675 0.0073034638 0.0025076794 0.052995212 -0.0012786302 0.07433058 0.00628804
0.018790318 -0.011847782 0.03811028 0.025271978 0.026326962 0.040293794 0.0006402409 0.0068736784
-0.019803474 0.017281333 0.013505582 -0.0044491 0.009689585 0.02037508 0.020076327 -0.03520761
0.0019951349 0.03837719 -0.03307388 0.045199253 0.015231849 -0.013084925 -0.007529285 0.03195352
