results/VB_1/Volleyball/Volleyball-1499990.onnx (onnx, 291913 bytes, 15 tensors)

97 f4 [11]
000000 8e 76 a2 3e 9a 6d 9e 3e 57 eb b8 3e 55 dc 1e 3f
       0.31731075 0.30942994 0.3611705 0.6205495
000010 24 08 c4 40 76 91 2b 40 11 1e 3d 41 3e 12 13 40
       6.1259937 2.6807532 11.81984 2.2979884
000020 f6 c9 ea 40 55 53 72 40 b3 74 43 40
       7.3371534 3.7863362 3.0539978

action_model._discrete_distribution.branches.0.bias f4 [3]
000000 75 75 22 3c 33 c6 91 3b b0 dc 73 bc
       0.009915699 0.004448676 -0.014884159

action_model._discrete_distribution.branches.0.weight f4 [3, 256]
000000 8f 74 16 bb 88 13 07 bc 47 a8 f8 3c c9 01 b5 3b
       -0.0022957658 -0.008244403 0.030353678 0.0055238944
000010 77 e6 03 bc 5e 36 5d bc cb 0b 8c 3c 66 d0 5c bc
       -0.008050553 -0.013501732 0.017095467 -0.01347742
000020 96 69 2f 3c b6 05 23 3c 06 f9 ab bc 53 59 a8 bc
       0.010706326 0.009950092 -0.020992767 -0.020550406
000030 c7 75 c4 3b cf 35 97 bc e9 33 cf bc 6c dc bd bc
       0.0059954855 -0.018458275 -0.025293307 -0.023176394
000040 d1 1c d5 bc af 3b 89 3c fe b7 89 bc 52 e8 80 bc
       -0.026014717 0.016752092 -0.016811367 -0.015735779
000050 05 07 94 3c 3d fa f8 3b f7 df 3f 3c 0e 19 6d 3b
       0.018069753 0.00759819 0.011711112 0.0036178264
000060 08 39 c9 bb 0c 0b 3b 3b 24 89 88 bb 08 34 6b bb
       -0.006140832 0.002854052 -0.004166739 -0.0035889167
000070 d2 6d 06 bd ae 87 46 3b f6 a5 8e bc 5f 88 0c 3c
       -0.032819577 0.0030293274 -0.01741312 0.008577435
000080 a5 36 b6 bb 68 3a a0 3c c5 a2 b4 bb f6 ce bd bc
       -0.0055607134 0.0195591 -0.0055125677 -0.023169976
000090 aa b8 a3 3c d1 6b ea 3c 16 70 16 3c cd 77 bd 3b
       0.019985516 0.028615864 0.009181997 0.0057821036
0000a0 6e 7c 6f 3b c6 54 5d ba 65 ec e5 3c 52 2d 02 3c
       0.0036542672 -0.0008443113 0.028066823 0.0079453755
0000b0 78 64 41 3d 1f bb 86 bc af b4 e3 bb 56 8b e9 3c
       0.047214955 -0.016446648 -0.0069490294 0.028508823
0000c0 06 de 4c 3b dd af ba 3b 87 79 01 3d 29 71 00 3c
       0.0031260266 0.005697234 0.031610038 0.0078394795
0000d0 62 5b 6b bc 11 85 c4 3c f9 2a 49 bc 0a bc 7f bc
       -0.014365049 0.023989232 -0.012278312 -0.015608797
0000e0 e5 1e 09 3c db 48 65 bc 2a 8a 6f bc a6 db a0 bb
       0.008369182 -0.013994421 -0.014620343 -0.0049089966
0000f0 8a f8 13 bc 76 cd 4a 3c b8 ca 1e 3c d3 7e ad 3b
       -0.009031424 0.012378087 0.009691887 0.0052946596
000100 99 c9 91 bc cd 8c 90 3b b7 70 92 bc c2 93 d1 3b
       -0.017796325 0.004411316 -0.017876012 0.006395788
000110 bc 30 24 3c 0a 75 17 bd b9 96 95 bc e6 ee 4c 3c
       0.010021385 -0.03697685 -0.018260347 0.01250813
000120 d6 3f cc bc 39 3b cd 3c 67 87 c7 bc 5c 49 d2 3c
       -0.024932783 0.025052654 -0.024356557 0.025669746
000130 aa 33 cb bb 3c 15 35 3c 1e dd b3 3c b5 6d 2c 3c
       -0.006201227 0.011052426 0.021956023 0.010524203
000140 59 7c 2b bc 6c de 91 3b 34 47 26 3c ea b4 67 bc
       -0.0104666585 0.0044515636 0.010148812 -0.014142254
000150 67 aa 18 bc 94 44 b0 bc 93 26 5f bc 99 cc 8e 38
       -0.009317971 -0.021517076 -0.013620037 6.809197e-05
000160 e7 bd 44 bc f4 12 59 bc af 54 96 3b f6 23 a1 bc
       -0.012008167 -0.013249148 0.004587732 -0.019670468
000170 9b a7 4b 3c d6 8e c9 bb ab d1 98 bc da 9a f7 3b
       0.012430097 -0.0061510606 -0.018654665 0.0075563015
000180 7d 5b 5d bc ae 5e 30 3b e1 9a 32 3d e6 1f 39 bb
       -0.013510582 0.0026911902 0.043604735 -0.0028247773
000190 61 a2 5a 3c 64 de 25 3c 1b 2b c1 ba 7a 90 f7 3c
       0.013344378 0.010123823 -0.0014737578 0.030220259
0001a0 06 3a 71 3b e8 15 9f b9 d6 56 04 bc b9 a3 22 3c
       0.0036808266 -0.00030343165 -0.008077344 0.00992673
0001b0 97 e8 33 3c 57 f2 98 bb eb 19 e3 3b 1f 35 61 bc
       0.010980747 -0.004667561 0.00693058 -0.013745575
0001c0 fe 00 71 bb a0 08 2b 3c 90 4f b6 3b db 9b 0f 3b
       -0.0036774273 0.010439068 0.005563684 0.0021912965
0001d0 89 e1 0f bc 72 c2 13 3d 3c b9 bd 3c d7 c2 7c 3c
       -0.008781799 0.03607411 0.023159616 0.015427313
0001e0 97 78 8e bc 2c d0 21 3b 90 ac 11 bc 1a 3a 93 3c
       -0.017391486 0.002469073 -0.00889124 0.01797204
0001f0 ec 48 fa bc e2 b2 0c bc d4 a6 27 bd a1 3b 22 bd
       -0.03055235 -0.008587571 -0.040930584 -0.039607648
000200 cd be 22 39 f5 f9 25 3c 52 86 4e 3c fb 0f d5 3c
       0.00015520603 0.010130395 0.012605267 0.026008597
000210 d6 7c 4c bc 02 a5 63 3c 55 9d 86 3b 7b 1b 11 bd
       -0.012480935 0.013894321 0.004108111 -0.035426598
000220 9b 73 37 3c a6 53 9c bb 1c 2a 06 3c ef 6f d5 bc
       0.011196996 -0.004770714 0.008188751 -0.02605435
000230 a6 b4 f2 bc d7 d5 e6 bb d3 87 a6 bc 21 be 56 bc
       -0.029627156 -0.0070445347 -0.020328438 -0.013106854
000240 ad 46 f5 38 14 04 5c 3c 28 57 59 3a c9 ab 92 bb
       0.00011695675 0.013428707 0.00082908804 -0.004476045
000250 55 7f d7 bc de fc 01 bc 19 79 32 bc a8 c6 b9 3c
       -0.026305834 -0.007933823 -0.01089313 0.022677734
000260 7c 58 ff 3b 40 38 89 bc ba 0f d0 bb bc fb 2b bc
       0.0077925306 -0.016750455 -0.006349531 -0.01049703
000270 82 6f 7c bc c5 fe 9d bb 50 fa 18 3d 09 40 d5 3c
       -0.015407445 -0.0048216307 0.03734809 0.02603151
000280 5f 2b 10 bd a4 9b 0e bc 39 11 af bc c4 80 a3 bc
       -0.035197612 -0.0087041 -0.021370517 -0.019958861
000290 8f 5d c8 bc f1 6b 00 bd 43 b9 94 bb a2 86 a3 bb
       -0.024458675 -0.03135294 -0.0045386865 -0.0049904147
0002a0 8b 8f 24 bd 8d 9f 2b 3c 32 ec 41 bc 44 5c ce bc
       -0.040175956 0.010475052 -0.0118360985 -0.02519048
0002b0 50 76 14 bd b3 e1 30 3d 9f ba c8 bb 9c 3f 84 bc
       -0.036245644 0.043183994 -0.0061257626 -0.016143613
0002c0 81 2e 5a 3c aa 01 cc bb ff 89 4f 3c 43 ab 0f bc
       0.013316751 -0.0062257843 0.012667178 -0.008768859
0002d0 44 30 98 bc 65 e5 2b 3c 6b 4e 28 3d f6 09 23 3c
       -0.018577702 0.010491704 0.04109041 0.009951105
0002e0 b4 6c 98 3b c0 80 8e 3c ad 0d 7a bc ad c4 43 3b
       0.0046516303 0.017395377 -0.01526205 0.0029871867
0002f0 06 e6 4b bc d0 d7 c3 3b 87 76 96 3c 6c a6 09 bc
       -0.012444979 0.0059766546 0.018367065 -0.0084014945
000300 3f 29 3f bc 36 5c c8 3c 34 29 84 3b e3 1c 11 3b
       -0.011667549 0.024458032 0.004033232 0.0022142462
000310 a1 29 b9 3a e8 2e b9 3a 53 99 a1 bc 59 b0 48 3c
       0.0014126786 0.0014128359 -0.019726431 0.012249076
000320 40 76 68 3a 55 a6 b5 bb c9 a4 db bb ba 92 b0 bb
       0.0008867718 -0.00554351 -0.0067029935 -0.005388585
000330 24 99 dc bc e2 8e 99 bb 34 01 1b 3d 17 d1 3e 3b
       -0.026928492 -0.0046862224 0.037842944 0.0029116326
000340 a3 df ae bc ff 6c e4 bb 80 52 e7 bb 96 be 7d bc
       -0.021346873 -0.006971001 -0.0070593953 -0.015487334
000350 c7 a1 ef 3b e3 38 60 3b d0 c7 86 3c 65 1d 8b 3b
       0.0073129865 0.0034213595 0.0164527 0.0042454475
000360 16 a7 88 bb af 6f 89 bc bf c0 67 3c cc 13 9a bc
       -0.004170309 -0.016776888 0.014145075 -0.018808268
000370 fb fb 74 3b 0e c4 22 bd b8 86 1f 3c 06 cf 10 ba
       0.0037381637 -0.039737754 0.009736709 -0.0005524013
000380 14 19 50 bc 0b a8 6c 3c 24 3f b1 bb 3b f8 d6 3b
       -0.012701292 0.014444361 -0.0054091383 0.006560353
000390 a9 09 dc bc c9 9f 92 3c ff 57 c7 3a df 9c 92 3b
       -0.026860075 0.017898457 0.001520872 0.004474267
0003a0 5a 07 e0 3a e8 33 9c bc 15 24 88 bc 4a cf a6 bb
       0.0017092035 -0.01906772 -0.016618768 -0.0050906288
0003b0 10 24 c1 bc 18 73 fe 39 be 0f 0b 3b 1c 86 07 3b
       -0.023576766 0.00048532407 0.00212191 0.00206793
0003c0 94 6f 87 bb 6c 76 a4 3b 92 e1 9d 3c a1 74 ed bb
       -0.004133174 0.005019 0.0192726 -0.0072465693
0003d0 9e 10 7e 3c 84 9e f3 3c e6 37 88 bc a4 3e 01 bd
       0.0155068915 0.029738672 -0.016628217 -0.03155388
0003e0 77 0d a1 bc 72 3a 03 3c 9c 82 61 bc c2 e1 a9 3c
       -0.01965974 0.00800954 -0.01376405 0.020737533
0003f0 b2 10 ce 39 a8 81 76 39 a4 70 79 bc 88 aa 88 b9
       0.0003930382 0.00023508689 -0.0152246095 -0.00026066997

action_model._discrete_distribution.branches.1.bias f4 [3]
000000 86 c8 e0 3b 31 e0 09 bd ab 39 ca 3c
       0.0068598418 -0.03366107 0.024685701

action_model._discrete_distribution.branches.1.weight f4 [3, 256]
000000 bf 09 42 3c 66 61 73 bc 3c 98 96 3b 0e 98 51 bc
       0.011843144 -0.014854765 0.0045957845 -0.0127926
000010 5b 67 2e bc 34 42 08 bc 36 cb 99 bc 7c 44 31 bc
       -0.010644759 -0.008316565 -0.018773656 -0.010819551
000020 cb 58 2f bc 21 be 24 3c c0 c1 7f bc 1b 8d 16 bc
       -0.010702322 0.010055096 -0.015610158 -0.009188916
000030 28 d9 ff bb ae 4a 29 3c ab 45 74 bc 79 63 b4 3c
       -0.0078078695 0.010332746 -0.014909188 0.022020089
000040 c8 a7 4c bb 84 e4 95 3c cb b6 7f ba 43 be 3c bc
       -0.0031227935 0.018297441 -0.00097547163 -0.011519971
000050 2b 1c 0b 3d 87 ee 04 bd c0 b7 c9 3a 6d 52 24 3c
       0.03396241 -0.03245404 0.0015389845 0.010029417
000060 07 1f c1 bc 21 27 27 bc 1f 8a 24 3c 51 cf 6a bc
       -0.023574365 -0.0102022 0.010042696 -0.014331655
000070 19 c3 ff 3c 31 5b bf ba 2e 06 0c bc 94 1d a0 3c
       0.03122096 -0.0014599321 -0.008546395 0.019545354
000080 50 3e 12 bc 7d 05 ba bc 8f de 5a 3c 7c 62 26 3c
       -0.008925989 -0.022707695 0.013358726 0.010155316
000090 ab 0c a1 bc ed 6c f4 3a d0 32 08 bc ac b2 9c 3c
       -0.01965936 0.0018648185 -0.008312896 0.019128166
0000a0 4c 73 db 3b 67 90 55 3c 42 3a 93 3c 1f 55 e3 3a
       0.006697094 0.0130349165 0.017972115 0.0017344094
0000b0 29 aa af 3c 7f f1 a3 3c 3a 91 37 bc 16 84 62 3c
       0.021443443 0.020012615 -0.011204058 0.013825437
0000c0 4c 01 d4 3b 27 e8 81 3c ab 75 6d bb 5e 93 43 bb
       0.006469881 0.01585777 -0.0036233466 -0.0029842476
0000d0 6c 64 81 bc 1b ce d3 bb 00 f6 87 bc bd f7 c1 3b
       -0.015794955 -0.0064637787 -0.016596794 0.0059194253
0000e0 97 17 39 bc 28 f0 d3 bc 6f ba 1c 3b 93 ad bc bb
       -0.011297128 -0.025871351 0.0023914834 -0.0057579963
0000f0 e8 cd c2 3c f9 5c 90 3c 0a 2f 80 bc 83 25 74 bc
       0.023779824 0.017622458 -0.01564743 -0.014901522
000100 2d ad ec 3c 1b 4e 14 3d ca 83 cc bc 77 ee 85 3c
       0.02889117 0.0362073 -0.024965186 0.01634906
000110 eb af 41 bb c9 c4 3e 3b 5e 08 01 bc 2d f9 7d 3c
       -0.0029554318 0.0029108992 -0.00787553 0.015501303
000120 a7 93 b4 3b af 74 c3 3c d2 6c 7b 3b bc 53 47 bc
       0.0055107656 0.02385935 0.0038364423 -0.01216596
000130 09 2f b7 3c 1c de 91 ba a7 9b 63 bc 16 22 65 3c
       0.022361295 -0.0011128816 -0.013892091 0.0139851775
000140 8e fc 07 3c 5c 87 0f bc b9 de bc bc 65 f9 76 b9
       0.00829996 -0.0087602995 -0.023055421 -0.00023553295
000150 1d 71 98 bc 3d 80 46 3a 76 2a 52 bc f1 50 f4 bb
       -0.018608624 0.00075722096 -0.012827506 -0.007455938
000160 a5 67 15 bb 6c 37 9a 3b 15 d9 f3 bb 58 d3 be bb
       -0.0022797373 0.004706314 -0.0074416497 -0.005823534
000170 83 67 ab bc cf d9 a0 3a 33 a6 99 bc 90 51 96 3b
       -0.020923382 0.0012271943 -0.018756008 0.0045873597
000180 f9 18 0b bd ab f7 0e bc dc ce 87 3c 93 d6 6a bc
       -0.033959363 -0.008726041 0.01657813 -0.014333385
000190 f4 b8 b5 bc b9 b9 a0 bc a9 a7 2b bc e1 46 58 3c
       -0.02218292 -0.01961981 -0.010476985 0.013200493
0001a0 34 88 82 3c ef 41 cc b9 31 ac a3 3c 71 9e 3a bc
       0.015934087 -0.00038959036 0.019979568 -0.011390314
0001b0 21 5a 9e bc 41 02 86 3c e6 76 b5 bc fb e3 24 3c
       -0.019330086 0.016358497 -0.022151422 0.01006412
0001c0 89 04 40 3b 72 51 cb bc ac 75 e9 bc 81 a2 90 bc
       0.0029299578 -0.02481911 -0.028498493 -0.017655613
0001d0 54 75 a0 bb af 72 16 3c 6b 49 9f 3c 70 84 a7 3b
       -0.004896799 0.009182616 0.019444188 0.0051122233
0001e0 f1 c8 c6 bb ef 23 fb 3a 2b 72 64 3c e2 1c 44 3b
       -0.0060664346 0.0019160489 0.013943235 0.0029924442
0001f0 57 e9 88 bc e7 03 9c bc 65 33 be bb 0c 24 60 bb
       -0.016712828 -0.01904483 -0.0058044665 -0.0034201173
000200 aa e9 a8 3b 40 e8 2a bc cf db a9 3c 87 9e 9f bc
       0.005154808 -0.010431349 0.020734696 -0.019484771
000210 9c 76 25 3c fa 64 00 3c 95 75 43 39 90 6c cd ba
       0.010099079 0.007836575 0.00018640452 -0.0015672613
000220 5e a2 a1 3c 79 e3 ac bc 25 bb d1 3c d3 81 d4 bc
       0.019730743 -0.021104561 0.025601933 -0.025940811
000230 eb fa 52 bc 69 70 8a 3c 25 21 8c bc 40 d0 de 3a
       -0.012877206 0.016899304 -0.017105648 0.0016999319
000240 94 e9 f3 bb e8 59 94 bc 37 30 2e 3b f5 cb cc 3c
       -0.007443616 -0.018109277 0.0026579031 0.024999598
000250 f6 57 da 3c 57 5d 99 3c 36 e8 af bc a1 43 2e 3c
       0.026653271 0.018721266 -0.021473031 0.010636241
000260 d7 e0 64 3c eb 77 fc 3a 64 f1 a1 bc 02 81 ba 3b
       0.013969622 0.0019261813 -0.019768424 0.0056916485
000270 64 9a 82 bb f4 1a 85 bc 27 48 ba 3c 35 3a f0 3b
       -0.00398569 -0.016248204 0.022739483 0.0073311576
000280 82 2a dd 3c 24 55 24 3c ba b5 a8 3b 05 07 97 3c
       0.026997808 0.010030065 0.0051486166 0.018435964
000290 90 17 a1 3b 6a 40 f5 bb c6 10 87 bc 77 93 c4 bc
       0.004916139 -0.0074844854 -0.01648749 -0.023996098
0002a0 86 80 e1 3c 39 04 cd bc a3 68 2f bb 23 33 c1 bb
       0.027527105 -0.025026428 -0.002676525 -0.0058959886
0002b0 ca 93 bc bc cb 80 1c 3d c6 40 09 3b f3 6e 3e bc
       -0.02301969 0.038208764 0.002094315 -0.011623132
0002c0 5f 8a b1 bc 04 34 92 bc ae 2a 92 3c fd 10 92 3a
       -0.021672426 -0.017847069 0.017842617 0.0011143979
0002d0 e3 45 01 bc 44 27 e7 bb 59 ec a0 3c 04 f9 45 bc
       -0.007890197 -0.0070542414 0.01964395 -0.012083296
0002e0 95 aa 00 ba 19 14 83 3b d6 fe f4 bb 77 06 dc 3c
       -0.0004908231 0.0040001986 -0.007476668 0.026858551
0002f0 98 6d 20 bc 7d 11 d0 ba fe b5 38 bc 32 c5 40 3b
       -0.009791754 -0.0015874353 -0.011273859 0.0029414413
000300 59 b0 46 b9 f0 bc 2c 3c e0 26 e5 bc 43 f2 09 3d
       -0.00018948446 0.010543093 -0.027972639 0.033678304
000310 fe cf 45 bd be d3 26 bb ad 03 80 bc ef 7c 96 bc
       -0.04829406 -0.0025455798 -0.015626753 -0.01837012
000320 a2 7d 94 3c 8f b8 96 3a bf 84 df 3b f0 81 92 bc
       0.018126313 0.0011499095 0.0068212445 -0.017884225
000330 75 c6 89 bb e8 68 2f 3d 13 3b ff bc f9 75 fc 3c
       -0.004204566 0.042824656 -0.031156098 0.030817972
000340 21 c7 18 ba ca 91 cc 3c 31 73 22 bc 0b ae 44 3b
       -0.00058280124 0.024971861 -0.009915159 0.0030010964
000350 bb a0 b8 3b 85 96 9b 3c 68 ae af bc 6f 2c 72 3c
       0.005634395 0.018992672 -0.021445468 0.014781102
000360 4e 44 88 3b 1e 3e 60 ba fe e8 c5 bc 85 73 41 bc
       0.004158533 -0.0008554178 -0.02415895 -0.011807327
000370 6b 30 ef 3b 41 f6 79 3b e6 e8 08 3d 19 39 94 bc
       0.007299473 0.0038141164 0.033425234 -0.018093633
000380 85 c9 9b bc bb 34 a3 39 56 83 bc 3c ab 3f 88 3c
       -0.01901699 0.0003112907 0.023011845 0.016631922
000390 5d 08 ed 3c bb 4b fe 3b dd 92 63 3b 5e ee 92 bb
       0.028934652 0.0077604926 0.0034724989 -0.004483982
0003a0 03 3d 61 3b 4f de 83 3c 8e 8a cb bb 17 a5 0a 3c
       0.0034368641 0.016097216 -0.0062115854 0.008462212
0003b0 67 63 1c bb 10 c5 b7 3c 60 75 64 3a a5 f2 8e 3c
       -0.002386296 0.022432834 0.0008715 0.017449686
0003c0 f8 5d 4f bb 1e 73 ed bc 92 14 fe 3c 7d 41 12 bc
       -0.0031641703 -0.028985556 0.031015668 -0.008926746
0003d0 83 24 23 bc a0 2c 38 3c 47 70 e3 3b 7a fd 29 bb
       -0.009957436 0.011241108 0.0069408747 -0.0025938437
0003e0 d8 2c 9e 3c 78 e1 94 bb 23 33 0c 3b 6b fb 58 bc
       0.019308493 -0.0045434795 0.0021392785 -0.013243536
0003f0 54 c0 1e 3d a5 df c0 3b 1e 37 97 bb 2b 1a 4a bc
       0.038757637 0.0058860355 -0.004614725 -0.0123353405

action_model._discrete_distribution.branches.2.bias f4 [3]
000000 b4 8b d5 3c 2d 8f 3c 3a d6 aa f3 bc
       0.026067592 0.0007192966 -0.029744547

action_model._discrete_distribution.branches.2.weight f4 [3, 256]
000000 a9 69 15 3c d0 b6 1e 3c 29 08 39 3c 1d 02 c2 3c
       0.00911943 0.009687141 0.011293449 0.023682648
000010 25 fe 70 3c ad b7 42 3c f8 e0 08 3c 46 ec 1a bd
       0.01470903 0.011884612 0.008354418 -0.037822984
000020 92 49 ce bb ca ee 32 3c 7d 45 cf b9 94 69 3b bb
       -0.0062953914 0.01092119 -0.0003953389 -0.0028596865
000030 09 ff 83 bc d4 ea a5 bc b9 32 c2 3c f5 3a d8 ba
       -0.016112821 -0.020253576 0.023705827 -0.0016497063
000040 f0 31 32 bb c5 b7 ae 3b 08 b2 9e ba 01 f5 6b 3c
       -0.002719041 0.0053319656 -0.0012107501 0.014401675
000050 b4 ef 24 3c 70 63 58 3c 1d 5d 3a 3d 27 2d dc bb
       0.010066915 0.0132073015 0.045498956 -0.0067192498
000060 93 b2 ea 3b 98 41 bb bc d6 a1 8a 3c 88 17 62 3c
       0.007162401 -0.022858426 0.016922873 0.013799556
000070 ed d1 06 3b 77 71 08 3b 97 12 17 3d 24 0c d5 bc
       0.0020571903 0.0020819583 0.036882963 -0.026006766
000080 b0 11 1c 3c f0 d5 59 bc 1e b1 b4 3b 09 d3 8e 3b
       0.009525701 -0.013295636 0.005514278 0.0043586534
000090 e8 78 de 3a df 2c 50 ba 76 55 29 bc 4e a2 7d bc
       0.0016973289 -0.00079412566 -0.010335317 -0.015480591
0000a0 27 1b 87 3b f6 65 9a b8 49 af f5 bb e3 42 a6 3b
       0.00412311 -7.362284e-05 -0.0074977023 0.0050738915
0000b0 73 c7 bb bb 71 a8 de 3c 10 99 9e bc fd 26 3b 3c
       -0.0057305633 0.027179928 -0.019360095 0.01142287
0000c0 f9 c8 00 ba fa 57 51 3d 21 7c a7 3b 0b 96 5d bb
       -0.000491276 0.05110929 0.005111233 -0.0033811356
0000d0 5f 1e 1f 3c b0 ce 5f bb a4 ad f6 3c c5 7f 00 3b
       0.009711831 -0.0034150295 0.030112095 0.0019607407
0000e0 82 e6 b7 3b 2a b6 6d 3c 54 43 2c bc 3a ea 57 bc
       0.0056121955 0.014508763 -0.010514099 -0.013178403
0000f0 c5 79 b2 3a 33 05 4c 3c 5c 45 19 bc 90 0b 77 3c
       0.0013616612 0.012452411 -0.0093549155 0.01507844
000100 9e 69 ce 3b e9 d7 ea bb 85 20 39 3b 5f 80 07 3c
       0.0062992116 -0.007166852 0.0028248143 0.008270352
000110 61 e2 2c bd 6f ee 8d 3c ef 2c 09 bb a1 23 2e 3c
       -0.04220808 0.017325608 -0.0020931324 0.010628612
000120 82 ad 85 bc 20 0e 27 3c 33 37 2f bb ed e9 01 bc
       -0.016318087 0.010196239 -0.0026735782 -0.007929307
000130 59 76 87 3c 87 87 97 bc fa 9e f8 bc 3f 6c d6 bb
       0.016535925 -0.018497242 -0.030349243 -0.0065436657
000140 cd 68 5e 3c c8 5d 71 bc 7e 92 87 3b 87 9b ed bb
       0.013574791 -0.014731832 0.0041373363 -0.0072512063
000150 2d 2b 9d bb e1 39 13 3d de 55 48 3c 91 1a 56 3c
       -0.0047964067 0.03594387 0.012227504 0.013067857
000160 3a 5f 05 3d a2 68 0e 3d 37 6b 1c bc 81 07 a7 3b
       0.03256152 0.034767754 -0.009547046 0.00509733
000170 28 85 d4 ba ab f7 65 3c 29 a2 36 3c a1 c7 46 bc
       -0.0016214 0.014036099 0.01114706 -0.012132556
000180 59 24 26 3b 9b bd ea bb 1a c9 c3 bc 89 50 53 3c
       0.0025351255 -0.007163716 -0.023899604 0.012897619
000190 a0 f0 eb bc 52 18 9a 3b 06 c3 b8 3c b5 9d e2 bc
       -0.028801262 0.0047026062 0.022553932 -0.027663091
0001a0 2d a5 2f 3b df f6 4d 3c 55 b3 1c bc 42 27 3d 3c
       0.0026801333 0.012571066 -0.00956424 0.011545004
0001b0 2a 2a 88 bb 05 3d 40 3c d7 c6 47 bd 1f fe f9 3b
       -0.004155417 0.011733298 -0.048773613 0.0076291705
0001c0 b0 e6 74 3c ab 79 a7 3a 56 c8 51 3c 6e e2 bc 3c
       0.014947578 0.0012777349 0.0128041115 0.023057189
0001d0 02 2c 11 3b 9f bc 2a 3c 26 d6 b3 3a 7b 42 b1 3c
       0.0022151475 0.010420947 0.0013720437 0.021638146
0001e0 2b a6 90 3c 33 a4 54 38 a3 90 04 3c a1 3f 64 bc
       0.01765736 5.069766e-05 0.008091125 -0.013931186
0001f0 a3 91 db 3c 02 fa 0b 3c 78 8b 11 3c 7a f7 d6 bb
       0.026802843 0.008543493 0.00888335 -0.006560263
000200 46 0f 3b 3b 2a 46 59 3c 9a 4d 37 3c 3d f3 f2 3b
       0.002854304 0.013261357 0.011187935 0.00741425
000210 5e f9 c1 3c 5d 05 81 3b 78 87 d0 3b 5a a7 84 3c
       0.023678478 0.003937407 0.0063638054 0.01619308
000220 2c 1f b0 3c d5 61 25 3c 5b 86 57 bc d8 60 13 bd
       0.021499239 0.010094126 -0.013154591 -0.03598103
000230 28 49 a6 3a e5 86 89 bb 4f 62 81 3c 4c f2 c7 3c
       0.0012686597 -0.004196989 0.015793948 0.024407528
000240 bd a3 ba bc e2 aa 50 3c 81 47 9f 3c 3c 88 53 bc
       -0.022783155 0.012736054 0.019443275 -0.012910899
000250 5c 2f df 3c 1d 23 91 3b 52 b6 0c 3d bf 80 8c 3c
       0.027244262 0.0044292347 0.03435356 0.017151235
000260 13 b2 7e bc 65 f6 a7 bb 0e 48 27 3c e3 f0 2f 3c
       -0.015545386 -0.005125808 0.01021005 0.010738584
000270 e1 47 64 3c 43 d9 d1 3b b1 2d 99 bc 66 ec 2b bc
       0.013933153 0.0064040734 -0.018698545 -0.0104933735
000280 ed 6a 9d bb aa 2a 45 bc c8 bd ba b9 e4 c0 e4 3b
       -0.0048040063 -0.012034098 -0.00035618083 0.006981002
000290 a8 52 94 3c 6b 52 18 3b dd ea fb bb 12 c9 87 bc
       0.01810582 0.0023242484 -0.00768791 -0.01657537
0002a0 87 69 06 3d 06 87 12 bc 85 74 65 3c d5 3e 9d 3c
       0.032815482 -0.008943325 0.014004831 0.019195
0002b0 f6 31 8f ba 96 a2 81 bc 7f 5e b0 3b 7a 53 03 3d
       -0.0010924924 -0.015824597 0.0053823586 0.03206203
0002c0 4d 08 92 bc 82 4c 06 bc de c0 09 bc 01 53 ae 3b
       -0.017826224 -0.008196952 -0.0084077995 0.0053199534
0002d0 50 ae 6d 3c e3 4d 80 3c 15 06 34 bc d1 f8 07 bc
       0.014506891 0.01566214 -0.010987778 -0.008299069
0002e0 46 4a 94 3a ca 54 f2 ba 4a d7 08 3d a1 3f af ba
       0.0011313639 -0.0018488404 0.03340844 -0.0013370403
0002f0 9c 5b a4 3c 59 47 49 3c 5b 28 29 bd ae 7e 7d 3c
       0.020063214 0.012285077 -0.04129825 0.015472097
000300 8f 9d d8 3c 25 53 ae bc 19 78 2c bc 45 b6 ed 3b
       0.026442317 -0.02127988 -0.01052668 0.0072543942
000310 ca fd d2 3c bc 79 ca bc 80 a8 0a 3d a0 41 7a bc
       0.025755782 -0.02471625 0.0338521 -0.015274435
000320 dd ac f8 3c 55 12 48 3c ac b3 84 bb b3 4f 0f 3c
       0.030355865 0.012211402 -0.004049739 0.008747029
000330 e2 1f 3e 3b 56 5f c7 3b 38 72 c0 bb 32 00 40 bc
       0.0029010703 0.006084363 -0.005872991 -0.011718797
000340 3d 6a af 3c 13 82 b5 3c ec 2c d0 bb c6 42 e9 3c
       0.021412963 0.02215675 -0.0063530114 0.028474223
000350 5d b5 77 3b 93 b4 00 bc 98 1e 26 3c 53 19 61 3c
       0.003779731 -0.007855552 0.01013913 0.013738948
000360 39 2c 20 3d 2f ce ca 3b 9d 6f 88 3b b5 46 27 bb
       0.039104674 0.00618913 0.004163696 -0.0025524322
000370 73 ff 8a ba b5 c8 bb bb 8a f7 25 3b fc be ca 3c
       -0.0010604694 -0.0057307133 0.0025324547 0.024749272
000380 99 92 15 bd af 76 e8 bc d3 92 74 3c ae cc 4a 3b
       -0.03651676 -0.028376905 0.014927584 0.0030944753
000390 03 4e 30 3d 04 37 8e 3c 87 0f 84 3c e9 cf b2 3c
       0.043043148 0.017360218 0.016120685 0.021827655
0003a0 f5 88 cb 3c d4 2a d6 3c 6b 7c 97 3c a5 4b 4b bc
       0.02484558 0.026143469 0.018491944 -0.012408172
0003b0 84 ca 05 3d a0 d9 c9 bb b9 65 a1 3b 6b 3d 33 bc
       0.032663837 -0.006159976 0.0049254564 -0.010939936
0003c0 62 91 a9 ba ee 85 84 b9 29 27 41 3c a4 24 05 bd
       -0.0012937004 -0.00025276787 0.011789122 -0.032505646
0003d0 2a 76 77 3b f8 78 06 3c 30 72 58 3c f2 a3 b1 ba
       0.003775964 0.008207552 0.013210818 -0.0013552888
0003e0 c2 39 4a 3c df 94 8f 3c 4b 6b dc bc e4 22 1e bc
       0.012342872 0.017527042 -0.02690663 -0.009651873
0003f0 ea 95 67 3c 20 e3 4e bc 27 a4 5f 3c e9 93 ca ba
       0.014134863 -0.012627393 0.013649977 -0.0015455458

action_model._discrete_distribution.branches.3.bias f4 [2]
000000 3a b0 5c bc 3f b0 5c 3c
       -0.01346975 0.013469755

action_model._discrete_distribution.branches.3.weight f4 [2, 256]
000000 62 a1 3c bb 4d 61 22 3c 13 43 54 3c a7 59 31 3c
       -0.0028782715 0.009910894 0.012955445 0.010824597
000010 01 e7 a6 bc d5 3d b8 3b 19 21 28 3c 5d 37 76 3b
       -0.020373823 0.0056226053 0.010261797 0.003756962
000020 0e 66 9f 3c 1f 5a 26 bb 81 08 9d 3b a2 bc c9 3c
       0.019457843 -0.0025383306 0.0047922735 0.02462608
000030 cb af ad 3c e3 d7 84 3b 02 f2 7f 3c c8 fa 61 3c
       0.021201989 0.004054056 0.015621664 0.013792701
000040 8f 57 13 3b b9 0d 9a bb 73 d4 a6 bc b4 cb 85 bc
       0.002248261 -0.004701343 -0.020364976 -0.016332485
000050 30 9c 1f bd 58 61 47 bb e2 40 cb 3b b5 f4 07 bd
       -0.03896731 -0.0030423012 0.006202803 -0.033192355
000060 94 4c 11 bc 34 9e ac 39 0a 87 9d bb 34 9a 82 3b
       -0.008868355 0.00032924267 -0.0048073577 0.0039856676
000070 92 c8 4b bc 1b 95 9b bc ee b3 01 bc 60 1f 4e bd
       -0.012437956 -0.018991997 -0.007916434 -0.05032289
000080 e1 ea 94 bc 7b 38 21 bb ca dc 92 bc 8d 2e 92 ba
       -0.018178405 -0.0024600315 -0.017927546 -0.0011152789
000090 fa e7 6d 3b d7 29 ae 3c 4b 1b 28 3c 37 27 57 3b
       0.00363016 0.021260185 0.010260413 0.003282977
0000a0 e9 8d 2d bb a2 78 c3 bc 53 0b c4 bc 87 4a b0 bb
       -0.002648229 -0.023861233 -0.023931181 -0.005379978
0000b0 68 a7 95 bc 50 79 83 3a e6 31 86 39 9b ad 1e 3c
       -0.018268302 0.0010030661 0.0002559565 0.009684945
0000c0 a7 45 7d 3c 6b 7d b9 bb 2f 15 13 bd 2f c0 6d bb
       0.015458501 -0.005660703 -0.035908874 -0.003627788
0000d0 93 d7 81 bb b9 c0 68 3c 8b b8 65 bb 00 cc 69 3c
       -0.003962466 0.014206105 -0.0035052623 0.014269829
0000e0 5a bc ec 3c 56 8d 93 3b d5 58 88 bc 1b 41 b0 3b
       0.028898407 0.0045029325 -0.01664392 0.005378855
0000f0 df d5 23 bd ef 30 83 bc a6 1b 38 3c 59 bd cb 3c
       -0.039998885 -0.016014544 0.011237061 0.024870561
000100 5c 22 92 bc 70 2c 1b bd 7d 0a 80 3b fc d4 ed 3b
       -0.01783865 -0.037884176 0.0039075003 0.0072580557
000110 a6 b9 f7 bb 8c 56 b8 bc cd 8c b5 3c 17 c1 84 bc
       -0.007559973 -0.022502206 0.022161866 -0.016205354
000120 ab 59 dc 3b a2 5e ab bc d3 a1 20 3c 28 8c 2c bc
       0.0067245564 -0.020919148 0.009804207 -0.010531463
000130 02 1a b5 bc ad 15 96 3b 31 87 81 b9 60 97 17 bc
       -0.022107128 0.0045802207 -0.00024705523 -0.009252399
000140 2d fa 8c bc 45 27 ce 3c a7 fb 3b bc 80 98 54 3c
       -0.017209137 0.02516521 -0.011473573 0.012975812
000150 8b 5d f1 3b 7a fc 33 ba b2 a3 ed 39 c7 db 6d 3b
       0.0073658875 -0.000686593 0.00045326125 0.0036294328
000160 78 02 24 bc 87 27 81 3b 88 62 6a 3c c9 54 63 3c
       -0.010010354 0.0039414796 0.014305718 0.013875195
000170 2d dc a4 3b f2 2b 0f 3c b5 5b 3b 3c 50 5d 13 3b
       0.00503113 0.008738505 0.011435439 0.0022486039
000180 38 9e e5 bc 65 f6 a9 ba 1d 04 21 bd 2d d8 27 bc
       -0.028029546 -0.0012967108 -0.039310563 -0.010244411
000190 f2 7c 20 bc 63 b3 82 ba ba ad 26 ba e9 9d 57 bc
       -0.009795414 -0.0009971674 -0.0006358285 -0.013160207
0001a0 90 30 42 3c fd d9 e5 3b f8 5b 1b bc 0e 3d 93 3b
       0.0118523985 0.0070145116 -0.009482376 0.0044933623
0001b0 63 3f 6e bb fe 2b ba bc 3c 74 d0 3b ea ff 0f bd
       -0.00363537 -0.022726055 0.0063615125 -0.035156168
0001c0 28 d4 aa bb 28 dc 09 bd 65 e0 c5 bb 23 99 3b 3c
       -0.0052132793 -0.033657223 -0.006038713 0.011450085
0001d0 b4 3c 45 3c ca b9 bd 3b 1d 22 3a 3b ea 1f 8f bc
       0.0120383985 0.00578997 0.002840168 -0.017471272
0001e0 83 27 67 3c 29 46 a8 bc ca d5 1b 3c 2b fa 53 bc
       0.014108541 -0.020541267 0.0095114205 -0.012938063
0001f0 84 b8 4b bb d5 14 17 bc b5 59 6d bb 3a 90 71 bc
       -0.0031085322 -0.009221275 -0.00362168 -0.014743859
000200 69 57 42 bb 5b c5 d1 3a 9a 4f b2 3a f1 f0 d3 3c
       -0.0029654151 0.0016004251 0.0013604045 0.025871726
000210 92 cc 0f 3b 7a 28 84 3c 8d 03 b1 bb 72 d6 a1 ba
       0.0021942002 0.016132582 -0.0054020346 -0.0012347235
000220 fd 7f e3 bc 58 e8 17 3c 23 90 ac bc a5 b2 f6 3a
       -0.02777099 0.009271704 -0.021064823 0.0018821551
000230 41 b0 ff 3b 88 43 42 3b ae 7b 82 3b 5c e5 c6 bc
       0.0078029935 0.0029642303 0.003982029 -0.024279289
000240 00 a4 c8 3a 45 5a 86 ba 07 c8 14 3c e6 48 78 bc
       0.0015307665 -0.0010250291 0.009080893 -0.015154099
000250 17 a3 85 3c 91 d8 d7 3b 69 14 d6 3b a8 0f a2 3c
       0.016313119 0.006587096 0.006533195 0.019782856
000260 b5 d5 99 3c 1f e6 28 bb e1 0e 05 3c 11 f5 3b 3c
       0.018778661 -0.0025771928 0.008121223 0.011472003
000270 00 96 ba 3c 0b c8 c0 ba f5 ab 05 bc c4 aa c5 bb
       0.022776604 -0.0014708055 -0.0081586735 -0.0060323197
000280 a5 c7 ae bb 18 2a 29 bd 97 5e a3 3c 31 ea 74 bc
       -0.005333858 -0.04129991 0.019942565 -0.014948414
000290 6a cc 28 bc 2d 5e b4 3c 6e 0a a7 bb 8d 81 0f 3d
       -0.010302642 0.022017563 -0.005097679 0.03503566
0002a0 f4 ba b0 3b 12 6f 36 3a a3 84 67 3c 85 d0 2a bc
       0.0053933803 0.00069593 0.014130744 -0.0104256915
0002b0 f8 42 1e bc 68 4d c4 bc 79 57 46 bc 38 e3 58 bc
       -0.009659521 -0.023962691 -0.012105816 -0.013237767
0002c0 16 49 b5 3a d8 2b 15 bd 53 80 b3 bc 60 2c eb 3b
       0.0013830985 -0.036418766 -0.021911776 0.007176921
0002d0 39 8b 12 bc 84 db 95 b9 c3 0b 44 3c 51 50 80 ba
       -0.008944326 -0.00028583047 0.011965695 -0.0009789561
0002e0 e5 ed 3d 3b 81 3e 16 bc 5b c9 78 3c 86 f7 3d bd
       0.0028980908 -0.0091701755 0.015184726 -0.046378635
0002f0 af e6 1e 3c f8 fd 82 3c 02 c9 0e bb 1d dd a4 3b
       0.009698554 0.015990242 -0.002178729 0.0050312416
000300 b8 44 d3 bb 1e 2d 8c bc be ea 0b bc 57 a2 40 bb
       -0.006447401 -0.017111357 -0.008539854 -0.0029393637
000310 8a 8d 8a 3b c7 73 32 bc e8 d2 6a 3b 7d 1c 08 3d
       0.0042282986 -0.010891861 0.0035831276 0.033230294
000320 60 69 2e bc 4a 5b 14 bc c1 a3 e3 3b 2d 4b 14 3c
       -0.010645241 -0.009054968 0.006947011 0.009051126
000330 e4 e6 07 39 6a 31 10 bd 73 dc ed 3c 93 7f 91 bc
       0.00012960617 -0.035203375 0.029035782 -0.017761027
000340 d9 97 8b 3c 6a 98 e7 bb 0f ea 9c bb ad ea 2c 39
       0.01704018 -0.0070677297 -0.004788644 0.00016490622
000350 b2 91 43 bc 58 d6 a4 bc ec ba fd 3c 72 6d 41 3b
       -0.011936592 -0.020121738 0.03097292 0.0029514697
000360 c9 48 e2 3c 21 7d d3 bc 15 92 a8 bb 52 1a 1f 3c
       0.027622597 -0.025816502 -0.0051443675 0.009710865
000370 b5 5b 77 bb 02 7b 64 3c f7 5a ed bc da ce be 3c
       -0.003774387 0.013945343 -0.02897404 0.023291994
000380 2b 78 89 3a 14 21 86 bc fc 29 95 3c cf 46 00 3c
       0.0010488083 -0.016373195 0.018208496 0.007829382
000390 61 f0 6a bc c6 50 d7 ba 77 7d 60 bc f7 5d 06 3d
       -0.014339537 -0.0016427271 -0.013701788 0.032804456
0003a0 ea b2 20 bd d5 9b 25 3c 02 b2 5d bc 32 5e be bc
       -0.039233126 0.010107954 -0.01353121 -0.023238275
0003b0 0e 08 1e bc e4 1c 3d bd 13 7f a3 bb 54 ab 4e bc
       -0.009645475 -0.04617013 -0.0049895137 -0.01261409
0003c0 53 d3 9b 3a 68 58 97 bc 1e 3a 19 bd ec 0e 6c bb
       0.0011888541 -0.018474773 -0.03740894 -0.0036019636
0003d0 6c 34 4c 3c 7a 99 5b bb ce e7 11 3c a9 05 58 3c
       0.01246367 -0.0033508227 0.008905364 0.013184943
0003e0 cf 06 ba 3c 21 f0 91 3b 3c ad 8c 3a de 12 0c bc
       0.022708325 0.0044536744 0.001073278 -0.00854942
0003f0 0f 3b 2a 3c 25 af 88 3a 0c 84 f6 bb ae 59 4c bd
       0.010390057 0.0010428174 -0.0075230654 -0.049890213

discrete_action_output_shape f4 [1, 4]
000000 00 00 40 40 00 00 40 40 00 00 40 40 00 00 00 40
       3.0 3.0 3.0 2.0

network_body._body_endoder.seq_layers.0.bias f4 [256]
000000 54 33 15 3b 3a db 0f 3c c4 bb 64 3c 10 b6 88 bb
       0.002276619 0.008780295 0.013960782 -0.004172094
000010 e6 8e e9 3c 81 6c c5 3a 7e b2 21 bb 90 86 21 bc
       0.028510522 0.0015062244 -0.002467304 -0.009858742
000020 b9 5f ea bb e8 d7 1e bb e5 75 35 3d 90 f4 d3 3c
       -0.0071525243 -0.0024237577 0.044301886 0.025873452
000030 6a d5 e2 3c bb c0 5b 3d 13 3e ac 3c a7 06 61 3d
       0.027689654 0.0536506 0.021025693 0.054937985
000040 f8 b8 76 3d aa 1f 1a 3d 3b ec a1 3c fa 9a 8e 3c
       0.060234994 0.037627853 0.019765964 0.017407883
000050 e2 b9 0c 3d db 0b 16 3d 92 72 91 3c c2 73 01 3d
       0.03435696 0.0366324 0.017754827 0.031604536
000060 1f a4 60 3d 92 dc cb b9 aa 10 44 3d b5 36 00 3d
       0.054844018 -0.00038883515 0.047867455 0.031302173
000070 d1 f8 9c 3d 2c 0a 74 3c a5 ef dd 3c ba 0b 72 bc
       0.076646455 0.014895003 0.02709181 -0.014773304
000080 35 95 3c 3d 82 33 f1 3c a9 be bd 3c e0 b0 2a 3d
       0.046040732 0.029443506 0.023162203 0.041672587
000090 39 c1 98 3c be bc 65 bc b7 d1 d6 3c 00 94 45 3d
       0.018646823 -0.01402205 0.026223047 0.048236847
0000a0 f5 db f9 3c 1a d4 c8 3b d2 26 81 3c 03 78 0a 3c
       0.030500391 0.0061288 0.015765581 0.008451465
0000b0 34 d6 56 3c cf 6e 1a 3c e3 f7 24 3d b3 64 33 3d
       0.013112593 0.009425833 0.040275466 0.043797206
0000c0 28 08 41 3d 08 11 48 3b bd 20 30 3d a1 b8 cd 3c
       0.04712692 0.003052773 0.04299997 0.025112452
0000d0 b8 4a cc 3c aa af 97 3c 9f 6d 79 3d 7b 72 8d bc
       0.024937972 0.01851638 0.06089556 -0.017266503
0000e0 d2 39 d0 3c 95 b1 1d 3d b0 46 5d 3c df 9d 6e 3c
       0.025418196 0.038499434 0.013505623 0.014564007
0000f0 7d 16 43 3c 07 36 4b 3d 5f e7 14 3d f5 74 40 3d
       0.011907217 0.04961207 0.036353465 0.04698654
000100 5c 55 52 3d 8e 85 c6 3c 26 86 b4 3d 6f 61 29 bc
       0.051350936 0.024233606 0.08814649 -0.010338171
000110 84 21 48 3a 50 00 b4 3c d1 f3 da 3c 03 02 fe bb
       0.0007634389 0.021972805 0.026727589 -0.0077517047
000120 9f e2 6c 3c 83 cc 36 3c c2 72 ae ba 49 95 ce 3c
       0.014458328 0.011157158 -0.0013309347 0.02521767
000130 17 88 02 3c 2b 94 3a 3d a3 ef 7f 3c 4a f3 10 3c
       0.007967017 0.04555146 0.015621099 0.008847067
000140 96 f9 95 bb 95 8d 78 bc eb ba 10 3d 1a c5 57 bb
       -0.004576872 -0.015170475 0.03533451 -0.0032923878
000150 d7 98 20 3d 07 e8 ab 3d aa 9d 95 bc fa 90 8d 3b
       0.03920826 0.08393865 -0.018263657 0.004320261
000160 1a 4f 96 3c d6 fd d3 ba d2 34 43 3d bf ca 76 3c
       0.018348265 -0.0016173671 0.047657795 0.015062987
000170 f0 dc 70 3d 29 8b 36 3d c2 0d 02 3d 8b bd 8c bb
       0.058804452 0.044566307 0.0317514 -0.004295056
000180 a0 2b 17 3d 63 e3 51 3d e5 e1 fb bc 93 98 3f 3d
       0.03690684 0.051242243 -0.030747363 0.046776365
000190 86 cb c7 3c 9b 6f d9 bb f6 f7 e4 bb 26 9e f7 3c
       0.02438904 -0.006635619 -0.006987567 0.030226778
0001a0 a7 d4 20 3d bf 8d 36 3d 73 2a 64 3d 5c d4 c0 3c
       0.0392653 0.044568773 0.055704545 0.02353876
0001b0 6a 0c 18 bc 60 2f 98 3c c3 13 01 3c 7f 6b 4f 3d
       -0.0092803035 0.018577278 0.007878247 0.050639626
0001c0 28 43 0e 3d d5 c0 c1 3c b7 47 ce 3c 17 d0 41 3c
       0.034732014 0.02365152 0.02518068 0.011829398
0001d0 bd 8f ac 3c 80 92 d8 3c 88 8f 96 3c fd 7e 94 3c
       0.021064634 0.026437044 0.018378988 0.018126959
0001e0 c0 71 a9 3c c3 c4 74 3d 9e da ea 3b 55 a2 40 3b
       0.020684123 0.05975796 0.0071671745 0.0029393632
0001f0 0a c5 ff 3b 9e a2 6f 3c fb 7b 31 3d 59 45 95 3b
       0.0078054713 0.014626173 0.043331128 0.004555386
000200 a9 67 16 3d a2 b8 56 3d 3f b0 8e bb a4 14 07 3d
       0.03671995 0.052422173 -0.0043545063 0.03297867
000210 c2 d9 2b bb 6d 4a eb 3b 53 67 2a 3d 73 1f 69 3d
       -0.0026222323 0.007180503 0.041602444 0.056914758
000220 84 44 b2 b8 48 12 9b 3c 97 8b a1 3c 6f ce 48 3d
       -8.5004634e-05 0.018929616 0.019719882 0.049024995
000230 0e f3 11 3d cb 7b 23 3d 74 73 8d bc 36 36 5e 3c
       0.035632186 0.03991298 -0.017266966 0.01356273
000240 80 cf 21 3d 8f f2 85 3d e9 03 94 3d 77 63 45 3d
       0.039504528 0.06540405 0.07227308 0.04819056
000250 d7 4d 45 3d 3f f2 57 3d 67 71 e3 3c 65 06 1a 3c
       0.048169937 0.05272126 0.027764035 0.009400939
000260 7f ff fc 3c 5c 57 17 3d ce 73 2a 3d 86 ac 82 3c
       0.030883549 0.036948547 0.041614346 0.015951406
000270 17 28 68 3d 34 39 6c 3c 5a fa ad 3c f3 ef e5 ba
       0.056678858 0.014417935 0.021237541 -0.0017542824
000280 2b 4b 37 3d 83 94 ce 3c 88 77 82 3d 0c 9b 6c bc
       0.04474942 0.0252173 0.06370455 -0.014441263
000290 6f e4 b2 3b 5d 50 2b 3d 07 ad a5 3c 70 63 af 3c
       0.0054593603 0.041824687 0.020224107 0.02140972
0002a0 6c a1 ca 3c 57 94 91 3b d2 92 95 3d 0c 8b 96 3d
       0.024735175 0.0044427323 0.073033944 0.0735074
0002b0 b2 34 0e 3c 1a 1e f6 3b 51 e8 66 3c 3e 32 b0 3a
       0.008679556 0.0075109126 0.0140934745 0.0013442708
0002c0 8c b7 94 3b 8e a0 a7 bc dc 1b c5 3c 32 17 e4 3c
       0.004538482 -0.0204623 0.024061136 0.027843092
0002d0 ec e6 07 3d 81 d4 df 3c 14 59 04 3d 63 74 e0 3c
       0.03317921 0.02732301 0.032311514 0.027399248
0002e0 12 17 eb 3c 02 e1 08 3c eb f1 0b bc e4 a5 2d 3d
       0.028697524 0.008354427 -0.008541564 0.042394534
0002f0 61 d5 5b 3d 0d e3 d7 3a 3c 97 c5 bc 13 53 3c 3d
       0.05367029 0.0016470865 -0.024119966 0.045977663
000300 02 1e c4 3b bf 2f 49 3c ec d4 83 3c 66 1e de 3c
       0.0059850225 0.01227945 0.01609274 0.027114104
000310 8e d3 a6 3c 09 49 3b 3d 8f ac c0 bb f4 f5 1b 3d
       0.020364549 0.04572395 -0.0058799456 0.038076356
000320 23 17 fc 3c 6b 33 16 3d 91 67 b9 bb 48 00 40 bb
       0.030772751 0.03667013 -0.005658098 -0.0029297043
000330 ce 3b 24 3d 08 c5 5e bc 4a c2 1e 3d d8 d1 23 3d
       0.040096097 -0.013596781 0.038759507 0.039995044
000340 cd 1e 17 3d e2 01 e5 3c ef c8 c8 3c c0 85 cc 3b
       0.03689461 0.027955 0.024509875 0.00624153
000350 4a 34 f3 3c 24 ad d9 3c 22 73 cf 3c b0 c9 e5 3c
       0.02968802 0.026571818 0.025323454 0.028050274
000360 e5 01 15 3c a2 4b cd 3c 7c 81 cc 3c d5 52 46 3d
       0.00909469 0.025060479 0.024964087 0.04841884
000370 e5 37 0c 3d 5e 79 15 3c fc 3b aa 3b 10 b8 4f 3d
       0.034232993 0.0091231745 0.005195139 0.050712645
000380 cf 8e cc ba d3 ce 58 bc b6 54 e8 ba 6e 55 d0 bb
       -0.0015606525 -0.0132329045 -0.0017725441 -0.0063578403
000390 fa eb 90 3c 85 01 56 3c bd 23 8b 3c e5 ba 23 3d
       0.017690647 0.013061886 0.016984815 0.03997316
0003a0 57 4d 7a 3c dd 12 81 3d c1 de ee 3c ec da e8 3b
       0.015277228 0.06302426 0.029158952 0.0071061756
0003b0 5f 62 41 bc 42 ce a6 3c 2e af 1f 3d b2 7f 84 3d
       -0.011803239 0.020362023 0.038985424 0.064696684
0003c0 37 b4 e1 3c 0f 03 15 3b ca 3f 9b 3c 9a de d4 3b
       0.027551753 0.0022737419 0.018951315 0.0064962627
0003d0 28 b3 62 3d 37 28 7e bc 92 0c 30 3d 1d a3 04 3d
       0.055346638 -0.015512518 0.042980738 0.03238212
0003e0 17 4c 47 3c d0 14 89 3c 20 d8 88 3c d2 31 1c 3c
       0.012164137 0.016733557 0.016704619 0.009533362
0003f0 46 bb a1 3c da 81 c7 bb ed 34 4f bc 55 e1 f2 ba
       0.01974262 -0.0060884776 -0.012646896 -0.0018530289

network_body._body_endoder.seq_layers.0.weight f4 [256, 11]
000000 9d ac ea be be f4 0f 3e b9 56 1b bf 72 23 83 3d
       -0.45834818 0.14058205 -0.60679203 0.06403245
000010 33 90 8d bd 85 2d cd 3e b4 e0 4c be 36 c2 09 3f
       -0.069122694 0.4007379 -0.20007592 0.5381197
000020 27 a7 6a bd 1e e4 01 be 78 0f 36 bf 2b fb 28 3f
       -0.057288315 -0.12684676 -0.71117353 0.6600825
000030 8c 9f 14 3f e8 01 5a be 9d 0f 22 3e b5 b6 45 3e
       0.5805595 -0.2128979 0.15826268 0.19307978
000040 81 2d 2d 3f 97 7b 07 3f 4a bf 8a 3e f7 1d 72 be
       0.6764756 0.5292296 0.27099067 -0.23644243
000050 2b 0b 2e 3e de ac ca bd cd aa bc 3e 7c 47 c1 bc
       0.16996448 -0.09896253 0.3684906 -0.023593657
000060 c1 ed 75 be ca 4f ca bd 74 19 c9 3e c6 c7 a5 be
       -0.24016477 -0.098785 0.39277232 -0.32378978
000070 a7 c5 8a 3b b8 8b ef be ba 95 1d 3e b3 4a 1c 3e
       0.004234988 -0.46786284 0.15389147 0.1526287
000080 4e b8 7a be 5f 26 03 3f 89 ea 84 be a8 eb 53 be
       -0.24484369 0.51230425 -0.25960186 -0.20695364
000090 e6 a1 66 3d 42 4e 1b bc c5 34 ef 3e 2a c2 89 3d
       0.056306742 -0.009479107 0.46719947 0.06726487
0000a0 57 a9 ad 3e 6d 68 45 3e c0 eb 7e bc e0 3d 01 3e
       0.3391826 0.19278117 -0.015559137 0.1262126
0000b0 5a 29 a3 be 6d 57 53 3e 75 7e b5 be c5 b3 6f 3d
       -0.31867486 0.20638819 -0.35448042 0.05852105
0000c0 5c 34 d6 3e fa 1a 06 bf c6 a5 81 be 2e 86 f3 bd
       0.41836822 -0.5238491 -0.25321788 -0.11890827
0000d0 fa 62 16 be 67 26 01 be 99 fc 8b 3e f0 3f 29 be
       -0.14686194 -0.12612306 0.27341154 -0.16528296
0000e0 54 98 0d 3e f6 7e 97 bc 2c 9c 87 be 13 25 43 bc
       0.1382764 -0.018493157 -0.26486337 -0.011910695
0000f0 67 5b 34 bf b7 99 01 bf f3 b9 79 be 9c 8d 04 bf
       -0.7045197 -0.50625175 -0.2438734 -0.5177858
000100 43 11 71 3e 18 08 4e 3e 32 5b a7 bd d0 d3 15 be
       0.23541741 0.20120275 -0.08171691 -0.14631581
000110 f4 3e 43 be a0 ca 43 be 79 78 a7 bd 15 06 40 3d
       -0.19066983 -0.19120264 -0.08177275 0.0468808
000120 ac 09 2c bf cf 11 0c 3f 05 4f 83 3d 44 16 03 3e
       -0.6720226 0.54714674 0.06411556 0.12801462
000130 46 c9 9b 3e d3 be 76 3e fd f8 b7 3e 37 88 a8 bd
       0.30426997 0.24096231 0.3593215 -0.08229106
000140 6d ef 05 bf 7f c2 11 3e ad f7 4a 3d 58 d7 8b bd
       -0.5231846 0.1423435 0.04955261 -0.06828183
000150 97 8e 2f be 3f 2d 44 3f 2e f1 64 3d 0f fe 31 3e
       -0.17144237 0.7663154 0.05589407 0.17382072
000160 2c d1 19 3f 0b 58 d1 3e 03 4d 6b be 7b 6f 34 3e
       0.60084796 0.40887484 -0.22978596 0.17620651
000170 f3 34 b2 be d9 98 ed 3e 33 5d d9 bd f1 a9 b2 be
       -0.34806022 0.46405676 -0.106134795 -0.3489528
000180 e3 95 2c 3f ba 2f a3 3d 05 c7 a7 bc cf 24 98 be
       0.6741621 0.079680875 -0.020480642 -0.29715583
000190 54 3f 6e 3d ab 44 cf be 4b e7 12 be 12 64 91 be
       0.058165863 -0.40482077 -0.14346044 -0.2839666
0001a0 29 28 83 3e 61 20 07 3f e1 1e ae 3e 97 a5 16 be
       0.25616577 0.5278378 0.34007934 -0.14711605
0001b0 42 fa 3f 3f 79 7f 0a bd 3c 58 d2 be 65 65 98 3d
       0.7499124 -0.033812974 -0.41082942 0.074412145
0001c0 88 16 87 3e 17 3f 60 be 3e 04 15 bc da e5 8f 3e
       0.26384377 -0.21899067 -0.00909525 0.2810505
0001d0 f4 5d 8f bc b4 b4 c2 be 68 06 0d 3f c2 81 8d 3e
       -0.017500855 -0.3802849 0.550879 0.2763806
0001e0 91 53 17 be 28 bb 32 3f 8e 2d 89 3d de 24 91 3c
       -0.14777972 0.6981683 0.06698142 0.017717775
0001f0 b3 67 15 bf a2 ab 9e bd ac 6d ca be b5 01 ca bd
       -0.5836136 -0.0774758 -0.39536798 -0.09863607
000200 b4 b8 31 be b1 d1 b5 3e 0c d3 81 be ce ce dd 3e
       -0.17355615 0.35511544 -0.25356328 0.43321842
000210 92 0d 32 3d 74 a1 53 bf 4c 28 f8 3d a8 fc c4 be
       0.043469973 -0.8266823 0.12117061 -0.3847401
000220 e7 74 88 be a3 0a 8d 3e 19 3d 2b 3e 31 a9 39 be
       -0.2665169 0.27547178 0.16722526 -0.18130948
000230 c7 28 0b 3f 46 c3 e6 bd 12 5a 4b be 2c b3 4f 3e
       0.54359096 -0.11267714 -0.19858578 0.20283192
000240 7b f8 b6 bd 23 3c 07 3f ae 92 2c 3e ca 5d df be
       -0.08934113 0.52826136 0.16852829 -0.43626243
000250 69 8b 37 3e 99 87 68 3e 00 1a ec 3d 70 74 fc bd
       0.17924275 0.22707976 0.115283966 -0.12326896
000260 a7 5b a2 3e 14 93 e6 3d a9 c3 f1 be f4 ca 51 bd
       0.3171055 0.11258522 -0.4721959 -0.05121894
000270 8f e6 7a 3e 51 19 c1 bc 07 8d 14 bf 92 20 d5 3e
       0.24502014 -0.023571642 -0.5802769 0.41626412
000280 14 f2 21 bc 17 3b ec 3e b5 24 64 3e 8d 35 fe 3e
       -0.009884376 0.46138832 0.22279628 0.4965023
000290 21 ef 04 3f 0f 4e b2 3c f5 02 58 be 0b e7 f8 3e
       0.5192738 0.021765737 -0.21094878 0.48613772
0002a0 e5 52 a7 3e 34 ab f3 3d 0d ce dd be 19 27 ec 3e
       0.3268043 0.11897889 -0.43321267 0.4612358
0002b0 74 21 91 be 33 21 56 bf 13 95 cc 3d 0e d7 fc bc
       -0.28345835 -0.8364441 0.09989371 -0.030864265
0002c0 c1 5e 34 bf 40 92 0f 3f 4d a7 29 3c 65 e9 91 3e
       -0.70457083 0.56082535 0.010354829 0.28498378
0002d0 ad 09 bc bd 0a a8 28 bd 5e 20 bb 3d a5 ae 99 3d
       -0.09181533 -0.04117588 0.09137033 0.07504014
0002e0 4c e7 04 3e 45 ba bf 3e 3a a4 50 be d9 01 87 be
       0.12978858 0.374468 -0.20375147 -0.26368597
0002f0 d7 74 8d 3d c7 2c 06 be 2d 72 8a 3e 98 5a 91 3e
       0.06907051 -0.13103019 0.27040234 0.2838943
000300 87 fa a1 3e 8a 38 0f be 83 a3 93 be 53 03 56 3e
       0.3163645 -0.13986412 -0.28835687 0.20899706
000310 d7 63 44 3b e1 bb 1e be a2 ca 45 3e 4c 1f 39 3f
       0.0029966736 -0.15501358 0.1931558 0.7231338
000320 58 ee bc be d7 7f 1e bf 60 02 37 bf de 25 0e bc
       -0.36900592 -0.6191382 -0.71488 -0.00867602
000330 57 42 67 bd b1 e6 9a 3d 2a a6 8f bd c2 96 2c 3d
       -0.05645975 0.07563532 -0.07014115 0.04213596
000340 8a d0 f9 3e 92 9d 7c be 69 f9 c5 3e 18 d9 0d bd
       0.48791915 -0.24669483 0.38666847 -0.034630865
000350 9e 87 1f 3e c1 a6 f6 3e 52 14 a1 bd c6 f5 68 be
       0.15579078 0.48174098 -0.07865204 -0.22750005
000360 0c 2d 17 3d a7 19 69 3e 9c a2 1e 3d 36 75 5f 3d
       0.036908194 0.22763692 0.038729295 0.05455514
000370 b9 c4 08 bf 3b e3 ce bd bb f6 e8 be 6a 29 c1 3e
       -0.53425175 -0.101019345 -0.4550074 0.3772691
000380 61 44 f0 3e 00 ce 17 bd 7e d5 f2 3b 4c b6 5c be
       0.4692717 -0.03706169 0.007410704 -0.21553916
000390 d6 e9 2d 3d c4 a3 3b bc 21 bb a7 bd 53 e7 c5 be
       0.04245933 -0.011452619 -0.08189989 -0.3865305
0003a0 e2 7f 77 be 26 cb 91 3e 85 8f 03 3e a6 61 8c 3e
       -0.24169877 0.28475302 0.12847717 0.2741825
0003b0 ba be 81 be c9 b5 95 3e 77 2f 98 be d0 c5 82 3e
       -0.25340825 0.29240254 -0.29723713 0.25541544
0003c0 9a d7 89 bd a8 08 23 3e 72 e8 42 3f e8 9d 14 3f
       -0.06730576 0.15921271 0.76135933 0.58053446
0003d0 f7 01 1b bf cf 81 4a 3e 7c 15 8e 3e 97 02 ca be
       -0.60549873 0.1977608 0.27750766 -0.394551
0003e0 41 8c 8d be 22 d1 1a 3f fb bf d1 bc 66 45 6d be
       -0.27646068 0.6047536 -0.025604239 -0.23171005
0003f0 c6 d9 bc bd 68 f6 fc 3c 4c 5a f6 bd 44 2a e3 be
       -0.092212245 0.030879214 -0.120289415 -0.44368184
