results/VB_1/Volleyball/Volleyball-999993.onnx (onnx, 291913 bytes, 15 tensors)

97 f4 [11]
0	0x3ea66bc7	0.32504103
1	0x3ea5adc8	0.32359147
2	0x3eb8dee8	0.36107564
3	0x3f203df2	0.6259452
4	0x40c4336d	6.1312776
5	0x4027ebec	2.6237745
6	0x413c30ee	11.761946
7	0x4010eae4	2.2643366
8	0x40d4aa53	6.6457915
9	0x404f963e	3.243545
10	0x403a72d4	2.9132586

action_model._discrete_distribution.branches.0.bias f4 [3]
0	0x3abaf928	0.0014264928
1	0x3bb4006e	0.0054932153
2	0xbbf52b1c	-0.0074819457

action_model._discrete_distribution.branches.0.weight f4 [3, 256]
0	0xbb4f945b	-0.003167412
1	0xbc0650b3	-0.008197951
2	0x3cc2d7af	0.023784487
3	0x3c0b815c	0.008514728
4	0x3b0a415a	0.0021096081
5	0xbc79c111	-0.0152437845
6	0x3c002348	0.007820912
7	0xbbd54959	-0.006508988
8	0x3c1c8a15	0.009554406
9	0x3c12eee3	0.008968088
10	0xbcb4dd64	-0.022078224
11	0xbc561f1f	-0.013068943
12	0xbb529c7c	-0.003213673
13	0xbca50464	-0.020143695
14	0xbbfd1cc0	-0.0077243745
15	0xbc2391e5	-0.009983514
16	0xbd003aca	-0.031306066
17	0x3c8cbec3	0.017180806
18	0xbc34d429	-0.011036911
19	0xbcc2a4ab	-0.02376016
20	0x3c6c848b	0.014435898
21	0x3c0914f1	0.008366809
22	0x3bd3c4b7	0.006462659
23	0x3ba3c0b7	0.0049973386
24	0x3c0150d2	0.007892804
25	0x3b5ca34f	0.0033666675
26	0xbaa01127	-0.0012212143
27	0xbc67b1f6	-0.01414155
28	0xbc8c1264	-0.017098613
29	0x3bc4c2e7	0.0060046795
30	0xbc3dac20	-0.011576682
31	0x3bcb716d	0.0062085898
32	0xbb9e8f96	-0.004838894
33	0x3bee8748	0.0072793104
34	0x3b572ae4	0.0032831961
35	0xbc06b746	-0.008222407
36	0x3c209f55	0.009803613
37	0x3cc79ffc	0.024368279
38	0x3bcb31fd	0.0062010274
39	0x3c87cc0b	0.016576787
40	0x3b399182	0.002831549
41	0x3aa44b2a	0.0012534608
42	0x3cd22dd8	0.025656626
43	0x3c872260	0.016495883
44	0x3d0b2f09	0.033980403
45	0xbc653f8f	-0.013992204
46	0xbb43821c	-0.002983219
47	0x3cd84b9d	0.026403243
48	0x3c2fcfc1	0.010730685
49	0x3c9ee716	0.0193973
50	0x3d270f19	0.040785883
51	0x3b76f4f6	0.003768263
52	0xbca343da	-0.019929815
53	0x3cb48aca	0.022038836
54	0xbc418b32	-0.011812972
55	0xbc73a633	-0.014871168
56	0x3a58ff9d	0.00082778354
57	0xbc0239f0	-0.007948384
58	0xbc807e3d	-0.015685195
59	0xbc085174	-0.008320201
60	0xbbe99362	-0.007128165
61	0x3c3b6311	0.0114371935
62	0x3ca81e0f	0.020522146
63	0x3c5838b0	0.013197109
64	0xbbb052d5	-0.005380968
65	0xba782deb	-0.00094672915
66	0xbc95454e	-0.018221524
67	0x3be0c546	0.0068594543
68	0x3c4b39a6	0.012403881
69	0xbcfa4359	-0.030549692
70	0xbbb6c1fc	-0.005577324
71	0x3c3109c6	0.010805553
72	0xbcb3dfb8	-0.021957263
73	0x3ca550f5	0.020180205
74	0xbcc5f279	-0.024163472
75	0x3c9bdabb	0.019025197
76	0xbb968209	-0.004593138
77	0x3ba5d8d4	0.0050612483
78	0x3bf95857	0.007609408
79	0xba27a856	-0.00063956284
80	0xbc8fe062	-0.017563049
81	0x3c2375f8	0.009976856
82	0x3bb580a4	0.005539017
83	0xbbf1b604	-0.0073764343
84	0x3a84a93e	0.0010121239
85	0xbbd2843a	-0.006424454
86	0xbc8f2ae0	-0.0174765
87	0xbb20ca8e	-0.0024534795
88	0xba8869b7	-0.0010407482
89	0xbcc804c2	-0.024416331
90	0x3735bc20	1.0832242e-05
91	0xbc92b8d6	-0.017910402
92	0x3c6dcf0f	0.014514699
93	0xbb458e72	-0.0030144718
94	0xb9e42eaa	-0.00043522316
95	0x3bf1f75c	0.007384224
96	0xbc3002b7	-0.010742835
97	0x3b32025e	0.0027162055
98	0x3cfe0551	0.031008394
99	0xbbe4064d	-0.006958759
100	0x3babaf07	0.0052393707
101	0x3c8239f6	0.015896779
102	0xbb0fbd24	-0.0021932805
103	0x3cdb15d4	0.026743807
104	0x3c018a7b	0.0079065515
105	0x3b3a4d27	0.0028427334
106	0xbc4130c3	-0.011791411
107	0x3c05a067	0.008155919
108	0x3b5ee738	0.0034012329
109	0x3ad0ff40	0.0015945211
110	0x3b9a86ae	0.004715762
111	0xbc867a18	-0.01641564
112	0xbbbac6a2	-0.0056999484
113	0x3bba04c3	0.005676837
114	0x3a946c2f	0.0011323745
115	0x3c2133b5	0.009838988
116	0xbba6a5b0	-0.0050856695
117	0x3c87ae90	0.01656273
118	0x3c25726d	0.010098082
119	0x3bd6f284	0.006559672
120	0xbc4a0d1d	-0.012332228
121	0x3ac81058	0.001526366
122	0xbbd0d153	-0.0063726096
123	0x3c4943bc	0.012284216
124	0xbcdd44ae	-0.027010288
125	0xba52937f	-0.0008032843
126	0xbd2b228a	-0.041780986
127	0xbd06f1bd	-0.032945383
128	0xbac68188	-0.0015144804
129	0x39a1673a	0.00030785223
130	0x3c30ec8e	0.0107985865
131	0x3c7d4dc8	0.015460439
132	0x3b0269cd	0.0019899488
133	0x3c41ab16	0.011820575
134	0x3befaa3a	0.0073139938
135	0xbd01af32	-0.03166122
136	0x3c1e7c94	0.009673256
137	0xbbfb15cd	-0.007662511
138	0x3bd7e746	0.0065888492
139	0xbbd7aa93	-0.0065816133
140	0xbceaf7b0	-0.02868256
141	0xbbc98f5d	-0.0061511234
142	0xbc92b456	-0.017908257
143	0xbb86b79e	-0.0041112443
144	0xbc045957	-0.008077941
145	0x3c65eb8a	0.014033208
146	0x3933a123	0.00017130798
147	0x3b08be4b	0.0020865377
148	0xbc81ea94	-0.015858926
149	0xbc3609b8	-0.011110716
150	0xbc6a61a9	-0.014305511
151	0x3cb8c953	0.022556936
152	0x3ad30307	0.0016098925
153	0xbcbe6654	-0.023242153
154	0xbbea54ab	-0.0071512065
155	0xbc9f3577	-0.019434674
156	0xbca76149	-0.020432131
157	0xbc87d807	-0.016582502
158	0x3d059e74	0.032621816
159	0x3ca01c44	0.019544728
160	0xbd1ef42d	-0.038807083
161	0xbbc8a05a	-0.006122631
162	0xbcb5cf9b	-0.02219372
163	0xbc3eb2a2	-0.011639269
164	0xbc3acc88	-0.011401303
165	0xbcc8a997	-0.02449493
166	0xb9957264	-0.00028504722
167	0xbba93fc1	-0.0051650708
168	0xbcda6b4d	-0.026662493
169	0x3c832682	0.016009573
170	0xbbc2a94b	-0.0059405915
171	0xbcc03366	-0.023462009
172	0xbd031d96	-0.032010637
173	0x3d075d9e	0.033048265
174	0x3bea5f88	0.0071525015
175	0xbc54df4e	-0.012992693
176	0x3bfe702f	0.007764838
177	0xbb4dffc8	-0.0031432975
178	0x3bfeece0	0.0077797025
179	0xbb8e1646	-0.0043361513
180	0xbcba986d	-0.02277776
181	0xb9276d68	-0.00015967118
182	0x3b715d20	0.0036829188
183	0x3b88d461	0.004175708
184	0x3c28de54	0.010306913
185	0x3c79e6f0	0.015252814
186	0xbb1e9aea	-0.0024201223
187	0xba98a42f	-0.001164561
188	0xbc06981f	-0.008214979
189	0x3b8af83a	0.0042410167
190	0x3c974959	0.018467592
191	0xbc3be278	-0.011467569
192	0xbb871ef6	-0.004123564
193	0x3c1bf2c3	0.009518328
194	0x3b5b3194	0.00334463
195	0x3c236e95	0.009975095
196	0x3a8b758c	0.001063989
197	0xbbed42de	-0.007240637
198	0xbc07ac03	-0.008280757
199	0x3b75eb72	0.003752437
200	0x3c00ded5	0.007865627
201	0x3aac2d97	0.0013136145
202	0xbc0390be	-0.008030115
203	0xbb28e8fb	-0.0025773633
204	0xbca98232	-0.020691965
205	0xbb2a4272	-0.0025979546
206	0x3d0c249c	0.0342146
207	0x3c49568e	0.012288703
208	0xbc8c024d	-0.01709094
209	0xbab70bd9	-0.0013965323
210	0xbc2cc61e	-0.010545282
211	0xbc21fec5	-0.009887402
212	0xb9848f50	-0.00025283778
213	0xbb26da61	-0.0025459754
214	0x3c0affd0	0.008483842
215	0x3bc8b198	0.0061246864
216	0xbb93dc67	-0.004512358
217	0xbbc2ea44	-0.005948337
218	0x3c8ef38f	0.017450122
219	0xbc94fcd9	-0.018186973
220	0x3c2bbd2d	0.010482115
221	0xbcce40ec	-0.025177442
222	0x3c512061	0.012764067
223	0x3b544de2	0.0032395055
224	0xbb1c9e03	-0.0023897893
225	0x3c0540b2	0.0081331
226	0xbadb3a88	-0.0016725818
227	0xbb890d8c	-0.004182523
228	0xbc9e084f	-0.019291071
229	0x3c9e5d49	0.019331591
230	0xbbd2eba7	-0.0064367834
231	0xbb8f8360	-0.004379675
232	0xb9bab56c	-0.00035611854
233	0xbc44c9d3	-0.012011009
234	0xbc042241	-0.008064807
235	0xbc966e91	-0.018363269
236	0xbc8624b3	-0.016374921
237	0x3b4f038e	0.0031587812
238	0xbbbc475b	-0.005745811
239	0xbafdf6c2	-0.0019375908
240	0xbba0b6ff	-0.0049046273
241	0x3501f3ba	4.8410914e-07
242	0x3c8d96c6	0.017283808
243	0xbca068b7	-0.019581182
244	0x3c19a16d	0.009376866
245	0x3ce04174	0.02737496
246	0xbc20fcc0	-0.009825885
247	0xbcac75cf	-0.02105227
248	0xbc895e91	-0.016768726
249	0xbb4576d4	-0.0030130642
250	0xbbb3a561	-0.005482361
251	0x3c7eecc4	0.015559379
252	0x3b9abc54	0.0047221575
253	0x3c4c878d	0.01248349
254	0xbc8dbf13	-0.017303025
255	0xbb8f945e	-0.0043817004

action_model._discrete_distribution.branches.1.bias f4 [3]
0	0x3c222129	0.009895601
1	0xbd0a32f0	-0.033739984
2	0x3cb09655	0.021556059

action_model._discrete_distribution.branches.1.weight f4 [3, 256]
0	0x3c0142a1	0.007889421
1	0xbc8df79b	-0.017329982
2	0x3c26985c	0.010168161
3	0xbbf398f1	-0.0074340035
4	0xbc62c004	-0.013839725
5	0xbc14844a	-0.009064743
6	0xbc717ee6	-0.014739728
7	0xbc869576	-0.01642869
8	0xbc946dfa	-0.018118847
9	0x3c9ef3a3	0.019403284
10	0xbc6a94b7	-0.014317683
11	0xba988abb	-0.0011638025
12	0xbcae12ed	-0.021249259
13	0xbbe1f568	-0.00689571
14	0xbaba93be	-0.0014234704
15	0x3c5b073a	0.013368422
16	0xbc2e5baf	-0.010641976
17	0x3c477362	0.0121735055
18	0xbaf76538	-0.001887477
19	0xbbf440de	-0.007454022
20	0x3d020686	0.031744502
21	0xbcfe801a	-0.031066943
22	0x3a910ace	0.0011065842
23	0x3c39a7ae	0.011331482
24	0xbca1be59	-0.019744085
25	0xbc24e732	-0.010064887
26	0xbb585a56	-0.0033012829
27	0xbc227bce	-0.009917213
28	0x3cb566a6	0.022143673
29	0xbc530f6c	-0.012882095
30	0xbc3c8007	-0.0115051335
31	0x3cd389d2	0.025822554
32	0xbbd882c1	-0.006607384
33	0xbcdf2791	-0.027240546
34	0x3c095116	0.008381149
35	0xbb129c42	-0.002237097
36	0xbc06457d	-0.008195278
37	0x39c8bcd0	0.0003828765
38	0xbaebcc04	-0.0017989879
39	0x3c54f69d	0.01299825
40	0x3b6ba808	0.0035958309
41	0x3c47ccdf	0.012194841
42	0x3cbbf268	0.022942737
43	0xbb2df957	-0.0026546323
44	0x3ca19348	0.01972355
45	0x3bede32f	0.0072597484
46	0xbc96683d	-0.018360252
47	0x3c740e42	0.014895977
48	0xbba533f3	-0.005041593
49	0x3a2b4441	0.0006533303
50	0xbaf7a039	-0.0018892355
51	0x3b9d87ce	0.004807449
52	0xbc909fda	-0.017654348
53	0xbc51f77b	-0.012815352
54	0xbc8d05c4	-0.017214663
55	0x3b1eba0d	0.0024219782
56	0xbbf18296	-0.0073703034
57	0xbc848514	-0.016176738
58	0x3bcdc484	0.00627953
59	0x3c13ad67	0.00901351
60	0x3cb6af80	0.022300482
61	0x3ca1ee10	0.019766837
62	0xbc37566e	-0.01119004
63	0xbca6f892	-0.0203822
64	0x3c855752	0.01627699
65	0x3d068097	0.032837477
66	0xbc70c5c3	-0.014695588
67	0x3c1036fc	0.008802172
68	0xbc13a2e3	-0.009011003
69	0x3a6eecd8	0.0009114272
70	0xbc41aa2f	-0.01182036
71	0x3be96910	0.00712312
72	0x3afdd0c7	0.0019364589
73	0x3cb8bd16	0.0225511
74	0xbbe28534	-0.0069128517
75	0xbbcc1dd8	-0.0062291436
76	0x3cc01109	0.023445623
77	0xbb1c1a58	-0.0023819413
78	0xbb8164ee	-0.0039487993
79	0x3c6cdb84	0.0144566335
80	0x3ae1dfc7	0.0017232829
81	0xbc5ae6f4	-0.013360728
82	0xbc4fef73	-0.0126913665
83	0xbae8e346	-0.0017767928
84	0xbc911c1b	-0.017713597
85	0xbb152770	-0.0022759102
86	0xbb6b6ef9	-0.00359243
87	0xbc1ffd67	-0.009765006
88	0xbbc1461b	-0.00589825
89	0x3bb67a61	0.005568788
90	0xbc92ff26	-0.01794393
91	0xbb14b006	-0.0022687926
92	0xbcadae57	-0.021201296
93	0xba552830	-0.00081312936
94	0xbc44dc8e	-0.012015475
95	0xbb4f1701	-0.0031599405
96	0xbce0d22a	-0.027443964
97	0xbc2e2166	-0.01062808
98	0x3c953436	0.018213373
99	0xbc22ac42	-0.009928765
100	0xbcb4da0d	-0.022076631
101	0xbcb03b68	-0.021512702
102	0xbbb4fdcf	-0.0055234204
103	0x3cbaf1ef	0.022820441
104	0xbb39c796	-0.0028347722
105	0x3b6f344f	0.0036499684
106	0x3c701391	0.0146531025
107	0xbb9a4933	-0.004708433
108	0xbc019fbe	-0.007911621
109	0x3c7a47c8	0.015275903
110	0xbbc05d8e	-0.0058705276
111	0x3c736595	0.014855762
112	0x3b01c4a6	0.001980105
113	0xbc4143e5	-0.0117959725
114	0xbcdb6413	-0.026781118
115	0xbc429396	-0.011876008
116	0xbc258c73	-0.0101042865
117	0xbc4086a4	-0.011750851
118	0x3c1cfd3b	0.009581859
119	0xbbd41a6a	-0.0064728754
120	0xbc2d7b68	-0.010588504
121	0x3c18df4d	0.009330583
122	0x3c5c0122	0.013428004
123	0x3be74178	0.007057365
124	0xbcb2394b	-0.021755835
125	0xbc2be3f9	-0.010491365
126	0xbc1a8742	-0.009431662
127	0xbb19ebd9	-0.0023486523
128	0x3c0c932e	0.008580012
129	0xbab9198f	-0.0014121997
130	0x3cad806d	0.021179402
131	0xbc17bb7b	-0.009261007
132	0x3bdf574b	0.006815826
133	0xbb61a7ad	-0.0034432218
134	0x39f9e6ce	0.00047664944
135	0xbba93916	-0.005164276
136	0x3cc174b8	0.023615226
137	0xbb7b5967	-0.0038352848
138	0x3cdeb716	0.027186912
139	0xbb172551	-0.0023063014
140	0xbc842200	-0.016129494
141	0x3c01dee1	0.007926674
142	0xbc6e252e	-0.0145352315
143	0x3b89c39f	0.004204228
144	0xbc44b053	-0.01200493
145	0xbc6d6e15	-0.014491578
146	0xbae846f9	-0.0017721347
147	0x3c964bf8	0.018346772
148	0x3c52a63c	0.012857016
149	0x3c12b0c6	0.008953279
150	0xbc9e255e	-0.019304927
151	0x3c9b5097	0.018959327
152	0xbbf53cd3	-0.0074840575
153	0x3b354132	0.0027657268
154	0xbc7efae1	-0.015562744
155	0x3be7a1b5	0.0070688375
156	0x3c20da42	0.009817662
157	0xbb83a134	-0.0040170196
158	0x3ce61f0e	0.02809098
159	0x3c0a9bb4	0.008459974
160	0x3cad34c6	0.021143328
161	0x3c5b9a44	0.013403479
162	0x334fc0fc	4.837146e-08
163	0x3c4288ee	0.011873467
164	0xbba150e8	-0.004922975
165	0xbc6f0293	-0.014588016
166	0xbc07734d	-0.008267236
167	0xbc73aa53	-0.014872151
168	0x3c8ac7e3	0.016941017
169	0xbccdbd60	-0.025114715
170	0xbc1a2c89	-0.009410032
171	0xbbfd6b91	-0.00773377
172	0xbca21616	-0.019785922
173	0x3d28cd15	0.041211206
174	0x3beb0740	0.007172495
175	0xbb973d6c	-0.0046154764
176	0xbc4d9fad	-0.012550277
177	0xbc0311d3	-0.007999855
178	0x3ca84f3a	0.02054559
179	0xba3c8855	-0.0007191946
180	0xbc2c3d54	-0.010512669
181	0xbca41019	-0.020027207
182	0x3be80907	0.0070811543
183	0xbb99ed6f	-0.0046974937
184	0x3acbca72	0.0015548004
185	0x3bb958b2	0.0056563253
186	0x396f5e37	0.00022827914
187	0x3cc02388	0.023454443
188	0xbc030808	-0.00799752
189	0xbafb95e5	-0.0019194452
190	0xbc47c17a	-0.0121921245
191	0xbb16bde7	-0.0023001374
192	0x3babc0fa	0.0052415105
193	0x3c864dfb	0.016394606
194	0xbcaebfce	-0.021331694
195	0x3ce88da1	0.028387846
196	0xbd18c854	-0.037300423
197	0x3af1aad3	0.001843775
198	0xbb927837	-0.004469897
199	0xbca0604a	-0.019577164
200	0x3c36b6f2	0.011152016
201	0xbaaae14e	-0.0013037117
202	0x3bdbdc8b	0.0067096404
203	0xbc59a462	-0.013283821
204	0xbb6d43a7	-0.0036203654
205	0x3d222a7c	0.039591298
206	0xbc8bb594	-0.017054357
207	0x3cb3c5c5	0.02194489
208	0xbc51a16a	-0.012794832
209	0x3c9e46fb	0.019320956
210	0xbbcf4685	-0.0063255453
211	0xbad8aa43	-0.0016530234
212	0x3be0570d	0.0068463148
213	0x3c88f6ff	0.01671934
214	0xbbe31d98	-0.006931018
215	0x3c58f388	0.013241656
216	0x3c51cf1f	0.012805729
217	0xb9846562	-0.00025252538
218	0xbcbc4140	-0.022980332
219	0xbca2028a	-0.019776601
220	0x3c41ee50	0.011836603
221	0xbbb4cf5e	-0.005517884
222	0x3d10aad2	0.035319157
223	0xbc14acd0	-0.009074405
224	0xbc74377f	-0.014905809
225	0xbaac2ceb	-0.0013135945
226	0x3c518df8	0.012790196
227	0x3bce55b0	0.006296836
228	0x3cc3ac80	0.023885965
229	0x3b97739f	0.0046219374
230	0xbbcfeedf	-0.0063456143
231	0xb9c43e11	-0.00037430276
232	0x3b99e131	0.0046960344
233	0x3c28515b	0.010273303
234	0xbb2ddd73	-0.00265297
235	0x3c4bf487	0.012448437
236	0xbbf2ccd8	-0.007409673
237	0x3cce51dc	0.025185518
238	0x3aa30b4d	0.0012439281
239	0x3c32ab2d	0.010905069
240	0x3b6a2be1	0.003573172
241	0xbcadb91f	-0.021206437
242	0x3cf8f078	0.030388102
243	0xbbe5a012	-0.0070076073
244	0xbb9b3e74	-0.0047376696
245	0x3c57d26e	0.013172729
246	0xb9957683	-0.00028507793
247	0xbc218475	-0.00985824
248	0x3bfc37b3	0.0076970696
249	0xbc7c0d0c	-0.01538397
250	0x3ba2a287	0.0049632224
251	0xbc04c6b2	-0.008104013
252	0x3d0e9e88	0.034819156
253	0xbae93973	-0.001779361
254	0xbb550f38	-0.0032510292
255	0xbc182f20	-0.009288579

action_model._discrete_distribution.branches.2.bias f4 [3]
0	0x3c0e5f94	0.00868978
1	0x3be39340	0.006945044
2	0xbc7f2935	-0.015573789

action_model._discrete_distribution.branches.2.weight f4 [3, 256]
0	0x3c06b091	0.008220808
1	0x3c1ff656	0.009763321
2	0x3be70529	0.0070501757
3	0x3c67ce6b	0.014148335
4	0x3c7c861e	0.015412835
5	0x3c5630f3	0.013073194
6	0x3c271b48	0.010199375
7	0xbcb616c7	-0.022227658
8	0xbc61c2c9	-0.013779351
9	0x3c7a47c1	0.0152758965
10	0xbc3a5d0f	-0.011374726
11	0xba261d08	-0.00063367235
12	0xbc928acc	-0.01788845
13	0xbbba09b1	-0.005677425
14	0x3a8b1beb	0.0010613179
15	0xbbb58b61	-0.005540297
16	0xbc238654	-0.009980757
17	0x3a9136b0	0.001107892
18	0x3a6ae874	0.000896103
19	0x3c2ade4d	0.010428977
20	0x3c5c36ca	0.013440797
21	0x3c8ddd0f	0.017317323
22	0x3d1cd9a4	0.038293496
23	0xbc3a398b	-0.011366258
24	0x3c22e439	0.009942108
25	0xbcb54412	-0.022127185
26	0x3cc4ec3e	0.02403843
27	0x3980e19a	0.0002458215
28	0x3a787ec2	0.00094793376
29	0xbb5a6bff	-0.003332853
30	0x3c8b4bf9	0.017004
31	0xbc90989b	-0.017650893
32	0x3bd34f8d	0.006448692
33	0xbc8dcee0	-0.01731056
34	0xbadbb560	-0.0016762428
35	0x3bc30e45	0.005952629
36	0x3ba6d63a	0.0050914558
37	0xbbe553dd	-0.0069985227
38	0x3b0f734b	0.0021888788
39	0xbc2c7032	-0.010524796
40	0xba921440	-0.0011144951
41	0xbba42aaf	-0.005009971
42	0xbba37fda	-0.0049896063
43	0xba20b340	-0.0006130226
44	0xbbb11ae9	-0.0054048193
45	0x3c92e503	0.017931467
46	0xbc890285	-0.016724834
47	0x3b7545d9	0.0037425666
48	0xba95cfcb	-0.0011429725
49	0x3ce9bca7	0.02853234
50	0x3c34ef7c	0.011043426
51	0xbc21fa25	-0.009886299
52	0x3c0dea36	0.008661797
53	0xbc3ac12b	-0.011398594
54	0x3cde9556	0.027170818
55	0x3b21f5f4	0.002471325
56	0xbae73280	-0.0017638952
57	0x3c014c81	0.007891775
58	0xbc8b1e35	-0.016982177
59	0xbbcad304	-0.006189706
60	0x3bcdb90e	0.0062781638
61	0x3c657150	0.014004067
62	0xbc7ff760	-0.015622944
63	0x3c9c545c	0.019083194
64	0xbad7dcd0	-0.0016469005
65	0xbc27f57d	-0.0102514
66	0xbbdccb49	-0.0067381007
67	0x3c4cef69	0.012508252
68	0xbd11a8d5	-0.0355614
69	0x3beda632	0.007252478
70	0x3aa9d470	0.0012956988
71	0x3c479daa	0.012183586
72	0xbc7208bc	-0.01477259
73	0x3c7652c3	0.01503438
74	0xbc4265e7	-0.011865116
75	0xbbb2aa31	-0.0054524173
76	0x3c2ed9d1	0.010672049
77	0xbc90e8e1	-0.01768917
78	0xbccef695	-0.025264064
79	0x3a3875fb	0.00070366234
80	0x3bdcf9f9	0.0067436663
81	0xbb88cb2b	-0.00417461
82	0x3bd46814	0.0064821336
83	0xbb3d3328	-0.0028869603
84	0x3b338927	0.0027394982
85	0x3cd74dae	0.026282158
86	0x3ace5a71	0.0015743506
87	0x3b736f8a	0.003714534
88	0x3cc5d0a2	0.024147335
89	0x3cddce4d	0.027075911
90	0xbbf4a65f	-0.007466122
91	0xbb891117	-0.0041829455
92	0x3bc549a7	0.006020743
93	0x3bb5e7a0	0.0055512935
94	0x3ca1cbec	0.019750558
95	0xbb272c2f	-0.0025508513
96	0xbc07e4fd	-0.008294341
97	0x3b858bb9	0.004075494
98	0xbc8558f1	-0.016277762
99	0x3c20809f	0.009796291
100	0xbc4e6a66	-0.01259861
101	0xbb094819	-0.0020947515
102	0x3ca1fe24	0.019774504
103	0xbc86ce92	-0.016455922
104	0x3b5862fc	0.0033017984
105	0x3a958678	0.0011407873
106	0xbc3a6418	-0.011376403
107	0x3a61254c	0.00085886265
108	0xbade1e4a	-0.0016946283
109	0x3be7dbbe	0.007075756
110	0xbca0ce8c	-0.01962974
111	0x3c0288ae	0.007967157
112	0x3c2f5a78	0.010702722
113	0xbb606dac	-0.0034245057
114	0x3bf09c42	0.007342846
115	0x3cd058f1	0.025433036
116	0xbbc839af	-0.006110392
117	0x3bf090f6	0.0073414994
118	0x3b84282e	0.00403311
119	0x3c85e9fb	0.016346922
120	0x3b3244f2	0.002720174
121	0xbb4bd1ab	-0.0031100314
122	0x3bb6c45e	0.005577608
123	0xbc4b0b93	-0.012392896
124	0x3c6c335a	0.01441654
125	0x3bf5b9cd	0.007498956
126	0xbc46ec10	-0.012141243
127	0xbbef4404	-0.0073018093
128	0x3ba87cce	0.005141831
129	0x3ba37e68	0.004989434
130	0x3c4424b1	0.011971639
131	0x3b88ff5d	0.0041808323
132	0x3c8cbdc8	0.017180339
133	0x3b07cb95	0.002072071
134	0xbbd02256	-0.0063517494
135	0x3c26130f	0.01013638
136	0x3c93cb59	0.0180413
137	0x3bd3534e	0.0064491397
138	0xbb7de211	-0.0038739482
139	0xbc8c4741	-0.01712382
140	0xbb5476bb	-0.0032419402
141	0xbbaa8d94	-0.0052048657
142	0x3be76a49	0.0070622307
143	0x3cc7c78f	0.02438715
144	0xbc94ef25	-0.01818044
145	0x3acd109b	0.0015645208
146	0x3c2469d5	0.010034998
147	0xbc3cd9e9	-0.011526563
148	0x3c6ab9b1	0.014326499
149	0x3bd10608	0.006378893
150	0x3d05e4f9	0.03268907
151	0x3c9cfa6d	0.019162381
152	0xbc15a583	-0.009133699
153	0xbbc545d6	-0.006020288
154	0x3a6973ba	0.0008905489
155	0x3c2f824f	0.01071222
156	0x3cad4b1c	0.021153979
157	0x3bd3cd7c	0.0064637046
158	0xbc8a6140	-0.016892076
159	0xbc06d13d	-0.008228597
160	0xbc512971	-0.012766228
161	0xbbf38f4c	-0.007432854
162	0xbc19232a	-0.009346763
163	0x3c03c07b	0.008041496
164	0x3c16965d	0.009191123
165	0x3be8e703	0.007107617
166	0xbc0e51d4	-0.0086865015
167	0x391e7e28	0.00015115051
168	0x3c856c98	0.016287133
169	0x3babf5ec	0.005247822
170	0x3ba0e3e8	0.004909981
171	0x3c8f1304	0.017465122
172	0xbb00df75	-0.001966444
173	0xbc2f5936	-0.010702422
174	0x3c84ae10	0.01619628
175	0x3ccbbe8f	0.024871139
176	0xbc50d15c	-0.012745228
177	0xbc1ed5b6	-0.009694507
178	0xbb1348d0	-0.002247382
179	0x3a267eef	0.0006351312
180	0x3be3b700	0.0069493055
181	0x3c94b47c	0.018152468
182	0xbc0860aa	-0.008323828
183	0xbc33b8b8	-0.010969333
184	0x3b5a6d59	0.0033329336
185	0xbb5711d2	-0.0032817018
186	0x3b362afe	0.0027796621
187	0x3c1b416d	0.009476048
188	0x3b3acb08	0.0028502364
189	0x3b1ff0d1	0.0024405012
190	0xbd0479a5	-0.03234257
191	0x39e203cf	0.00043108917
192	0x3cabca4b	0.020970484
193	0xbc5693de	-0.013096778
194	0xbb8bf1be	-0.0042707613
195	0x3bd741d7	0.006569128
196	0x3bd68587	0.0065466794
197	0xbcef9560	-0.029246032
198	0x3b8c8daa	0.0042893486
199	0xbc8e9b9d	-0.017408187
200	0x3c74755c	0.014920559
201	0x3c0c3212	0.00855686
202	0xbbeb6fb3	-0.0071849464
203	0x3c3e515b	0.011616076
204	0x3b2a73bf	0.0026008931
205	0xb9e4c7c6	-0.00043636392
206	0xbc313c9b	-0.010817672
207	0xba47ea8b	-0.0007626197
208	0x3be1037b	0.00686687
209	0x3c9d551b	0.01920562
210	0xbc0c716f	-0.008571967
211	0x3cba7a30	0.022763342
212	0x3c348b1b	0.011019493
213	0xbbf91e28	-0.007602472
214	0x3b1d33ff	0.002398729
215	0x3c1bb00d	0.009502423
216	0x3cdc4636	0.026888948
217	0x3be5fb86	0.0070185093
218	0x3c1d62d1	0.009606079
219	0x3b897838	0.0041952394
220	0x3ba327d6	0.004979114
221	0xbbaf65db	-0.0053527183
222	0xbaa134ae	-0.0012299025
223	0x3ce608e7	0.028080417
224	0xbc4dc711	-0.012559668
225	0xbcfd2538	-0.030901536
226	0x3c5491a6	0.012974178
227	0x3a856fa8	0.0010180371
228	0x3cee76e7	0.029109431
229	0x3c88eae7	0.016713573
230	0xbc170006	-0.009216314
231	0x3bf33e5f	0.0074232067
232	0x3cbbe726	0.022937369
233	0x3ca3c2a9	0.019990282
234	0x3c28c06e	0.010299785
235	0xbc432dac	-0.0119127445
236	0x3cdb7fe7	0.026794387
237	0xbc01fc77	-0.007933727
238	0x3bba5db0	0.005687438
239	0xbc5c6a32	-0.013453053
240	0x3b71e4c6	0.0036910041
241	0x3b2c05e4	0.0026248628
242	0x3c94821e	0.018128451
243	0xbccac4da	-0.02475207
244	0x3bcee938	0.006314423
245	0x3b98bed1	0.004661419
246	0x3bf70eb7	0.007539596
247	0xba4daa8c	-0.0007845543
248	0x3b9319af	0.0044891457
249	0x3c48ff4a	0.012267897
250	0xbc244f42	-0.010028662
251	0xbcbb6648	-0.02287592
252	0x3c159d87	0.009131796
253	0xbc263d89	-0.010146507
254	0x3c3f7f14	0.011688013
255	0x3b828115	0.003982673

action_model._discrete_distribution.branches.3.bias f4 [2]
0	0xbbca4cd7	-0.006173711
1	0x3bca4cde	0.006173714

action_model._discrete_distribution.branches.3.weight f4 [2, 256]
0	0xbb1f5cb0	-0.002431672
1	0x3c4bb0d8	0.0124323
2	0x3c75e5d9	0.015008413
3	0x3c7c18c5	0.015386765
4	0xbc4d780b	-0.0125408275
5	0x3aaf70b8	0.0013385033
6	0xbac34158	-0.0014896793
7	0x3baf0f82	0.005342425
8	0x3c834232	0.016022775
9	0x39832a1d	0.00025017644
10	0x3bc33a08	0.0059578456
11	0x3c2309c6	0.009951061
12	0x3ca0988a	0.019603986
13	0xbb1abbc9	-0.0023610464
14	0x3c555ee9	0.013023117
15	0xbb615732	-0.0034384248
16	0x3b0d2fc4	0.0021543363
17	0x3ba14f27	0.004922766
18	0xbca68aae	-0.0203298
19	0xbc6e0361	-0.014527173
20	0xbd1cb60e	-0.03825956
21	0xbb82e421	-0.0039944802
22	0x3b310e9e	0.002701677
23	0xbcf798bf	-0.030224202
24	0xbc4c5177	-0.012470595
25	0x3bdcf540	0.0067431033
26	0xbc4aa0a9	-0.012367406
27	0xbb7476c2	-0.003730223
28	0xbca85fb8	-0.020553455
29	0xbcb832b4	-0.022485115
30	0xbc412f32	-0.011791037
31	0xbd1db28c	-0.038500354
32	0xbca39ca9	-0.019972162
33	0xbb517c86	-0.003196509
34	0xbca8c96b	-0.020603856
35	0xbaf11a1e	-0.0018394624
36	0x3b9b4315	0.0047382214
37	0x3cc57a10	0.024106055
38	0x3c4ac253	0.012375432
39	0x3a3c6b09	0.00071875803
40	0xba4a60a2	-0.0007720088
41	0xbcc1760c	-0.02361586
42	0xbc4aef1b	-0.012386109
43	0xbaef7014	-0.0018267655
44	0xbc1ec507	-0.00969053
45	0x3a7959da	0.0009511985
46	0xbb8f5e8f	-0.004375286
47	0x3c81445f	0.015779672
48	0x3c87c0f1	0.016571494
49	0xbc6c1beb	-0.014410953
50	0xbce0de16	-0.027449649
51	0xb99f98d8	-0.0003044072
52	0xbb8cd3fc	-0.0042977314
53	0x3ca10eba	0.019660342
54	0xbb787ec7	-0.0037917362
55	0x3c6b8f2a	0.014377395
56	0x3cd5537a	0.026040781
57	0xbb9d36cf	-0.0047977935
58	0xbc52880f	-0.012849822
59	0x3c162500	0.009164095
60	0xbcf0ad72	-0.02937958
61	0xbc735753	-0.014852363
62	0x3c48844c	0.012238573
63	0x3cc18579	0.023623215
64	0xbca21687	-0.019786132
65	0xbd0635a9	-0.032766018
66	0xbaa99d79	-0.0012940607
67	0x3c731c29	0.014838257
68	0x3a86f038	0.001029498
69	0xbcd7025c	-0.026246242
70	0x3cafaf30	0.02144584
71	0xbc924002	-0.017852787
72	0xb93fc8fd	-0.00018290053
73	0xbc892946	-0.016743314
74	0x3c097418	0.008389495
75	0xbc0179fc	-0.0079026185
76	0xbc7cfb19	-0.015440726
77	0xba071aad	-0.00051538163
78	0x3c0565b2	0.008141922
79	0xbb56d18b	-0.0032778706
80	0xbc8b6dcb	-0.017020127
81	0x3cde368f	0.027125625
82	0xbc69c881	-0.014268995
83	0x3c6c685a	0.014429176
84	0x3b09c3cd	0.0021021247
85	0xbbbf742d	-0.0058427067
86	0xbaf03fee	-0.0018329599
87	0x3b76b358	0.0037643518
88	0xbc41893c	-0.011812504
89	0x3b50b68e	0.0031847092
90	0x3c6d203d	0.014473018
91	0x3c066bea	0.00820444
92	0x3c013bbb	0.007887776
93	0x3b871dbe	0.0041234186
94	0x3c14cec2	0.009082498
95	0x3b4bbdff	0.0031088588
96	0xbcf5c5b1	-0.030001493
97	0xbaaf733e	-0.0013385785
98	0xbd00c256	-0.031435333
99	0xbc4c62b2	-0.012474703
100	0xbc7592fe	-0.014988659
101	0xbb29c2c4	-0.0025903443
102	0xbc09c944	-0.008409802
103	0xbc004012	-0.007827776
104	0x3c6b82da	0.014374459
105	0x3c1bbe01	0.00950575
106	0xbbf0e0de	-0.007351025
107	0x3bf86dc9	0.007581447
108	0xbb44c52f	-0.0030024757
109	0xbc9a7bba	-0.018857826
110	0x3c7512cc	0.014958095
111	0xbcf1123e	-0.029427644
112	0xbba1deba	-0.004939881
113	0xbd09dac2	-0.03365589
114	0xbb93126e	-0.004488281
115	0x3c25e9c8	0.010126539
116	0x3b99ac17	0.004689704
117	0x3ada7b63	0.0016668852
118	0x3bd5e8be	0.006527989
119	0xbc8bf240	-0.017083287
120	0x3c2b03ca	0.010437915
121	0xbcbb9fd2	-0.022903357
122	0x3af923ad	0.0019007825
123	0xbb97b0c8	-0.0046292283
124	0xbb9e7496	-0.0048356755
125	0xbbb031ef	-0.0053770463
126	0xbc18d153	-0.0093272505
127	0xbc0a99ed	-0.00845955
128	0xbbdc9ec5	-0.006732794
129	0xbaa1aa32	-0.0012334047
130	0x3bd45d6d	0.006480864
131	0x3cca2a8b	0.02467849
132	0x3b8a26ca	0.00421605
133	0x3c889c1b	0.016676
134	0xbb90086c	-0.004395535
135	0xbb245986	-0.0025077774
136	0xbcae5a0c	-0.021283172
137	0x3b27c8c6	0.0025601848
138	0xbc5bda1e	-0.013418702
139	0x3b8add30	0.0042377934
140	0x3c07cf0a	0.008289108
141	0x3bc049cd	0.0058681727
142	0x3c0d8c34	0.008639384
143	0xbcbe7b32	-0.023252103
144	0x3c103960	0.008802742
145	0x3ae3f868	0.0017392756
146	0x3beaaede	0.007161959
147	0xbc020d1f	-0.007937699
148	0x3c1dd67a	0.009633655
149	0x3a115f10	0.00055454765
150	0x3baa1c5e	0.00519137
151	0x3cb528cd	0.022114182
152	0x3c94eb9e	0.018178757
153	0x3a189b64	0.0005821495
154	0x3bb1df82	0.0054282555
155	0x3c3db13f	0.011577903
156	0x3c75621f	0.014977007
157	0x3ad05fb9	0.0015897668
158	0x3b09efe6	0.0021047532
159	0x3bada476	0.0052991463
160	0xbbeccd4a	-0.007226621
161	0xbcf6412a	-0.03006037
162	0x3c5ad825	0.013357197
163	0xbc5abf83	-0.013351324
164	0xbc01604f	-0.007896497
165	0x3c9e8889	0.019352214
166	0xbb84b795	-0.004050205
167	0x3cb47068	0.022026256
168	0xbc14f4d4	-0.009091575
169	0x3bfc59ff	0.007701158
170	0x3bd7d70e	0.006586916
171	0xbc1d8d41	-0.009616197
172	0xbc2a6991	-0.010401146
173	0xbc827415	-0.015924493
174	0x3a84434a	0.0010090854
175	0xbc6a25a8	-0.0142912045
176	0x3c2b0cc1	0.0104400525
177	0xbd11d0eb	-0.03559963
178	0xbc54b3ed	-0.012982351
179	0x3c24dda1	0.010062606
180	0xbc6831d6	-0.014172038
181	0xbb3d9a0d	-0.0028930933
182	0x3b74ecea	0.0037372657
183	0x3baba806	0.005238536
184	0x3c0d9c6d	0.008643252
185	0xbbec6bd5	-0.007215003
186	0x3b46cc8c	0.0030334322
187	0xbd447048	-0.047958642
188	0x3a5b62c6	0.00083689054
189	0x3c68e1ff	0.014214038
190	0x3b6386c0	0.0034717768
191	0xba762a10	-0.0009390423
192	0xbbad0f1b	-0.0052813417
193	0xbc33847e	-0.010956882
194	0xbbc5b4d6	-0.00603352
195	0xbac24210	-0.0014820714
196	0x3bc76632	0.0060851807
197	0xbc648e3f	-0.01394993
198	0xbb8424b1	-0.0040326943
199	0x3cd958a2	0.026531521
200	0xbc169592	-0.009190934
201	0xbbebec98	-0.007199835
202	0x3bfada60	0.007655427
203	0x3c090021	0.008361847
204	0xba3e0c47	-0.0007249754
205	0xbd15d4d0	-0.036579907
206	0x3d0b7ba6	0.034053467
207	0xbc41de6a	-0.011832813
208	0x3c3a973f	0.011388599
209	0xbc2d4e71	-0.010577784
210	0xbb91282a	-0.0044298368
211	0x39c1ba51	0.00036950645
212	0xbbed4be3	-0.0072417124
213	0xbc77f96b	-0.0151351495
214	0x3d07dd7f	0.03317022
215	0x3a28ca50	0.00064388383
216	0x3cc0ec73	0.023550248
217	0xbca90033	-0.020629978
218	0xbabbdd2a	-0.001433288
219	0x3c2536c4	0.010083858
220	0x3b00a04c	0.0019626794
221	0x3c5fcea4	0.013660107
222	0xbca1c738	-0.019748315
223	0x3ca54d8e	0.020178583
224	0xbac211bf	-0.0014806314
225	0xbc5b1348	-0.013371296
226	0x3c61fd36	0.01379328
227	0x3c205128	0.009784974
228	0xbc9d0ede	-0.019172128
229	0x39e3dd92	0.00043461897
230	0xbc733f36	-0.014846614
231	0x3cd69dfe	0.026198383
232	0xbd2027d8	-0.039100498
233	0x3c36b8ec	0.011152487
234	0xbc5d4699	-0.013505601
235	0xbc8f0f1c	-0.01746326
236	0xbc21c71b	-0.009874131
237	0xbd238f23	-0.039931428
238	0xbc1ad06e	-0.009449108
239	0xbc631ff6	-0.013862601
240	0x3b700750	0.0036625452
241	0xbca34766	-0.019931506
242	0xbd10914e	-0.035294823
243	0x3c1bf8b3	0.009519744
244	0x3ba8aed5	0.0051477947
245	0x3abfcf67	0.0014633954
246	0x3b0983f3	0.002098319
247	0x3c498270	0.012299165
248	0x3cb0d484	0.02158571
249	0x3b3db6ab	0.002894799
250	0xbadd417b	-0.0016880477
251	0x3aef5d25	0.0018262012
252	0x3b6dee5e	0.0036305408
253	0x3bea7de9	0.007156123
254	0xbc023869	-0.00794802
255	0xbd2ec593	-0.04266889

discrete_action_output_shape f4 [1, 4]
0	0x40400000	3.0
1	0x40400000	3.0
2	0x40400000	3.0
3	0x40000000	2.0

network_body._body_endoder.seq_layers.0.bias f4 [256]
0	0x3bb82a9c	0.005620314
1	0x3b4ed13c	0.003155782
2	0x3c67192f	0.014105125
3	0xbc36c300	-0.01115489
4	0x3c3c10bd	0.0114786
5	0x3c476175	0.012169232
6	0xbbff1254	-0.0077841673
7	0xbc881473	-0.016611313
8	0xbca46b9e	-0.020070847
9	0xbc01854a	-0.007905314
10	0x3d22aad0	0.03971368
11	0x3c869f4e	0.016433384
12	0x3c941b34	0.018079378
13	0x3d2c6350	0.0420869
14	0x3c151307	0.009098775
15	0x3d4433b9	0.04790089
16	0x3d2de801	0.042457584
17	0x3cff559c	0.031168751
18	0x3c9ef365	0.019403169
19	0x3bd0c615	0.0063712695
20	0x3cc7c35a	0.024385143
21	0x3cf34605	0.029696474
22	0x3baa734e	0.0052017337
23	0x3c928aa3	0.017888373
24	0x3d6b8c71	0.057506982
25	0x3c3fb78d	0.011701477
26	0x3d01cbe4	0.031688586
27	0x3cbc5af2	0.022992585
28	0x3d8d4486	0.068978354
29	0xbbd1d2f3	-0.006403321
30	0x3d0ed7c8	0.034873754
31	0xbc906a6c	-0.01762887
32	0x3d3332bd	0.04374956
33	0x3cf85b83	0.030317074
34	0x3c80e7da	0.015735555
35	0x3b9e7902	0.0048362026
36	0x3b0fd89e	0.0021949182
37	0xbb1be701	-0.0023788812
38	0x3bec2330	0.007206343
39	0x3cf6d467	0.030130578
40	0x3cf2075b	0.029544523
41	0x3b306cbb	0.0026920277
42	0x3c056a54	0.008143026
43	0x3b77baee	0.0037800628
44	0x3bf21f54	0.0073889885
45	0x3b7588d7	0.0037465596
46	0x3c982070	0.018570155
47	0x3d1c0dd4	0.038099125
48	0x3d2b32b0	0.041796386
49	0xba607b31	-0.0008563279
50	0x3cfd0a8f	0.030888824
51	0x3cc37128	0.023857668
52	0x3ce98352	0.028505001
53	0x3bcd0686	0.006256881
54	0x3d3d148b	0.04616217
55	0xbc90ed24	-0.017691202
56	0x3cb884cd	0.022524262
57	0x3d1b3251	0.037889782
58	0x3ca03e50	0.019560963
59	0x3c421271	0.011845217
60	0x3ae6ec99	0.0017618119
61	0x3d44f121	0.04808152
62	0x3cdd6b6e	0.027028766
63	0x3d2ed6ec	0.042685434
64	0x3d08047d	0.033207405
65	0x3c250a04	0.010073189
66	0x3da1c29d	0.07898448
67	0xbc837d99	-0.0160511
68	0xbc0fa2c1	-0.008766831
69	0xba4d4a0b	-0.00078311627
70	0x3ce254f9	0.027628409
71	0xbc664329	-0.014054098
72	0xbb54108f	-0.0032358503
73	0x3c58d4b4	0.013234306
74	0x3af79e86	0.0018891848
75	0x3ca3e24a	0.020005364
76	0x3b19f669	0.002349282
77	0x3c370b87	0.011172182
78	0x3c589a51	0.013220386
79	0xbc220ba3	-0.00989047
80	0xbbc52b06	-0.0060170917
81	0xbc7d6b88	-0.015467532
82	0x3cbd1ab4	0.023084022
83	0xbc49dae9	-0.012320259
84	0x3cb2a1ed	0.021805728
85	0x3ce939c7	0.028469933
86	0xbc8f7672	-0.017512534
87	0xbb92e0b1	-0.0044823517
88	0x3bbba4f3	0.0057264506
89	0xb9102a4c	-0.00013748667
90	0x3d3b050f	0.04565912
91	0xbc74ad29	-0.014933863
92	0x3d496611	0.049169604
93	0x3d2dd8be	0.04244303
94	0x3ced18cb	0.028942486
95	0xbc388b84	-0.011263732
96	0x3d05c82e	0.03266161
97	0x3d1520eb	0.036408346
98	0xbd186e16	-0.03721436
99	0x3cf7484f	0.030185847
100	0x3ca713b1	0.020395132
101	0xbc62aa61	-0.013834567
102	0xbc0cf8ad	-0.008604211
103	0x3c337055	0.010952075
104	0x3d225222	0.03962911
105	0x3d279578	0.04091403
106	0x3d3f7aab	0.046747845
107	0x3c7e5ca5	0.015525018
108	0xbc9bea98	-0.019032761
109	0x3c994fed	0.01871487
110	0xbc1834ae	-0.009289904
111	0x3d2e3107	0.042527225
112	0x3cba9ada	0.022778917
113	0x3bb10108	0.0054017343
114	0x3c00f758	0.007871471
115	0x3c2fd438	0.010731749
116	0x3ce3e4da	0.027819086
117	0x3bbd55ee	0.005778066
118	0x3c7f1abf	0.015570342
119	0x3c464c46	0.012103146
120	0x3c07ab6b	0.008280615
121	0x3d4f2544	0.05057265
122	0xbb98de4b	-0.0046651713
123	0xbbb9b918	-0.005667817
124	0x39bc654c	0.00035933626
125	0x3befed8b	0.0073220185
126	0x3d1129ac	0.035440132
127	0x3be4952a	0.0069757896
128	0x3bbe2f4f	0.0058039795
129	0x3d48b95d	0.0490049
130	0xbc58831e	-0.0132148545
131	0x3cc29313	0.023751771
132	0xbc1cce98	-0.00957074
133	0x3c2508db	0.010072912
134	0x3d216a5e	0.03940808
135	0x3d5641f8	0.052309006
136	0xbc0125bf	-0.0078825345
137	0x3b932f1e	0.004491701
138	0x3ca6386d	0.020290578
139	0x3d21537e	0.039386265
140	0x3ce88285	0.028382549
141	0x3cec43de	0.028840955
142	0xbcbc0b21	-0.022954525
143	0x3b96469d	0.0045860545
144	0x3d0ff5b0	0.035146415
145	0x3d8573b2	0.06516208
146	0x3d722a23	0.059122216
147	0x3cda61b3	0.026657915
148	0x3d1e4573	0.03864045
149	0x3ccbed18	0.024893329
150	0x3cf653f6	0.030069333
151	0xbb40f609	-0.0029443523
152	0x3d00a450	0.0314067
153	0x3c8097d5	0.0156974
154	0x3d20b9dc	0.03923975
155	0x3a9b8668	0.0011865618
156	0x3d4f2e93	0.050581526
157	0x3c1e22e3	0.009651872
158	0x3c869c37	0.01643191
159	0x3c221259	0.00989207
160	0x3d2f48da	0.042794086
161	0x3c960e18	0.018317267
162	0x3d408ff9	0.047012303
163	0xbc4f6a02	-0.012659552
164	0x3c8d041c	0.017213874
165	0x3c5f905c	0.013645258
166	0x3bc581ee	0.0060274517
167	0x3c0e46eb	0.0086839
168	0x3b857b9b	0.004073573
169	0x3c18da65	0.009329413
170	0x3d840f77	0.06448262
171	0x3d66be9a	0.056334116
172	0x3bdae92b	0.006680628
173	0xbca74bf7	-0.020421965
174	0xba842196	-0.001008081
175	0xbbda58e8	-0.0066634305
176	0x3be273cf	0.006910778
177	0xbd007052	-0.031357117
178	0xbb63318d	-0.0034666986
179	0x3cc5d112	0.024147544
180	0x3cbca24b	0.023026606
181	0x3c7c750b	0.015408765
182	0x3ca653a5	0.020303557
183	0x3c915106	0.01773883
184	0x3cd2831c	0.025697283
185	0xbbb5af5c	-0.005544586
186	0x3a1df167	0.00060250465
187	0x3cb20f1d	0.021735722
188	0x3cfc95af	0.030833093
189	0x3b862c09	0.004094605
190	0xbcb22321	-0.021745266
191	0x3d0cdade	0.034388416
192	0xbc2129c9	-0.0098366225
193	0x3ba52b02	0.0050405273
194	0xb7d3daa7	-2.5254978e-05
195	0x3cf8b99c	0.030361943
196	0x3c90e31b	0.017686417
197	0x3d206031	0.039154235
198	0xbbc3cc98	-0.005975317
199	0x3c96acf4	0.018393017
200	0x3cc6f72f	0.024287788
201	0x3d216072	0.039398618
202	0xbc0e1254	-0.008671362
203	0x3ba2f0a5	0.0049725347
204	0x3cf79d1d	0.030226285
205	0xbbdc9c63	-0.00673251
206	0x3d0636f8	0.032767266
207	0x3d01c023	0.031677376
208	0x3c3f983f	0.011694013
209	0x3d08e2f6	0.03341957
210	0x3ba40b36	0.0050062193
211	0x3c0fec26	0.0087843295
212	0x3c9c9523	0.019114083
213	0x3cc5429c	0.024079613
214	0x3cdfa0f9	0.027298437
215	0x3ce74682	0.028231863
216	0x3bad4655	0.0052879252
217	0x3ae4a14d	0.0017443091
218	0x3aa4e8d7	0.0012581599
219	0x3d56a3a0	0.05240214
220	0x3ca6a1f2	0.020340893
221	0xbb4d5781	-0.0031332674
222	0x3c11a46d	0.0088893
223	0x3ce76dfe	0.02825069
224	0xbaff038a	-0.0019456011
225	0xbbfb5717	-0.007670294
226	0xbb9d75f6	-0.004805322
227	0xbc731edd	-0.014838901
228	0x3c56f820	0.013120681
229	0x3afbf7dd	0.0019223649
230	0x3cc735de	0.024317678
231	0x3d156af8	0.036478966
232	0x3c1ab4d1	0.009442524
233	0x3d4ff530	0.05077094
234	0x3cd6abd9	0.02620499
235	0x3971fe34	0.00023078249
236	0xbc3a174b	-0.011358093
237	0x3c8c3871	0.017116757
238	0x3d0434b4	0.032276824
239	0x3d77fb71	0.060542528
240	0x3cbedbcf	0.023298172
241	0x3aef7ea6	0.0018271997
242	0x3c244df5	0.010028352
243	0xb983bb74	-0.0002512593
244	0x3cc2ceb3	0.023780202
245	0xbbc70d3d	-0.006074576
246	0x3cd91a20	0.026501715
247	0x3d088880	0.0333333
248	0x3c28c8ce	0.010301782
249	0x3c398b95	0.011324783
250	0x3c94a497	0.018144889
251	0x39bccc99	0.0003601059
252	0x3b72945b	0.0037014696
253	0xbb07d17c	-0.0020724228
254	0xbc88eae1	-0.016713561
255	0xb6e7ef04	-6.9121616e-06

network_body._body_endoder.seq_layers.0.weight f4 [256, 11]
0	0xbee6322f	-0.44960162
1	0x3e16f186	0.14740571
2	0xbf1a0a91	-0.60172373
3	0x3db40664	0.087902814
4	0xbd547102	-0.051865585
5	0x3ecad9cc	0.3961929
6	0xbe494ecc	-0.19658965
7	0x3f08ddf0	0.5346365
8	0xbd6b1446	-0.05739238
9	0xbe01c2fb	-0.12672035
10	0xbf3445dc	-0.70419097
11	0x3f2b960f	0.67025846
12	0x3f1452ef	0.57939047
13	0xbe5f3867	-0.2179886
14	0x3e064567	0.13112412
15	0x3e5a85ea	0.21340147
16	0x3f2c7edf	0.6738109
17	0x3f079b74	0.5297158
18	0x3e8afc1e	0.27145475
19	0xbe643fbd	-0.22289939
20	0x3e347279	0.17621793
21	0xbdbbaeb7	-0.091641836
22	0x3eb77b6c	0.3583635
23	0xbd1ad520	-0.037800908
24	0xbe639b94	-0.22227317
25	0xbde78665	-0.113049306
26	0x3ebd112d	0.36927167
27	0xbea50e8d	-0.32237664
28	0xbbf8d859	-0.00759415
29	0xbee9bf24	-0.4565364
30	0x3e16a701	0.14712144
31	0x3e1937e7	0.14962731
32	0xbe82859a	-0.25492555
33	0x3f04742f	0.5173978
34	0xbe83b85e	-0.25726599
35	0xbe51d2f2	-0.20490626
36	0x3d237221	0.039903764
37	0xbc3b7eae	-0.011443777
38	0x3eefed9b	0.46860966
39	0x3d8926d8	0.06696862
40	0x3eb35802	0.35028082
41	0x3e4d0705	0.20022209
42	0xbc765f10	-0.015037313
43	0x3e07b799	0.1325363
44	0xbe9df13a	-0.30848104
45	0x3e45d747	0.19320403
46	0xbeaba874	-0.33526957
47	0x3d994711	0.07484258
48	0x3ecfea97	0.40608665
49	0xbf045970	-0.5169897
50	0xbe69fd1e	-0.22850463
51	0xbde1d34a	-0.11026628
52	0xbe0d73c4	-0.13813692
53	0xbe02c7ae	-0.12771484
54	0x3e8754e4	0.26431954
55	0xbe2fcb92	-0.171675
56	0x3e03c1b2	0.12866858
57	0xbc989b3c	-0.018628709
58	0xbe864c2b	-0.26229987
59	0xbcdb58f9	-0.026775824
60	0xbf392b00	-0.7233124
61	0xbefd1e25	-0.4943706
62	0xbe7b6cc5	-0.24553211
63	0xbf0198a7	-0.50623554
64	0x3e73e90c	0.23819369
65	0x3e4d6753	0.20058946
66	0xbd95223a	-0.07281919
67	0xbe1f0a79	-0.15531339
68	0xbe376aef	-0.17911886
69	0xbe3cb42d	-0.18428107
70	0xbdba667f	-0.09101581
71	0x3d8a54db	0.06754466
72	0xbf2c469e	-0.67295253
73	0x3f0b990c	0.54530406
74	0x3d7163fb	0.05893324
75	0x3df8ea12	0.1215402
76	0x3e98ae1a	0.2982033
77	0x3e7c45a0	0.24635935
78	0x3eb24bb3	0.3482338
79	0xbd9dc45b	-0.077034675
80	0xbf063482	-0.5242387
81	0x3e1a8be9	0.15092434
82	0x3d385b6f	0.045009073
83	0xbda0ab4f	-0.078451745
84	0xbe1939b5	-0.1496342
85	0x3f42d1e1	0.761015
86	0x3d699c21	0.05703366
87	0x3e30142d	0.17195196
88	0x3f1810fa	0.59400904
89	0x3ec32763	0.38115987
90	0xbe7a04c9	-0.24415888
91	0x3e2510c0	0.16119671
92	0xbeb3345e	-0.3500089
93	0x3ee9e444	0.45681965
94	0xbdde9743	-0.10868695
95	0xbea50869	-0.3223298
96	0x3f2a94f4	0.66633534
97	0x3da401ad	0.08008132
98	0xbc7c0689	-0.0153824175
99	0xbe8e669a	-0.27812654
100	0x3d862446	0.06549887
101	0xbecee84d	-0.40411606
102	0xbe1e34bf	-0.15449809
103	0xbe8450c2	-0.25842863
104	0x3e837ceb	0.25681242
105	0x3f075f44	0.5287974
106	0x3eaaa574	0.33329356
107	0xbe14f6a1	-0.14547206
108	0x3f3dcb32	0.74138176
109	0xbce0f0c6	-0.02745856
110	0xbeced436	-0.4039628
111	0x3d97ce53	0.074124
112	0x3e7b8ce0	0.24565458
113	0xbe51b8e0	-0.2048068
114	0x3b8fbe61	0.0043867086
115	0x3e98b9dd	0.29829302
116	0xbc720963	-0.014772746
117	0xbec9a0c3	-0.39380464
118	0x3f0db11d	0.5534838
119	0x3e88f5f7	0.26750156
120	0xbe1c2ec9	-0.15252222
121	0x3f2f9ca0	0.68598366
122	0x3d750c50	0.059826195
123	0xbbdcdb4b	-0.006740009
124	0xbf09b138	-0.5378604
125	0xbd6a91ce	-0.057267956
126	0xbed39214	-0.41322386
127	0xbde51106	-0.111848876
128	0xbe2cba8a	-0.16868034
129	0x3eb7012f	0.3574309
130	0xbe868c16	-0.26278752
131	0x3edaa582	0.42704397
132	0x3d34b71a	0.04411993
133	0xbf4d7a50	-0.8026476
134	0x3de10db3	0.10988941
135	0xbeb52e27	-0.35386774
136	0xbe80eff4	-0.2518307
137	0x3e8f36e5	0.2797157
138	0x3e262fc9	0.16229166
139	0xbe410d73	-0.18852787
140	0x3f0ab372	0.5418006
141	0xbde0c022	-0.109741464
142	0xbe5474b8	-0.2074765
143	0x3e496c8d	0.19670315
144	0xbdb8ac2a	-0.09017213
145	0x3f007c70	0.50189877
146	0x3e120ff6	0.14263901
147	0xbed419a8	-0.41425824
148	0x3e3aed7c	0.18254656
149	0x3e595a3d	0.2122583
150	0x3de0f876	0.1098489
151	0xbde58ed7	-0.11208885
152	0x3ea4da7d	0.32197943
153	0x3de64831	0.11244238
154	0xbeeab600	-0.4584198
155	0xbd32ef4a	-0.043685235
156	0x3e6d2767	0.23159562
157	0xbd25e1c9	-0.04049853
158	0xbf0e7dfb	-0.5566098
159	0x3edada48	0.4274466
160	0xbd0b1bfc	-0.033962235
161	0x3eede52d	0.4646391
162	0x3e700696	0.23440012
163	0x3efc5115	0.4928061
164	0x3f0496fc	0.51792884
165	0x3c78db3f	0.015188991
166	0xbe5f3d38	-0.21800697
167	0x3ef18b46	0.4717657
168	0x3e9421a5	0.2893192
169	0x3e10b642	0.14132026
170	0xbee32628	-0.44365048
171	0x3eef4bda	0.46737558
172	0xbe8c816f	-0.274425
173	0xbf564224	-0.8369467
174	0x3dbb2bde	0.091392264
175	0xbd1b4515	-0.03790768
176	0xbf30c41a	-0.6904923
177	0x3f10d2f3	0.5657188
178	0xbc75bf9d	-0.014999297
179	0x3e8a4391	0.27004674
180	0xbd5f9030	-0.054580867
181	0xbd2620f9	-0.04055879
182	0x3dab39af	0.08360612
183	0x3d8a43ac	0.06751189
184	0x3e0ca00b	0.13732927
185	0x3ebda83f	0.37042424
186	0xbe4f6960	-0.20255041
187	0xbe849b91	-0.25899938
188	0x3da5acb9	0.08089585
189	0xbe086fd3	-0.13323908
190	0x3e8766e1	0.26445678
191	0x3e969482	0.29410177
192	0x3ea53076	0.32263535
193	0xbe0a2173	-0.13489322
194	0xbe92de04	-0.2868501
195	0x3e438050	0.19091916
196	0xbabd2d69	-0.0014433089
197	0xbe16a643	-0.14711861
198	0x3e4bb0fa	0.1989173
199	0x3f36d2b7	0.71415275
200	0xbec4df9a	-0.38451844
201	0xbf16e651	-0.58945185
202	0xbf350091	-0.7070399
203	0xbbc32a76	-0.0059559895
204	0xbd51ee56	-0.051252685
205	0x3d99b569	0.07505304
206	0xbd8e8982	-0.06959821
207	0x3d1864e2	0.037205584
208	0x3efc69a0	0.49299335
209	0xbe734d8d	-0.23760052
210	0x3ec0eecb	0.37682185
211	0xbc8d082f	-0.017215816
212	0x3e16dc1d	0.14732404
213	0x3ef39711	0.47576192
214	0xbdaf7fdb	-0.08569308
215	0xbe5cd28a	-0.2156469
216	0x3d067924	0.032830372
217	0x3e606c83	0.21916394
218	0x3ce9b6a4	0.028529473
219	0x3d6f7c21	0.058467988
220	0xbf09f2ce	-0.53886116
221	0xbdad4953	-0.08461251
222	0xbed55bfe	-0.41671747
223	0x3eb1f9cb	0.3476089
224	0x3ee6cefb	0.4507979
225	0xbd2b843f	-0.041874167
226	0x3c389324	0.01126555
227	0xbe5e5c9e	-0.21715018
228	0x3d249299	0.04017887
229	0xbca04a0b	-0.019566556
230	0xbda16aa5	-0.07881669
231	0xbec8db4b	-0.39229807
232	0xbe6b8c62	-0.2300277
233	0x3e8ee726	0.27910727
234	0x3df737bd	0.12071178
235	0x3e8a2ade	0.2698583
236	0xbe765ccb	-0.24058835
237	0x3e9d1dbf	0.30686757
238	0xbe9359c0	-0.2877941
239	0x3e7bebbd	0.24601646
240	0xbd976ab9	-0.073934026
241	0x3e278eec	0.16363114
242	0x3f40084c	0.7501266
243	0x3f0d8894	0.55286527
244	0xbf17173d	-0.59019834
245	0x3e22d130	0.15900111
246	0x3e8bbf87	0.2729456
247	0xbed41832	-0.4142471
248	0xbe8cdc94	-0.27512038
249	0x3f1ba425	0.6079734
250	0xbcb498b3	-0.022045469
251	0xbe7831d8	-0.24237764
252	0xbdb6a3b8	-0.089179456
253	0x3ce99f12	0.028518233
254	0xbdee1149	-0.11624391
255	0xbee66919	-0.45002058

network_body._body_endoder.seq_layers.2.bias f4 [256]
0	0xbb89a25f	-0.0042002643
1	0xbb94f2e5	-0.004545557
2	0x399ad777	0.00029533703
3	0x3c64d661	0.013967128
4	0x3bb7cf96	0.005609463
5	0xbbfd8411	-0.007736691
6	0xbc1e2c8b	-0.009654175
7	0xbc8ec7f2	-0.017429326
8	0x3be862db	0.0070918626
9	0xbbcb2445	-0.006199392
10	0x3c7eef03	0.0155599145
11	0xbc8f2fd4	-0.01747886
12	0x3cb7bd9d	0.022429282
13	0x3c2638cb	0.010145376
14	0x3cf3bf9b	0.02975445
15	0x3bba105c	0.0056782197
16	0x3c84565f	0.016154466
17	0xbb1f21bf	-0.002428159
18	0x3b2eb932	0.0026660678
19	0x3d112fa6	0.03544583
20	0x3c3c88bd	0.01150721
21	0x3b65e207	0.003507735
22	0x3bf6c495	0.0075307586
23	0x3d306f68	0.043074995
24	0x3b81a762	0.003956721
25	0x3cace0db	0.021103313
26	0x3ac92c58	0.0015348298
27	0x3b626490	0.0034544803
28	0xbb9de3d6	-0.00481842
29	0x3c824b1b	0.015904954
30	0x3c002010	0.007820144
31	0x3c958c07	0.018255247
32	0x3bce88e8	0.0063029416
33	0x3d06965b	0.032858234
34	0x3d05d96b	0.03267805
35	0xbc218440	-0.009858191
36	0xbc10634c	-0.008812737
37	0xbc283ac5	-0.010267918
38	0xbc85fd17	-0.016356034
39	0xbaf06800	-0.0018341541
40	0xbc424ebc	-0.011859592
41	0x3ce22277	0.027604325
42	0x3ced51bb	0.028969636
43	0xbc8bbe2c	-0.017058454
44	0x3c93e568	0.018053725
45	0x3ab348c1	0.0013678299
46	0x3c4bf402	0.012448313
47	0x3c23786c	0.009977441
48	0xbc830845	-0.015995154
49	0x3a80a813	0.0009815715
50	0x3cb3cc16	0.021947902
51	0x3d0156a1	0.031576756
52	0xbba5b744	-0.0050572474
53	0x3be9133e	0.0071128896
54	0x3a325e0e	0.00068041764
55	0xbc4daaed	-0.012552959
56	0xbb2f4d6b	-0.0026749026
57	0xbc76aa57	-0.015055261
58	0x3b94a614	0.0045363996
59	0x39c97147	0.00038422106
60	0x3c7bf9ac	0.015379351
61	0x3c130c21	0.00897506
62	0x3c061eb8	0.008186035
63	0xbc05e230	-0.008171603
64	0x3d0a4938	0.033761233
65	0x3d1e0266	0.038576506
66	0xbbdba28c	-0.0067027267
67	0x3c8668d3	0.016407406
68	0x3bc3b535	0.0059725293
69	0x3c938a05	0.018010149
70	0xbc999a60	-0.01875037
71	0x3ccf713d	0.02532255
72	0x3b8e7f5c	0.0043486785
73	0x3c5a0567	0.013306952
74	0xbb3bf859	-0.0028681962
75	0x3c3ef9dd	0.011656252
76	0x3c95409a	0.018219281
77	0x3c66c908	0.0140860155
78	0x3d1eb1ee	0.038743906
79	0x3a2d529b	0.00066117354
80	0x3c94ad9a	0.018149186
81	0xbcb65090	-0.022255212
82	0x3c8b8720	0.017032206
83	0xbc7e3f3e	-0.015518008
84	0xbca2fd5a	-0.019896198
85	0xbc854845	-0.016269812
86	0xbb5f896d	-0.0034109012
87	0xb9133585	-0.0001403895
88	0xbc4475bf	-0.0119909635
89	0x3cc952a4	0.024575539
90	0x3a66a758	0.000879874
91	0xbbacf89e	-0.005278661
92	0xbb9e207b	-0.0048256493
93	0xbc9d4031	-0.019195648
94	0xbc47ea52	-0.012201862
95	0xbc86005a	-0.01635759
96	0x3d22aeca	0.039717473
97	0xbca3a647	-0.019976748
98	0x3cfda22a	0.030961115
99	0xba2fdf7d	-0.00067090226
100	0xba766443	-0.00093990954
101	0xbc15a714	-0.009134073
102	0x3b9f3bf0	0.00485944
103	0x3bc9fd7b	0.0061642504
104	0xbc7923c9	-0.015206286
105	0x3d5d483f	0.054023977
106	0x3c8f41d3	0.017487442
107	0x3d210938	0.039315432
108	0xbc1ef228	-0.009701289
109	0x3c11707e	0.008876918
110	0xbbdbdb84	-0.006709518
111	0x3c8f0fa9	0.017463522
112	0xbc5bd796	-0.013418099
113	0x3d11633f	0.03549504
114	0xbc950f7e	-0.018195864
115	0xbcca6734	-0.024707414
116	0xbbe0b928	-0.00685801
117	0xbb87b5aa	-0.004141529
118	0x3c374962	0.011186929
119	0x3bc7d615	0.0060985186
120	0x3b845da3	0.0040394827
121	0x3c6a74c6	0.0143100675
122	0xbc43bd56	-0.011946997
123	0x3c8339af	0.016018717
124	0x3c9543c1	0.018220784
125	0x3c8b1d6a	0.0169818
126	0x3ce9f0bc	0.028557174
127	0x3ccef0e1	0.025261344
128	0x3c18d4db	0.009328092
129	0x3ca04f0c	0.019568942
130	0x3973985b	0.00023231043
131	0x3b9d453c	0.004799513
132	0xbc409486	-0.011754161
133	0xbc695d0a	-0.014243374
134	0x3c13e95a	0.009027803
135	0x3ca87a60	0.020566165
136	0x3b6ed823	0.0036444745
137	0xbc20da20	-0.00981763
138	0x3c2a4bd7	0.010394058
139	0xbc9f98fc	-0.019482128
140	0x3d030d2f	0.031994995
141	0x3c9463f0	0.01811406
142	0xbcb2b6bc	-0.02181565
143	0xbb6dc316	-0.003627961
144	0x3cc06165	0.023483941
145	0x3ca0e767	0.019641591
146	0x3c20ddc5	0.009818499
147	0x3b86513d	0.00409904
148	0xbbb9232c	-0.005649945
149	0xbc232899	-0.00995841
150	0xbb0efa90	-0.0021816827
151	0x3c357c4f	0.011077001
152	0x3bc0d70a	0.0058850097
153	0x3c5fa1df	0.013649433
154	0x3d2338a4	0.03984894
155	0x3c92af1f	0.01790577
156	0x3bc5a94e	0.0060321456
157	0x3d028969	0.031869326
158	0x3c88150d	0.0166116
159	0x3d095cc3	0.03353573
160	0x3ca44294	0.020051278
161	0x3bacc38f	0.005272336
162	0x3cb2249f	0.021745978
163	0xbbf2b0a4	-0.007406311
164	0xbbe09788	-0.0068540014
165	0xbbc249a6	-0.0059291897
166	0xbc035dcb	-0.008017967
167	0xba5486cd	-0.0008107245
168	0x3ca679be	0.020321723
169	0xbc0d0572	-0.008607255
170	0x3beb479f	0.0071801688
171	0x3bcf4cbf	0.0063262875
172	0xbc2af9e9	-0.01043556
173	0x3ca86f36	0.020560842
174	0x3c88071c	0.016604953
175	0x3b2eb48f	0.0026657914
176	0x3d197ca6	0.03747239
177	0x3c928c39	0.017889129
178	0x3b90df96	0.004421185
179	0xbc914d7d	-0.017737145
180	0x3c1ec7e3	0.009691211
181	0xbc28501e	-0.010273008
182	0xbcadaf06	-0.021201622
183	0x3be9418e	0.0071184104
184	0xbc33bbb6	-0.010970047
185	0x3bb7c0eb	0.0056077144
186	0x3cf19e53	0.02949444
187	0x3c7d8b01	0.015475036
188	0x3bceab07	0.006307009
189	0x39e76615	0.0004413581
190	0xbc0c1a76	-0.008551231
191	0xbbaf7808	-0.005354885
192	0xbc0f0d99	-0.008731269
193	0x3c8528df	0.01625484
194	0xba27d223	-0.0006401857
195	0xbb2b63a0	-0.002615191
196	0x3c5f27cb	0.013620327
197	0x3d1bd4f3	0.03804488
198	0xbb8e8dee	-0.0043504154
199	0x3c4d7d46	0.012542075
200	0x3c4ff6ef	0.012693151
201	0xbbd47448	-0.0064835884
202	0x3bdab4e3	0.0066743954
203	0xbcae94a6	-0.021311115
204	0xbbb152fd	-0.0054115043
205	0x3cf01941	0.029308917
206	0xbb44e365	-0.0030042764
207	0x3c6475d5	0.013944109
208	0x3b9c5304	0.0047706384
209	0xbbd7f1aa	-0.006590088
210	0x3c99cbc8	0.018773928
211	0xbc52cab0	-0.012865707
212	0x3baacf2e	0.005212686
213	0x3b452820	0.003008373
214	0xbb095af3	-0.002095875
215	0xbc27190b	-0.010198842
216	0x3c8996b2	0.01679549
217	0xbc47dab4	-0.012198139
218	0x3c6cb47d	0.014447329
219	0x3ac038e1	0.0014665389
220	0xbc6fee3a	-0.0146442
221	0x3cd00cf9	0.02539681
222	0x3d14dec3	0.036345255
223	0xbc871d89	-0.016493576
224	0xbca5a656	-0.020220917
225	0x3cf325b3	0.029681062
226	0x3c91a406	0.017778408
227	0x3ae0f4ca	0.0017162797
228	0x3d201d6c	0.03909056
229	0xbc026e5e	-0.007960884
230	0x3d38ae00	0.045087814
231	0xbbafbaf8	-0.0053628646
232	0x3c06de0b	0.00823165
233	0xbc672ed2	-0.014110284
234	0x3b8669b2	0.0041019553
235	0x3d026637	0.03183576
236	0x3b4237dc	0.0029635346
237	0x3d165593	0.036702704
238	0xbc9c7293	-0.019097602
239	0x3ce1cb1c	0.02756267
240	0xbc4385d3	-0.011933762
241	0x3bc7d732	0.0060986513
242	0x3cae80f4	0.021301724
243	0x3cd76906	0.026295196
244	0xbb4606fa	-0.003021656
245	0x3c528377	0.0128487265
246	0x3c9c88a9	0.019108133
247	0xbc4ff2e4	-0.012692187
248	0x3ba49805	0.005023005
249	0x3caf1be9	0.021375613
250	0xbca4306e	-0.020042624
251	0x3d3e2ae4	0.046427622
252	0x3b7b6813	0.0038361594
253	0xbbd3625f	-0.0064509357
254	0xbc99115e	-0.01868504
255	0x3cd046a0	0.025424302
